model_parameter/traffic/GAttention_final.pth (torch, 906972 bytes, 378 tensors)

embedding.traffic_embedding.0.weight f4 [32, 1]
000000 90 2a a7 3e 85 13 a8 3e 7f a7 21 bf c8 f7 29 bf
       0.3264966 0.32827392 -0.63146204 -0.6639371
000010 14 b2 2f bf 5e b6 f4 3e 93 58 9d be 3b a8 a1 3e
       -0.686311 0.47795385 -0.3073164 0.31573662
000020 a8 3b e8 bc e8 27 2e 3e f8 8c 7d be e5 41 f7 3e
       -0.028348759 0.1700741 -0.24760807 0.4829246
000030 fb 31 36 bf a2 ad 24 bf 04 00 f9 be c1 db 3d bf
       -0.71170014 -0.6432744 -0.48632824 -0.7416344
000040 77 3d 87 3f 8c 8c df be 66 74 be 3e 4e fb 3b 3e
       1.0565633 -0.43661916 0.3719818 0.18357584
000050 d7 36 15 3f bf 49 d7 be 36 a4 82 bf 3c 2e 7c be
       0.58286804 -0.4204845 -1.0206363 -0.24627012
000060 ad 73 8d bf fa 2c 64 3e 63 d1 f0 3e 99 f7 1d bf
       -1.1050926 0.22282782 0.4703475 -0.6170593
000070 2c 9a ec be 20 26 00 bf f3 80 0a 3f fd c6 5b bf
       -0.46211374 -0.50058174 0.5410301 -0.8585051

embedding.traffic_embedding.0.bias f4 [32]
000000 67 41 1d 3f fd 0a b3 3e 8c 02 08 3f 4f e3 be 3d
       0.6142792 0.3496932 0.53128886 0.093206994
000010 5d e3 54 3f bb 95 ef bd 4a 2c 20 be bb 56 e6 3e
       0.8315943 -0.11698481 -0.15641895 0.44988045
000020 1a 2c a9 bc df 30 4d bf f6 ed f1 3e 26 70 1b 3d
       -0.020650912 -0.80152696 0.47251862 0.03794875
000030 03 1b 80 bf b7 d2 22 bf d0 27 28 3f 66 53 7d bf
       -1.0008243 -0.63602775 0.6568575 -0.9895538
000040 fd fd f9 3e fc a7 81 3e da 14 f5 3d 63 c3 61 bf
       0.4882659 0.25323474 0.11966868 -0.8818876
000050 f6 99 61 3e b4 fd 8f 3e d8 b4 42 3f 58 55 8b 3e
       0.22031388 0.28123248 0.76057196 0.2721355
000060 38 f4 56 3e 92 48 ec 3d 8e 07 42 bd 7f 20 b9 bd
       0.209916 0.11537279 -0.047370486 -0.09039401
000070 de e8 4a bf 24 0c 49 bf 3a 38 6b 3f 6b b0 34 3f
       -0.7926158 -0.7853415 0.9188267 0.7058169

out.linear.layers.0.weight f4 [32, 32]
000000 5a 83 ab be 86 5f d4 be ee fc b6 3d 1f 85 4a 3d
       -0.3349865 -0.4147913 0.08934961 0.04944336
000010 02 91 8d 3e 27 d8 8d 3b eb d7 4b 3e a5 e5 0c 3f
       0.27649695 0.004328746 0.19906585 0.5503791
000020 e0 18 0c be e5 58 0d 3d 01 4b c3 be 2c ac 69 3c
       -0.13681364 0.034508605 -0.3814316 0.01426224
000030 49 1c 23 3e fb fe 84 3d 33 f3 1c bf 16 8b 67 be
       0.15928759 0.06493946 -0.6130859 -0.22611651
000040 46 ac 59 3d 08 63 f1 3c 7c d2 0b bf 51 0f 2a bd
       0.05314281 0.029466167 -0.5461805 -0.041518513
000050 f2 af dd bd 3e 0b 2d bd fa e3 a6 be a1 ff 53 be
       -0.108245745 -0.04224705 -0.32595807 -0.20702983
000060 11 a7 93 3c 22 6f 58 3f 4f ea db bd a4 2d 3e bd
       0.018024 0.84544575 -0.1073805 -0.046430245
000070 c4 89 8c 3c b8 06 fd 3e 4f cd e1 3b d1 4f 29 3e
       0.017155536 0.49419188 0.00689093 0.16534354
000080 6b 44 23 bd 35 de fc be e3 02 43 bd d7 62 49 3e
       -0.03986017 -0.4938828 -0.047610175 0.1966661
000090 a8 82 2a be 9c 79 76 3e 9a 15 23 be 36 6a 16 bf
       -0.16651404 0.24069828 -0.15926209 -0.58755815
0000a0 f0 a9 80 3e 92 7a 23 bf e7 97 80 bd cc 8c 8a bd
       0.25129652 -0.638589 -0.06278973 -0.06765136
0000b0 ad fb 32 3e e0 32 87 bd 72 20 2d 3d f4 dd a1 be
       0.17478819 -0.066015005 0.04226727 -0.3161465
0000c0 ed ed 57 be 3e df 56 bd 2f 29 8d be 3c 69 5b 3e
       -0.21086855 -0.052458994 -0.27570483 0.21426862
0000d0 d3 28 f2 be 3a 84 0a 3d 37 88 7f 3e 11 19 c2 be
       -0.4729677 0.033817507 0.24954306 -0.3790975
0000e0 d8 b5 31 3c 6a ce af 3d 3f b9 d2 3e 26 f7 eb bd
       0.010846578 0.08584292 0.41156957 -0.11521749
0000f0 58 ec 35 3d 02 4f 07 be 08 fe d7 3e 5f 60 cc 3d
       0.044414848 -0.13213733 0.42185998 0.09979319
000100 6c 42 bf bd e2 27 e8 3d 24 30 d0 bd 6e c3 1b 3e
       -0.09338841 0.11335732 -0.10165432 0.1521127
000110 7d 96 e3 3c 92 5a f1 3c 9a 08 97 be fa dd c8 be
       0.02778172 0.029462133 -0.2949875 -0.39231855
000120 44 e0 eb 3c ce 79 84 be f1 7d 9b bd d0 ae f1 3c
       0.028793462 -0.2587418 -0.07592381 0.029502302
000130 14 25 3f 3e da e5 44 be 99 d5 80 be 2b 15 7f 3e
       0.18666488 -0.19228306 -0.25162962 0.24910419
000140 6e b4 8f be 37 ab a4 3d 3c e8 8f bd 79 1b 44 3e
       -0.28067344 0.08040469 -0.07026717 0.19151105
000150 f0 0f 4a bc ba f6 d3 bc 31 72 90 3d c1 df 29 bc
       -0.012332901 -0.025874484 0.0705303 -0.0103682885
000160 6d 56 16 3e 49 7d ef bd 0d 15 c9 3d 23 4c a6 3d
       0.14681406 -0.11693818 0.09818468 0.08119991
000170 e7 41 b1 3b 72 e6 07 be 20 66 23 be 48 c0 93 3e
       0.0054094675 -0.13271502 -0.15956926 0.28857636
000180 54 b5 09 3e 42 6f c7 3d 0a c3 15 bc b8 5c 36 3e
       0.13448077 0.097380176 -0.009140739 0.17808807
000190 02 56 c6 3d 75 30 6d be 0b b7 ad 3c f7 d3 a9 3d
       0.096843734 -0.23163016 0.021205446 0.08292382
0001a0 6c b3 b8 3d 9f 57 e7 bd b6 a4 17 3d a9 f5 47 3e
       0.09018597 -0.11296009 0.037022315 0.19527306
0001b0 d3 41 89 bb 90 a3 1b be ae 31 08 bf 48 0a 3f 3c
       -0.004188755 -0.15199113 -0.53200805 0.011660166
0001c0 23 82 94 be 51 70 cd 3d a5 10 06 3d c4 3a 97 3e
       -0.29005536 0.10031188 0.032730717 0.29537022
0001d0 a0 be 93 3e fb 6b 05 3e 7a 05 5a bd 80 b7 89 3c
       0.28856373 0.13029473 -0.05322788 0.016811132
0001e0 9c 9f ec 3c c8 58 d8 3d ac 93 88 be c1 5c 90 3d
       0.028884701 0.10563809 -0.26675165 0.070489414
0001f0 22 19 a6 be 25 6f f0 3d 39 d8 1d 3d e9 b6 d1 3e
       -0.3244105 0.11739949 0.038536284 0.40959862
000200 dc bc 87 be 7d ed 30 3c a2 6c 98 be c0 96 cf 3d
       -0.26511276 0.010798809 -0.2977038 0.10136175
000210 4f fe f4 be 07 f7 34 be 5b 91 a6 be 70 8c bf be
       -0.47850272 -0.17672358 -0.32532772 -0.37411833
000220 92 09 47 3e 36 c4 02 3e 70 51 6b be 71 71 8d bd
       0.19437245 0.12770161 -0.22980285 -0.06906403
000230 a9 13 45 be 2c 87 a6 be a0 da d5 3d 9a 4a 71 bd
       -0.19245781 -0.32525003 0.1044209 -0.058909036
000240 7c 5d cc bc 8d b0 b2 bd 45 cf 82 bd 40 41 d7 bd
       -0.02494692 -0.08725081 -0.0638719 -0.10510492
000250 9c f1 82 3d 86 45 d1 be 0a 96 8a be 7b a6 dc bc
       0.063937396 -0.40873355 -0.27067596 -0.026934853
000260 bd 2b e0 bc 5e 55 3c 3f e1 56 a0 3e 09 39 bf be
       -0.027364606 0.7356776 0.31316283 -0.37348202
000270 f2 03 1a bf dd 11 10 bf e8 6b 4c 3d cf 2b 0d 3d
       -0.6016227 -0.5627726 0.049907595 0.034465607
000280 ea f8 b5 bd cf dc 54 3e 08 c0 55 3d d1 a8 07 3e
       -0.08885367 0.20787357 0.05218509 0.13247992
000290 ea 4e 38 3e 4d d4 2d 3e 79 90 93 be 53 fa 6c be
       0.17998853 0.16975518 -0.2882116 -0.23142366
0002a0 46 71 3a 3e 64 3b 92 be 9c 28 ed bd fe 81 49 be
       0.18207273 -0.28560936 -0.11580011 -0.19678494
0002b0 e4 bc 1c 3e 05 18 f3 3d 3c df 21 3e 36 95 34 bd
       0.15306431 0.11869816 0.15807813 -0.04408761
0002c0 f9 34 91 3e 5e b3 88 3d 63 7f cd be c7 86 5e be
       0.28360727 0.066748366 -0.4013625 -0.21731101
0002d0 73 38 c5 3d be c8 e1 be a5 1a a7 be 2b 5d 2d be
       0.096299075 -0.44098467 -0.32637516 -0.16930072
0002e0 01 b9 5e be e3 8c 09 3e dc 37 bb bd b5 6c 68 bd
       -0.21750261 0.1343265 -0.09141514 -0.056744296
0002f0 94 26 55 be 43 59 70 be 27 d6 ca 3d 3c 73 7e 3e
       -0.20815498 -0.2347155 0.099041276 0.24848646
000300 d0 eb b5 bb ee 07 82 3d 8f 00 c4 be d5 85 cb 3d
       -0.0055517927 0.06349169 -0.38281676 0.09937636
000310 a3 05 e5 3e 66 9e 40 3e 57 ef 0e be 39 11 5a bc
       0.44730863 0.18810424 -0.13958488 -0.01330977
000320 5e fe c2 bd bb 2d 18 3e 81 a1 a3 3b 09 2a e5 3d
       -0.09521173 0.14861195 0.004993618 0.11189658
000330 ba 36 26 bc bd 15 42 bd 5b 05 83 be da f3 cd bc
       -0.010144884 -0.047384012 -0.25590023 -0.025140692
000340 82 6a 41 3d 73 86 15 be 26 4a 69 be ec 05 a7 be
       0.047220714 -0.1460207 -0.22782192 -0.32621706
000350 ac 02 9d be 75 4d 36 3c db c9 17 3e f1 a9 90 3e
       -0.306661 0.011126866 0.14823096 0.28254655
000360 b1 a7 9c 3e d9 82 a9 be ab 53 c1 3c 78 ce 02 3d
       0.30596688 -0.3310764 0.023599466 0.031935185
000370 3c 86 ac 3e c0 92 40 be 58 d9 98 be 32 8b 1b be
       0.33696163 -0.1880598 -0.2985332 -0.15189818
000380 fc cd 48 be bd e6 97 3e a0 ca 02 bd 4c 1e 85 be
       -0.19609827 0.29668227 -0.03193152 -0.25999677
000390 e0 9e 81 3d 64 d2 1f be 61 c0 d7 3d 72 67 be bd
       0.06329131 -0.15607601 0.1053474 -0.092970744
0003a0 f4 1f be 3c 64 06 d8 3d 05 68 e1 3d 9d c0 b3 3d
       0.023208596 0.10548094 0.11006168 0.087769724
0003b0 1a 3d ce bd 1e ba 61 3e fa 50 0f be c2 24 f2 bd
       -0.10070248 0.22043654 -0.13995734 -0.11823417
0003c0 58 cf 9e be d4 a0 cc bb 7a 8c c0 bd be f3 63 3d
       -0.31017566 -0.006244758 -0.09401794 0.055652373
0003d0 58 ae 79 bb f6 28 6b 3e 63 6e 8c 3d dc 4d 03 3e
       -0.0038098302 0.22964844 0.06856992 0.1282267
0003e0 a5 18 41 3d d7 d4 cf be f6 91 5b be 16 2d 9b 3e
       0.047142643 -0.4059207 -0.21442398 0.30307835
0003f0 34 bc 0e bd d2 0d 3b 3e 93 ce ed bd fa 7a 01 bd
       -0.034847453 0.18266991 -0.116116665 -0.03161142

out.linear.layers.0.bias f4 [32]
000000 7f 91 d6 3b c9 90 20 be 5d d6 89 3d 47 2b 7a bd
       0.006548106 -0.15680231 0.0673034 -0.06107643
000010 b8 27 7e bd 6c 7a 12 3e b4 63 2d 3e 1a cf c0 3c
       -0.062049598 0.14304513 0.16932565 0.023536254
000020 aa b5 55 bd f3 30 eb 3c e4 52 b8 3d cf 49 9d 3d
       -0.0521752 0.028709864 0.09000185 0.076800935
000030 41 3b 42 3e 77 12 fd bd 26 e0 91 3c b5 f1 16 3e
       0.18967916 -0.123570375 0.017807078 0.14740641
000040 ea fc 90 3e fd c6 93 3e 77 8b 9e 3c ef 58 85 bd
       0.28317958 0.28862754 0.019353611 -0.06511103
000050 44 52 df 3d 2b 1d 44 3e 42 1b 35 be a2 1e f2 3d
       0.10904363 0.19151752 -0.1768618 0.11822249
000060 8a 6d dd bc 84 db 9e be d8 be 22 bd 41 9c 42 3d
       -0.027029771 -0.31026852 -0.039732784 0.047512297
000070 3b 32 0a bc 37 87 23 3d b8 7b 83 3d 8f dc 6f bd
       -0.008434827 0.039923873 0.06420082 -0.05855995

out.linear.layers.2.weight f4 [32, 32]
000000 c2 72 d2 bd 03 b1 57 3d a7 5c 29 3e e3 37 0d 3e
       -0.102757946 0.052659046 0.1653925 0.1379085
000010 f3 84 73 3e 70 62 b0 be df 3d 65 3e ca cc 6c bd
       0.23781185 -0.34450102 0.22386883 -0.05781249
000020 32 07 5d 3e f3 00 04 3d f4 35 03 3e de ca 97 bc
       0.21584776 0.032227468 0.1281355 -0.018529352
000030 ef 3f 43 bd c4 0a 44 bc d2 75 38 3e ec 18 a0 be
       -0.047668394 -0.011965457 0.18013695 -0.31269014
000040 15 e8 52 bd 65 36 af bd 70 8d 02 3d 10 66 20 be
       -0.051490862 -0.08555297 0.031873167 -0.15663934
000050 3a a8 10 be a0 08 81 b9 ac ba d5 be 07 d8 75 be
       -0.14126673 -0.00024611223 -0.41743982 -0.24008189
000060 8a ca 8a be ea 7e ad bd 80 cd 92 be e0 a1 56 3e
       -0.2710765 -0.084714726 -0.2867241 0.20960188
000070 67 98 5a 3e e1 de bc 3d 52 8f 1d 3e 19 dc 2a 3e
       0.213472 0.09222198 0.15386704 0.16685523
000080 75 92 8b 3e 20 93 09 be 33 5a 22 3e 6c 17 9a be
       0.27260175 -0.1343503 0.15854721 -0.30095994
000090 57 ad 49 3f 57 e8 b8 be 8c 5f 8e be 0c 61 50 be
       0.7878012 -0.3611476 -0.2780727 -0.2034952
0000a0 6b bd 30 be 7a cd 8f be a1 2b 46 bf 90 8b 8c bd
       -0.17259757 -0.28086454 -0.7741032 -0.06862557
0000b0 1c 62 41 3e b3 ce ba bd 4d 1f 21 3e 83 88 16 3d
       0.18885082 -0.09121456 0.15734597 0.03675128
0000c0 c7 51 ec be f3 8d c8 be 0c d2 f1 3d de 3f 13 3e
       -0.4615614 -0.391708 0.118076414 0.14379832
0000d0 c2 9d 68 3e a8 3c 24 3e 69 e1 aa be a2 6f 84 b8
       0.2271643 0.16038764 -0.333751 -6.315044e-05
0000e0 c0 d4 4a be 71 b8 92 3d 9d a5 97 3e 4f 37 2e be
       -0.1980772 0.07164086 0.2961854 -0.17013286
0000f0 87 a9 da 3d 85 46 15 be dc 0d 5c bd 18 21 6b 3b
       0.10676866 -0.14577682 -0.053724155 0.003587788
000100 b1 88 3a 3e e4 99 26 3e c2 f5 97 3d 5d b6 5b bd
       0.18216206 0.16269642 0.074199215 -0.053640712
000110 a3 de d5 3d 3d 71 da 3e d8 d7 22 bd eb 06 aa bd
       0.10442855 0.4266452 -0.039756626 -0.08302101
000120 94 0f 0f 3e b5 c7 75 3e fd 96 d7 3d 34 e3 2d 3e
       0.13970786 0.24001963 0.105268456 0.16981202
000130 a9 76 25 3e 4a f9 7d 3d 35 a2 c1 3d aa 17 5b be
       0.16158547 0.06200532 0.09454767 -0.21395746
000140 ea fc c7 3c 17 8e fc 3d 1f 5b ea bd 3d 99 2a be
       0.024412591 0.12331789 -0.11443161 -0.16660018
000150 9e b9 eb 3d bb 01 e9 3d 20 f6 86 bd 4b 77 50 bd
       0.11510013 0.11377283 -0.06589913 -0.050895017
000160 8f d1 59 be a1 a3 2f 3d bd d5 0e be 72 45 96 3c
       -0.21271347 0.042880658 -0.13948722 0.018343661
000170 84 51 d0 bd e5 21 a7 be 86 ed 0e 3d 5b a4 71 be
       -0.10171798 -0.32643047 0.03489449 -0.23597853
000180 df 3b ed 3d b9 b8 88 be 79 42 07 bd cf 46 a4 3d
       0.11583685 -0.26703432 -0.033022378 0.08021318
000190 fb 15 10 bf b0 11 de be 26 64 09 be e9 ee 3a 3c
       -0.5628354 -0.4337287 -0.1341711 0.0114095
0001a0 f5 d7 6a 3e 1f d1 37 3e 94 b4 84 be fd b5 a3 bd
       0.22933944 0.17950867 -0.2591902 -0.07993696
0001b0 19 12 10 3d a0 3e da 3d 63 09 5c bd c7 e3 ab 3d
       0.03517351 0.10656476 -0.05371989 0.083930545
0001c0 e7 96 45 3e 0d 39 42 3d 1b d2 53 3d bc 1a a4 bd
       0.19295846 0.04741769 0.051714044 -0.08012912
0001d0 df 87 48 bd 30 88 46 be 92 ce 05 bf 46 26 57 bd
       -0.0489577 -0.19387889 -0.52268326 -0.052526735
0001e0 fa 8e 9b 3d 25 1f b2 be 19 0b 5b bf d6 83 a1 be
       0.0759563 -0.34789386 -0.8556381 -0.31545895
0001f0 32 2f 03 3e 71 94 b9 be 32 6e eb bd ef 1a 68 be
       0.12810972 -0.36246064 -0.114956275 -0.22666524
000200 55 fb da bc 14 13 4e be 22 be 81 be 37 cc 63 be
       -0.026731173 -0.20124465 -0.25340372 -0.2224587
000210 36 43 ca 3e 31 c3 19 3d 42 bd 2d be 08 04 0f 3e
       0.39504403 0.037539665 -0.16966727 0.13966382
000220 4e da cf 3c 5e f3 99 be 8c 62 19 3e 4a 3c d0 3d
       0.02537265 -0.30068487 0.14978999 0.10167749
000230 94 83 1e 3e ba 7d 81 be 18 ff 95 bd 24 17 0e 3e
       0.1547988 -0.25291234 -0.07324046 0.13876015
000240 dd a1 24 be 43 02 35 3e 56 54 d3 bd f6 1c 44 be
       -0.16077371 0.17676644 -0.1031882 -0.19151673
000250 3e 51 e3 3b 9b 50 92 3d aa 52 f6 3c 99 6f 13 bd
       0.006937175 0.071442805 0.030068714 -0.0359951
000260 31 1e 5c 3d b8 4a b1 be 9c 1d 90 be 73 a5 8a be
       0.05373973 -0.34627318 -0.2814759 -0.27079353
000270 1e 38 88 3e cb b7 2d 3d 02 0f 84 be 56 d7 26 be
       0.26605314 0.042411607 -0.257927 -0.16293082
000280 6c 04 9a 3e 5f 92 22 be e8 c0 ad 3d c2 5d 47 bd
       0.300815 -0.15876149 0.084840596 -0.0486734
000290 89 27 a3 be 82 b8 11 bf 25 d4 43 3c bc d8 5e bd
       -0.318661 -0.5692216 0.011952435 -0.054405913
0002a0 2e eb a9 3d 3c de 36 3e ce 0d 68 be 65 13 b6 3c
       0.0829681 0.17858213 -0.22661516 0.022226045
0002b0 05 cf e4 be d1 cc 80 3d 50 47 14 3e c0 6a 3d be
       -0.44689193 0.06289066 0.14480329 -0.18497753
0002c0 b1 03 11 3e 7d 8b 40 3e 9c 0b 7d be c2 f6 d5 3d
       0.14161564 0.1880321 -0.2471146 0.10447456
0002d0 c2 54 df bd 12 a4 5c 3e bf a1 0f 3f 5f 0c 87 bd
       -0.10904838 0.21546963 0.5610618 -0.065941565
0002e0 32 a3 67 3d ae 64 0d 3e c7 1f e1 bd a1 23 16 be
       0.05655212 0.13807938 -0.10992389 -0.14662029
0002f0 5f f8 3c be d4 6c 62 3e 03 58 3e 3e 7c 08 89 3e
       -0.18454121 0.22111827 0.18588261 0.26764286
000300 d0 0e 09 bf b6 d8 05 3f 32 c2 f8 bd 10 07 a6 bd
       -0.5353823 0.522838 -0.12146415 -0.08106816
000310 d2 09 5a 3d fe b5 17 bf 90 ca ca be df d5 b7 3c
       0.05323202 -0.59262073 -0.39607668 0.022440849
000320 ef 09 48 be 28 a5 e7 3c 7b f0 41 bf 63 c8 17 be
       -0.1953504 0.028276995 -0.7575757 -0.14822535
000330 53 7a e2 bd d4 e7 90 be f2 77 76 3e e9 65 a9 3d
       -0.11058488 -0.2830187 0.24069193 0.08271391
000340 ac c6 a9 bc 84 f8 97 3e 68 34 c7 3d a6 4d ab bd
       -0.020724617 0.2968179 0.097267926 -0.0836442
000350 e0 18 01 3e ff 10 f7 be e1 bb 98 3d f4 5c 6c be
       0.12607145 -0.48255154 0.0745771 -0.23082334
000360 ad 72 ac be 87 85 ce bc 83 b0 91 be 01 fb 39 3e
       -0.3368124 -0.025210155 -0.2845498 0.18162157
000370 71 d6 ff bd 65 e7 67 3d 7f c5 db be 3d 2c 79 bc
       -0.12492073 0.05661716 -0.42924115 -0.015208301
000380 7b 38 65 3e 8d 29 08 be 2a 21 f8 3d 54 cf 18 be
       0.22384827 -0.132971 0.121157005 -0.1492284
000390 c7 bb cf bd b0 35 04 be 1c 2a cf 3d 9c ad f2 bd
       -0.101432376 -0.12911105 0.101154536 -0.118495196
0003a0 b4 31 39 be 29 88 17 be 8f c9 d1 be 6b 7d 54 3e
       -0.18085366 -0.14798035 -0.4097409 0.20750968
0003b0 d6 41 85 3e 61 36 27 3d 32 e7 81 3e 94 ff 5b 3e
       0.2602679 0.040823344 0.253717 0.21484214
0003c0 3e 14 dd be 45 ab 7b be 1f c1 71 3d 83 8a 18 3e
       -0.43179506 -0.24577053 0.059022065 0.14896588
0003d0 9a 9a 09 3e 4f e2 4f be e1 a1 7e 3e c4 62 34 3e
       0.13437882 -0.20301174 0.2486644 0.17615801
0003e0 e8 85 94 be 26 81 b1 3d d1 dd 1c 3f 0a 95 2e 3b
       -0.29008412 0.08667211 0.61275965 0.0026639127
0003f0 42 3f 67 3c 2d 44 2f 3d 76 03 1e 3e aa 61 cc 3d
       0.014114203 0.042789627 0.15431008 0.099795654

out.linear.layers.2.bias f4 [32]
000000 b3 b2 3a bd ff 84 a5 3d 39 b2 1d 3e 42 a2 d6 3e
       -0.045580577 0.080820076 0.15400018 0.41920668
000010 9b de fa 3d c0 8c 22 3e 01 0f 8a 3d 7a f6 38 be
       0.1224949 0.15874004 0.06741143 -0.18062773
000020 0d 7c 3b be 57 4e 01 3e b4 4a 55 bd ea aa ff 3e
       -0.1830904 0.1262754 -0.052073196 0.49935085
000030 db b7 58 3c 6e 65 5e 3e 96 30 d0 bd 32 14 f9 bd
       0.013227428 0.2171838 -0.10165517 -0.12162055
000040 2a 7c d2 3d be 20 b2 3d a5 b6 48 3e 1e 35 50 be
       0.10277589 0.08697651 0.19600923 -0.20332763
000050 c0 dc e5 3d c7 85 ae 3d bd bd 86 3e 32 b4 9b be
       0.11223745 0.0852161 0.26316634 -0.30410916
000060 30 e8 a2 bd b0 c9 b1 3d e3 1b 0f 3e 27 37 d9 be
       -0.079544425 0.08681047 0.13975482 -0.4242489
000070 6e f3 d6 3e 5d 1b be bd 41 34 c7 3e dd b9 b9 bc
       0.41982597 -0.09282563 0.38907054 -0.022671634

out.linear.layers.4.weight f4 [32, 32]
000000 d9 dc e6 bb bd cc 70 3e 68 e9 6d 3d eb d0 cc be
       -0.00704537 0.23515601 0.05808392 -0.40003142
000010 38 e8 88 be 6a bc 8b be 02 0d 21 be 5b 58 90 bd
       -0.2673967 -0.27292186 -0.15727618 -0.070481025
000020 9c 7a 0d bf c5 88 bd bd 70 bb 0f bc 1a a0 62 3e
       -0.5526521 -0.09254602 -0.008772716 0.22131386
000030 e7 5f b8 be 92 c9 56 be 2d 93 97 3d 17 33 0d 3e
       -0.36010668 -0.2097533 0.074011184 0.1378902
000040 15 fc b4 bd d3 70 1a 3e 94 47 a0 bd 4c aa 25 bc
       -0.08837143 0.15082102 -0.078261524 -0.010111403
000050 63 ea 07 3e a9 c0 a0 3e 34 43 0c bd 22 18 6a 3d
       0.13273005 0.31396988 -0.034243777 0.05715192
000060 31 61 52 3e 6a 9f f7 bc fe 64 8b be 0f f3 9b bb
       0.20544888 -0.030227382 -0.27225488 -0.0047591995
000070 f7 78 82 be 23 6d 24 3e 0a 3e 6d 3f 94 f7 c6 be
       -0.25482914 0.16057257 0.9267279 -0.38860762
000080 e5 f1 08 3e 9c 12 ec 3d 49 e6 8a bc 4e f8 e0 bd
       0.13373525 0.11526987 -0.016955512 -0.1098486
000090 b4 71 6c bd 6f f4 c3 be 02 7f 1c bd 49 28 41 be
       -0.057725623 -0.38272426 -0.03820706 -0.18863024
0000a0 b5 9e 48 3d 9d 85 fd be d1 fa b3 bd 01 8b c8 3d
       0.04897948 -0.49516 -0.08788074 0.09792138
0000b0 2c 62 63 3d 72 ff 2b 3e ba 64 8e 3d 85 44 f2 bc
       0.055513546 0.16796663 0.06952806 -0.029573688
0000c0 a1 d1 2f bc 74 3d 1e bd c1 3b d9 bd 62 e2 5b be
       -0.010731132 -0.038632825 -0.106071 -0.21473077
0000d0 29 b9 59 3c ef 18 8c 3c a6 0f b6 3c 48 e7 12 bc
       0.0132887745 0.017101733 0.022224259 -0.008966275
0000e0 97 18 bd bc 33 ab f4 be 61 7a e4 be a3 38 1e be
       -0.023083014 -0.47786865 -0.44624618 -0.15451293
0000f0 0d a8 88 bd 33 7b fd bd 83 f5 df be 56 18 93 bd
       -0.06672678 -0.12377014 -0.43741998 -0.07182376
000100 9f 9d 0d 3d b7 fa 7c be 5c 50 92 be 8c 6b 18 3e
       0.034574147 -0.24705015 -0.28576934 0.14884776
000110 3b b5 45 3d a7 1b 34 3d e5 35 e8 be eb 00 cd bd
       0.048268538 0.043971684 -0.45353618 -0.10009941
000120 67 3b 2f be b2 c8 05 be 7f 40 96 be b7 32 fe 3c
       -0.17112504 -0.1306484 -0.29346082 0.031030042
000130 b7 0d c2 be ef 72 1b bd cc c2 e9 bd 43 91 41 be
       -0.3790109 -0.037951406 -0.11414108 -0.18903069
000140 f4 36 85 3c 1f 25 f1 3d 2f 68 72 b9 e3 9b 31 be
       0.016261555 0.117746584 -0.0002311773 -0.17344622
000150 c5 d7 d9 3c 59 bd 97 bd 01 c5 8a be e7 53 34 be
       0.026592145 -0.07409162 -0.27103427 -0.17610131
000160 9a 6f 28 3e 51 54 3f bd 71 9d 38 3e c6 cc cd 3d
       0.16448823 -0.04671127 0.18028809 0.10048823
000170 5f d7 00 bf 79 5a df be 90 00 88 3d 3c f9 27 be
       -0.5032863 -0.43623713 0.06640732 -0.16403669
000180 86 e8 80 be b5 76 cc bd 13 81 36 be 12 c0 1e 3e
       -0.251774 -0.09983579 -0.17822675 0.15502957
000190 58 55 ab 3d 02 27 1c be c4 b3 92 be 47 ee 92 3d
       0.083658874 -0.15249255 -0.28652775 0.07174354
0001a0 e3 ca 32 be ff bd b5 be 65 12 66 be 01 80 1b 3e
       -0.17460208 -0.35496518 -0.22467954 0.15185548
0001b0 3e a7 b4 bd 7d 9b 14 be bc 8b 88 3d d5 20 60 be
       -0.088209614 -0.14512439 0.06667277 -0.21887524
0001c0 94 cf 0e 3d a6 32 bd 3d 46 b1 2e bf 89 84 b3 be
       0.03486593 0.09238176 -0.6823925 -0.35062054
0001d0 7f 70 d5 3c cd 85 dc 3d 28 20 9f 3d f5 88 84 3e
       0.026054619 0.10767708 0.07769805 0.2588574
0001e0 ed 29 a7 bd 0a c7 42 3e 02 d3 95 bd 50 46 5a bd
       -0.081622936 0.1902124 -0.07315637 -0.05328971
0001f0 c8 30 35 be 87 bd 33 3e 66 84 06 3e 26 8c 42 be
       -0.1769439 0.17552768 0.13136443 -0.18998775
000200 f0 76 cf 3c 25 4a 19 3e 4d a6 27 3e 49 f0 a0 bd
       0.025325269 0.1496969 0.16372032 -0.07858331
000210 15 01 88 bd a7 c0 a4 3b d5 c1 86 be 25 bb 31 3e
       -0.066408314 0.0050278488 -0.26319757 0.17356546
000220 69 cc d6 bc f1 ec 09 be 41 06 e0 be 29 5a 4b be
       -0.026220517 -0.13469292 -0.4375477 -0.19858612
000230 af fb 4e bd 98 3b 17 bd 9b 5a a4 be 75 e3 ec bd
       -0.050532993 -0.036922067 -0.32100376 -0.115668215
000240 ee e2 f9 bc 57 6c 87 bd 8f 98 fc be fe 9c 9e 3d
       -0.030503716 -0.06612461 -0.49335143 0.07744788
000250 e4 ec 6c be 3f 62 e2 3d 47 cc a7 3d 53 7d 5e be
       -0.23137242 0.11053895 0.0819326 -0.21727495
000260 c8 0a 1e be 23 53 d4 bd 29 60 c0 3d 81 12 77 3d
       -0.154338 -0.103674196 0.09393341 0.06032038
000270 48 61 11 be 26 c0 ba bd 4b 8c e6 3c 73 da be 3d
       -0.14197266 -0.09118681 0.028143069 0.0931901
000280 5e d7 2c be 59 81 39 3e 85 e8 e1 3c 8d 33 1e be
       -0.16879031 0.18115748 0.027576694 -0.15449353
000290 a7 29 e3 bd cf a8 27 be d8 68 80 be 7d a4 9e 3e
       -0.11091929 -0.16372989 -0.2507999 0.3098487
0002a0 96 41 94 3d 17 7d a7 bd d9 cf 1a bc 3c 29 27 bf
       0.07239072 -0.08178156 -0.009448969 -0.65297294
0002b0 f2 7c 66 bd 78 86 07 be 9e eb d9 3b d0 ce 95 3d
       -0.0562715 -0.1323489 0.006650402 0.07314837
0002c0 36 b0 5b bd 56 26 05 3e 52 0b e9 3d 57 d6 0d 3e
       -0.053634845 0.13002905 0.11379112 0.13851295
0002d0 92 a6 01 bf 7c 5f 15 3e 62 05 e8 3d 7a 01 c2 be
       -0.5064479 0.14587206 0.11329152 -0.37891752
0002e0 d3 52 ae be 78 c8 79 3e 0d 16 99 3d 53 d6 ea be
       -0.34047565 0.24392879 0.07474909 -0.4586664
0002f0 2f 1c 0a bf 94 6d 26 3e 2b 40 d6 3d d4 de 40 3e
       -0.53949255 0.16252738 0.10461458 0.18835002
000300 02 f3 31 be a2 c6 02 3e 0d 7a 1a be 3e c0 d4 bc
       -0.17377856 0.12771085 -0.15085621 -0.025970574
000310 19 ac 83 be 00 8e ef bd 74 90 0f bf 23 3b 8f be
       -0.25717238 -0.11697006 -0.5607979 -0.27974805
000320 75 54 7a be b0 d0 7e 3e 86 39 de 3c 6c af 30 bf
       -0.2444628 0.24884295 0.027127039 -0.6901767
000330 92 41 97 be 03 71 87 be 26 f4 b5 3b 36 4d be 3d
       -0.29542214 -0.2645341 0.0055527864 0.092920706
000340 9a d3 fa 3d eb f5 c8 3d 9b 03 84 be b2 31 c8 3e
       0.12247391 0.0981253 -0.25784 0.39100415
000350 52 89 b9 3e 00 0a 72 bd 50 a3 3a bc 9c 2b 3d 3d
       0.3623758 -0.059091568 -0.011391476 0.046184167
000360 c5 e6 83 be cc 30 07 bf b3 11 ad 3d 94 73 22 3e
       -0.25762 -0.52808833 0.084506415 0.15864402
000370 d6 51 23 3e 03 d2 2f be 66 47 bd bd 98 e2 0d 3d
       0.15949187 -0.17169957 -0.09242134 0.034639925
000380 f8 60 2f be 3e ac ef bd a7 f0 c8 be fb ab c0 3d
       -0.17126834 -0.117027745 -0.39246103 0.09407803
000390 00 30 77 3e 9e b2 37 3e e0 81 d4 bd ee c4 19 bc
       0.24139404 0.17939231 -0.10376334 -0.009385331
0003a0 fd 5d 86 3d 99 13 03 be c4 ff ca be be 60 70 3e
       0.065608956 -0.12800445 -0.3964826 0.23474404
0003b0 50 7f ce 3c f3 39 a4 3d a9 bd 5a be 30 19 86 be
       0.025207192 0.080188654 -0.21361412 -0.26191092
0003c0 be 09 1f 3e 05 9d 7b 3e d2 ab 35 be 82 7d 64 bd
       0.1553106 0.24571617 -0.17741325 -0.055783756
0003d0 80 bd 5b be a3 9b 72 3c 43 c5 9f be 79 e5 29 3e
       -0.21459007 0.0148076145 -0.31205186 0.16591443
0003e0 54 3e 14 3e 0e dc 56 be c1 c4 b0 be 4c c7 00 3c
       0.14476901 -0.20982382 -0.3452511 0.007860016
0003f0 1d 67 c4 be e8 3e a9 bd d8 52 e2 3d 95 ee 24 be
       -0.3835992 -0.082639515 0.110509574 -0.16106637

out.linear.layers.4.bias f4 [32]
000000 40 ca d1 bd fe 83 9c 3e 4e 7b e4 3d 56 de 0b 3e
       -0.10243654 0.30569452 0.11156331 0.13659033
000010 d7 af dd 3d 68 8a 00 be 17 65 f6 3d 52 2d 6f 3e
       0.108245544 -0.12552798 0.12031 0.23357132
000020 6e f0 89 3d 17 d0 8f 3e c6 a8 e3 3e f4 a1 00 be
       0.067353114 0.28088447 0.444647 -0.1256178
000030 08 09 60 3e 0e 0c 48 bd 41 a7 b7 3e 8a ac 3b 3e
       0.21878445 -0.04883962 0.35869792 0.18327537
000040 bc 5f c2 ba 76 b9 14 3e 73 cc d8 3c 3e 3b 45 be
       -0.0014829556 0.14523873 0.026464676 -0.1926088
000050 74 43 44 bd b7 9c 04 be cd 6c 01 bf fd cc 8c 3e
       -0.04791589 -0.12950407 -0.5055664 0.27500144
000060 e5 60 14 3e b5 ca 25 3e 6d d5 b0 3e 0d d6 9a 3e
       0.14490087 0.16190608 0.3453783 0.30241433
000070 17 9f 5b 3e 1e eb a7 3e 4c d0 be 3c 85 55 c0 3d
       0.21447407 0.32796568 0.023292683 0.093913116

out.linear.layers.6.weight f4 [9, 32]
000000 16 4c 0d bd 91 d7 33 be b7 9d 33 be b8 69 93 3d
       -0.03449639 -0.17562701 -0.17540632 0.071978986
000010 6f ec 51 be 06 eb 33 3e d7 f5 30 3e dd f1 ac be
       -0.20500349 0.17570123 0.1728128 -0.33778277
000020 e4 84 42 3f 95 78 1e bd 24 31 c1 bd cb f8 4d bd
       0.75984025 -0.038689215 -0.09433201 -0.050286096
000030 55 5f 90 3e e1 b7 2e 3e 35 6b 92 3d f9 18 35 3d
       0.28197733 0.17062332 0.07149354 0.04421327
000040 32 cb 2a be 30 bc 00 3e 2e b9 5c be 8c 20 66 bd
       -0.16679075 0.12571788 -0.21555015 -0.056183383
000050 1d e1 5f 3e fa 84 15 be 52 07 f5 bd 8d fc 1b 3e
       0.21863218 -0.14601508 -0.11964287 0.15233059
000060 cb dd c7 bc ec 19 6b b9 f6 6a fc 3d fc 04 22 bd
       -0.024397751 -0.00022421003 0.12325089 -0.039555535
000070 91 73 86 be 55 ef fa 3d 4d 7e 02 3e 80 b6 f9 3d
       -0.26260045 0.1225268 0.12743492 0.12193012
000080 98 bf 25 bd 32 b6 b0 be 60 8d 41 be c6 f0 3e be
       -0.04046592 -0.34514004 -0.18901587 -0.18646535
000090 be d2 a2 be cc c2 f1 3c 20 62 ce 3d 45 ad 0a be
       -0.3180141 0.029511832 0.100773096 -0.1354266
0000a0 e5 aa 4e 3e 1d 4b 1c 3e 8f 39 c6 bc d7 a1 57 bd
       0.20182379 0.15263028 -0.024197368 -0.052644577
0000b0 1c 21 82 3e 5b e0 84 be e7 b9 9a 3e f1 ad d2 bd
       0.25415885 -0.2595242 0.30219957 -0.10287083
0000c0 68 a6 70 3e b1 15 13 3e b6 59 47 be 37 23 9a 3d
       0.23500979 0.14363743 -0.19467816 0.07526248
0000d0 7c 51 44 3e 25 0d 05 3e 26 01 a6 bd f0 a2 21 3e
       0.19171709 0.12993295 -0.08105688 0.15784812
0000e0 a1 da 9c bd 02 17 35 3e 89 bb e2 3d 24 7c 2d bd
       -0.07658888 0.17684558 0.11070926 -0.042354718
0000f0 a6 c9 85 be b0 d4 81 3d 12 d9 5c 3e c3 03 dc 3e
       -0.26130408 0.06339395 0.21567181 0.4297162
000100 49 ca 9e bd 8a b8 77 be 97 b1 47 3d b7 11 2f be
       -0.077534266 -0.2419149 0.048753347 -0.17096601
000110 41 a3 75 3d a9 64 43 3c 79 34 89 3e e4 95 33 be
       0.059970144 0.011925855 0.26797846 -0.17537647
000120 ce 0d d9 3c 96 12 63 be b4 f7 0e bd 68 ef 34 be
       0.02649584 -0.22175059 -0.034904197 -0.17669451
000130 05 4f f3 3d 07 78 a4 bd 2d ce 51 be 5c 3a 61 be
       0.11880306 -0.08030706 -0.20488806 -0.21994919
000140 05 12 4f be 43 02 bd bc 4d cf f3 3d 74 50 54 3d
       -0.20221718 -0.023072368 0.11904774 0.05183454
000150 b1 4f 60 bd 55 7f 71 3e 27 a0 3a bd 4d de 61 3e
       -0.0547635 0.2358373 -0.04556289 0.22057457
000160 f2 1f 65 3d 10 68 b8 3d c4 d4 98 3d ce e7 4b 3d
       0.05593867 0.09004223 0.07462457 0.049781613
000170 fc f9 29 be b5 bc d1 3a 42 17 1c 3e ec 3b c5 bc
       -0.16599268 0.0016001674 0.15243247 -0.024076425
000180 60 5c f0 bd 76 fe 37 be c4 49 dc bd a5 5d 58 be
       -0.11736369 -0.17968163 -0.10756257 -0.21129473
000190 a6 84 15 be 43 59 e9 3d 1a 04 47 3e 7f d9 01 be
       -0.14601383 0.113939784 0.19435158 -0.12680624
0001a0 99 ad bc bd 7f de 00 be 0a ec ad bd 2b e5 28 be
       -0.092127986 -0.12584876 -0.084922865 -0.1649367
0001b0 e9 72 cc bd d3 ab b5 3d 37 67 37 bd fd e6 38 be
       -0.09982855 0.088706635 -0.044776168 -0.18056865
0001c0 8f 8a 98 bd ac 90 e8 3c bc 09 9f 3d 3b 0d 70 bd
       -0.07448303 0.028389297 0.077655286 -0.058606368
0001d0 65 a2 5a bd fb 63 61 3d 68 a8 ad 3c a0 f7 06 3e
       -0.053377528 0.05502699 0.021198466 0.13180399
0001e0 1e cb 16 be 9b 7a f5 3d 98 c8 5f 3e 3c 7b b8 bd
       -0.1472592 0.11986276 0.21853864 -0.0900788
0001f0 bc e3 40 be ee b3 82 3e eb 89 8b 3e d4 56 85 3d
       -0.18836874 0.255279 0.2725366 0.06510702
000200 a2 b6 52 3e 1d 70 db 3d 95 89 e1 bd df a7 45 be
       0.20577481 0.10714743 -0.1101257 -0.19302319
000210 ba 36 2a 3e ff 76 32 3d 4b 7b 0a 3c 64 07 87 be
       0.16622439 0.043570515 0.008452247 -0.26372826
000220 10 c3 41 3c e7 11 58 3d 54 49 88 be 81 7f b0 3d
       0.011826292 0.052751448 -0.26618445 0.086180694
000230 fe 5e 20 3d 14 0c 7a bd 76 4a 9b bd db 88 e7 bd
       0.03915309 -0.061046675 -0.07582562 -0.113054
000240 b5 c2 23 3e 0c 82 55 3e 03 ad 2f be 95 f4 44 3e
       0.15992244 0.2085039 -0.17155842 0.19233926
000250 13 f5 59 3e 97 fa 5f bd fe 10 fd 3e 71 12 cf 3d
       0.21284895 -0.05468234 0.49427027 0.10110939
000260 f0 8a 4a bd dd e0 8d bd 42 28 0e bd d4 bc dc be
       -0.049448907 -0.06927655 -0.03470636 -0.43112814
000270 b3 40 a8 3c bf 6f 59 bf f8 25 84 bc 52 ef f8 bd
       0.020538663 -0.84936136 -0.016131386 -0.12155022
000280 86 d7 e4 bc 82 0f 82 bd 81 52 0c be 52 7f 26 bd
       -0.0279348 -0.06350614 -0.13703348 -0.040648766
000290 d1 34 70 3d 1e 69 77 3d 94 ad 13 be 20 0f 84 be
       0.05864412 0.060402982 -0.14421684 -0.2579279
0002a0 4f b6 6b 3c 4c d7 dd be de 61 74 3c ad d5 f7 bd
       0.0143867275 -0.4332832 0.0149159115 -0.12101302
0002b0 ec 12 9f 3c c6 2c cf 3d fe b2 72 be 38 45 ef bd
       0.019418202 0.10115962 -0.23701093 -0.11683124
0002c0 0a 82 2a 3e cf 58 5b be 14 60 5a 3e f1 ab 8a 3d
       0.16651168 -0.21420597 0.21325713 0.067710765
0002d0 aa ab 7c 3c 12 27 11 3d 88 f4 70 bd 18 a1 62 3e
       0.015421787 0.03543765 -0.058826953 0.22131765
0002e0 c1 0f 95 bd 4b e3 4b 3e 0d ef f2 ba 23 34 2b 3c
       -0.072783954 0.19910924 -0.0018534377 0.010449442
0002f0 c4 bd db bc 51 f2 a5 bc 20 f0 f1 3d 29 7a 4b 3e
       -0.026823886 -0.020257147 0.11813378 0.19870819
000300 27 cb a1 bc 0a 8e 94 3d ec 0b 9a be a7 fa 27 be
       -0.01975019 0.07253654 -0.3008722 -0.1640421
000310 9a f1 69 bd 66 b3 c6 3e 8b 0d ee 3d 21 6f 53 be
       -0.057115175 0.38808745 0.11623677 -0.20647861
000320 7e 26 df 3d 92 fc 19 be 31 f1 b2 3d b6 ef 8d bd
       0.10896014 -0.15037754 0.0873741 -0.06930487
000330 e8 1a 36 3d 64 ee 02 be 7c 3b d1 be b9 8a 3b bd
       0.044459254 -0.12786251 -0.40865695 -0.045786593
000340 9b 7c 56 be 3b eb 5b be da fe cf 3d fc a8 9b 3b
       -0.2094597 -0.21476452 0.10156031 0.004750369
000350 90 2f 91 3d 98 f5 d3 3c 42 dd 1a bd 8b 9c 66 3e
       0.0708915 0.025873944 -0.037808664 0.22520654
000360 52 1e 31 be 5c 1b c0 3d b2 26 3f bc 57 6e 8f bd
       -0.17296723 0.093802184 -0.0116669405 -0.070034675
000370 cb c9 89 bd cd 33 90 bc 4f c3 93 3d 45 75 90 3e
       -0.06727942 -0.017602826 0.072149865 0.2821447
000380 4c 0d 17 3e a6 ca 12 be 08 a6 39 bd 4a cb 2c bd
       0.14751166 -0.14335117 -0.045324355 -0.04218606
000390 eb cc 0f be 02 5b 1e bd d4 f4 3a 3c 09 a4 e4 bd
       -0.14043014 -0.03866101 0.011410911 -0.111641
0003a0 d7 60 a9 bd 94 29 31 be d4 c2 43 be 7e a2 a5 3e
       -0.08270424 -0.17301017 -0.1911729 0.32350534
0003b0 f5 77 82 3e c2 1b 64 3d 1f 72 39 be 76 56 7c be
       0.25482145 0.055690534 -0.1810994 -0.24642357
0003c0 17 20 29 be c8 89 30 bc b9 49 8f 3d 59 ef 5e 3e
       -0.16516148 -0.010775037 0.06996483 0.21770991
0003d0 1e 69 b3 3d ba 4c a6 be a6 9b bc bd 7a ed 0e 3e
       0.08760284 -0.32480413 -0.09209375 0.13957778
0003e0 3d 31 cd bd d8 22 c8 3d 80 86 b2 3d f7 c3 e8 3c
       -0.10019157 0.09772271 0.0871706 0.028413756
0003f0 58 8f af bd 9f 45 b0 3d 3d a7 e6 3c 53 65 fb bb
       -0.085722625 0.08607029 0.028155917 -0.007671991

out.linear.layers.6.bias f4 [9]
000000 10 e7 a5 bc 9e ba 01 be 72 28 cf 3c d4 80 0d 3d
       -0.02025178 -0.12668845 0.02528784 0.03454669
000010 bb e1 8f ba 74 00 39 3e 92 ea 15 3e 3c 9d 26 3d
       -0.0010977307 0.18066579 0.14640263 0.040677294
000020 89 15 45 3d
       0.04811624

backbone.node_encoder.0.gat_layer.fc.0.weight f4 [4, 4]
000000 80 08 04 3e 16 de 07 3f 5e 77 b3 3c 7e 97 1c 3f
       0.12893867 0.5307325 0.021907505 0.6116866
000010 c5 2f b3 be 86 f6 c2 be c7 60 10 bf e5 af ca 3e
       -0.34997383 -0.38078707 -0.5639767 0.39587322
000020 85 49 32 bf b9 09 d1 bd 0e 27 9e 3e e1 b0 61 3b
       -0.6964343 -0.102069326 0.3088917 0.0034437703
000030 2d 46 4f bd d3 ec df be 15 5a 82 be 0e c0 fd be
       -0.050604034 -0.4373537 -0.25459352 -0.4956059

backbone.node_encoder.0.gat_layer.fc.0.bias f4 [4]
000000 22 cc 29 3e 4e 47 bc 3e 4e 1e af 3e d1 af 90 3c
       0.16581777 0.3677315 0.34202808 0.01766196

backbone.node_encoder.0.gat_layer.att_layer.weight f4 [1, 8]
000000 fc bd 33 bd 5b 4d 83 3f fe 60 4f 3f 7e 89 ad bd
       -0.043882355 1.0257982 0.81007373 -0.0847349
000010 03 c5 e0 3b e4 26 ae 3e cb 59 c2 bf 99 68 e0 be
       0.006859423 0.34014046 -1.5183653 -0.43829802

backbone.node_encoder.0.fc.0.weight f4 [32, 32]
000000 51 1a bd bd c8 7e 01 bd d4 54 37 3d f6 63 47 3d
       -0.09233535 -0.03161505 0.044758633 0.048679315
000010 0c 6f bf 3d 72 d3 01 bd 6b f9 2a bd 0a 97 78 bd
       0.093473524 -0.03169579 -0.04174177 -0.060690917
000020 d1 65 40 be 76 a1 89 3d 4a ca a6 3d 15 20 a6 bd
       -0.1878884 0.06720249 0.08144052 -0.08111588
000030 36 e4 67 be 64 bd ef 3c 0f 93 27 3e a1 59 c1 3c
       -0.2264565 0.029265113 0.16364692 0.023602309
000040 00 63 fa 3c 72 93 b2 bd b1 4b 72 3d 73 a5 a5 3c
       0.030564785 -0.08719529 0.059154216 0.020220494
000050 3c fc 03 bd d2 24 85 3d 84 77 ab 3e da 2e 0c 3d
       -0.03222297 0.065011635 0.3348962 0.03422437
000060 ef 57 5a 3e ba 2c 3a 3d 12 da a8 3d d1 3c 0d 3e
       0.21322607 0.04545281 0.082447186 0.13792731
000070 5f 91 38 3e e5 f8 0f be 26 4f 46 3e d1 25 cf 3d
       0.18024205 -0.1405979 0.1936613 0.10114635
000080 62 9d 2e be 7f c5 a6 3c f2 60 56 be 27 2f a5 bb
       -0.17052224 0.020357845 -0.20935419 -0.0050410214
000090 e8 9d 58 be 10 f8 02 be 16 b9 ed bd 7f e9 d4 3d
       -0.21153986 -0.12789941 -0.11607568 0.10396098
0000a0 d5 34 4a 3e 84 f4 81 3e a1 cb c1 3d 53 f2 57 bd
       0.19746716 0.25381863 0.09462667 -0.052721333
0000b0 97 42 1d 3e 8e e4 fd 3d b4 f2 78 be b8 c3 85 3e
       0.15357433 0.12397109 -0.24311334 0.26125884
0000c0 17 6a 9d bd 2c fe 4f be cc fd 19 3e 61 fd 98 3e
       -0.07686251 -0.20311803 0.15038222 0.29880813
0000d0 18 50 80 bd ad ae 62 bd 5b 5e 04 bc 46 51 3b be
       -0.06265277 -0.055342365 -0.008079137 -0.18292722
0000e0 4f fe 4f bd 61 d8 e9 bd 99 33 62 bd 4d 02 1e 3d
       -0.050779637 -0.11418224 -0.05522499 0.038576413
0000f0 59 fc 13 be 0e 7e 26 bc 38 d5 15 be 56 08 29 3d
       -0.14451732 -0.01016189 -0.14632118 0.041267715
000100 7b ae 32 bd 11 c7 8f 3c 5c 27 66 be c4 db e0 3d
       -0.04362343 0.017550977 -0.22475952 0.10979417
000110 87 98 b8 bd c0 79 f4 3c 74 a1 09 bd 53 74 d9 bd
       -0.09013467 0.029843211 -0.03360124 -0.1061789
000120 1b 18 bc 3e 86 71 9f bd 7c b2 db bd df e9 40 bd
       0.3673714 -0.07785325 -0.107274026 -0.047098037
000130 d1 07 0d bd 0a 99 03 3e ff cc d6 bd 3d 96 6f bd
       -0.034431282 0.12851349 -0.10488319 -0.058492888
000140 6d 90 71 bd 31 3d 5b 3e 69 ff f4 3c 9c 72 29 3e
       -0.058975626 0.21410061 0.029906945 0.16547626
000150 6e b3 33 3e e8 38 63 3e 4d c7 7b be eb 47 75 bd
       0.17548916 0.22189677 -0.24587746 -0.05988304
000160 63 3a b6 bd 22 83 87 bb 2f dc d6 bc 2c a4 08 3d
       -0.08897855 -0.0041355053 -0.026228039 0.03335969
000170 0a 8f 1a bc b5 b1 b4 bd 74 61 c7 bd 4f 78 1c 3e
       -0.009433517 -0.088229574 -0.097353846 0.15280269
000180 f3 d4 9b be eb c3 21 be a7 fa cb 3d 00 84 9b 3e
       -0.30435905 -0.15797393 0.099599175 0.30374146
000190 67 9d ba 3b 5c 54 b5 bd bd 93 b8 3d 0e 80 08 bf
       0.0056950334 -0.08853981 0.09012554 -0.53320396
0001a0 f7 34 f0 bd 81 6b 97 3d 4f 52 ea 38 e9 66 ad ba
       -0.11728852 0.073935516 0.00011173321 -0.0013229522
0001b0 80 69 55 3e 97 33 08 3f 11 dd 98 bc 9f ce 7a 3e
       0.20841026 0.5320372 -0.0186601 0.24492882
0001c0 45 c4 82 be d5 b1 81 3e 3c e9 86 3c 7e e9 01 be
       -0.25540367 0.25330988 0.016468637 -0.12686726
0001d0 b3 cb 81 be 2c 43 c5 3e 2d 01 0f 3d ab 38 f7 3d
       -0.25350723 0.3852781 0.03491323 0.120713554
0001e0 08 f1 bf 3c ff 35 e8 3c e2 76 95 bd e1 fe b1 3d
       0.023430362 0.02834606 -0.07298066 0.086911924
0001f0 94 b9 37 3e ef 5a 82 3e 80 a5 12 be 8e 6c ee 3a
       0.17941886 0.25460002 -0.14320946 0.0018190311
000200 3b 32 a2 3d 7d b4 9d bc d6 58 26 bd 09 cf 2b 3e
       0.07919737 -0.019251103 -0.040612064 0.16778196
000210 c5 66 8e bc b9 47 38 3e 91 50 98 3d 4c a4 4f be
       -0.017382989 0.1799611 0.07437242 -0.20277518
000220 a2 6d 8b 3e f3 58 31 3d 53 6b 8e be dd c0 50 bd
       0.2723208 0.04329772 -0.27816257 -0.05096518
000230 48 2e 32 3e f3 e5 92 3c 83 09 76 bd 5e 92 5c 3d
       0.17400467 0.017931914 -0.060067665 0.053850524
000240 94 13 ec bd be 71 d1 bd ec 5e 58 3e 84 cc 44 3e
       -0.11527172 -0.10226773 0.2112996 0.19218642
000250 ea fe 0c 3d 7e 42 92 3c 69 0d 76 3d 83 d2 14 be
       0.034422792 0.017853972 0.060071383 -0.14533429
000260 be bf 76 bc 27 c9 83 3d 9b 6c ac bc 65 43 f9 38
       -0.015060363 0.06434851 -0.02104788 0.000118857984
000270 a0 25 e7 3d 21 f4 48 3e 0a e6 ff bd ed 7d d4 3d
       0.11286473 0.19624378 -0.12495048 0.10375581
000280 9f 9e d2 bd e8 52 6b be ab 2e b8 3d 8e f5 40 3e
       -0.10284161 -0.22980845 0.08993276 0.18843672
000290 0d 50 17 be 17 98 be 3c e2 b8 f2 bd 29 10 d1 bd
       -0.1477663 0.023265881 -0.1185167 -0.102081604
0002a0 2c da 84 be ee 6e de 3d c2 6b 82 be 99 39 77 3d
       -0.25947702 0.10861002 -0.25472838 0.060357664
0002b0 7c 52 62 bd 14 56 c7 bc fb 90 b8 bd 4b a1 8a 3d
       -0.055254444 -0.024333037 -0.09012028 0.067690454
0002c0 df 81 5a 3d 03 8e 88 3e a2 4c fc bb f6 60 a8 bd
       0.05334651 0.26670846 -0.007699565 -0.08221619
0002d0 37 c0 95 3d d8 06 26 bc 83 4e 38 be 47 1d ad bc
       0.07312053 -0.010133468 -0.179987 -0.021132125
0002e0 68 7a 15 be 4a af 07 bc 19 39 f8 3d e7 21 cb 3d
       -0.14597476 -0.008281538 0.121202655 0.09918576
0002f0 37 54 a3 3d 7e 8d eb 3d f1 03 9e 3d 0f 8d dd bd
       0.07975047 0.11501597 0.077155955 -0.108179204
000300 6e ce 67 bd 67 a9 c6 3d 63 2e 0f bd 94 18 c0 3c
       -0.05659335 0.0970028 -0.034956347 0.02344922
000310 b4 9c 72 be af 14 c9 bd 00 37 0e be 71 84 39 3b
       -0.2369259 -0.09818398 -0.13888168 0.00283077
000320 3d 44 8c 3e db 8c f1 3c 26 7a 30 be 89 f8 28 be
       0.27395812 0.02948611 -0.17234096 -0.16501059
000330 76 a1 99 3d 0f a2 d3 3d 33 d7 e0 bd 35 65 39 3e
       0.07501499 0.103336446 -0.10978546 0.18105014
000340 1e 88 f6 bd 8b fa f6 bc 02 92 13 3c 17 45 c0 3c
       -0.12037681 -0.030148765 0.009006979 0.023470445
000350 2a 6c 8d bd 9a da 0c be cc 20 36 bd 34 1e 38 be
       -0.06905396 -0.13755265 -0.04446487 -0.17980272
000360 51 c8 93 bd b9 c8 cd 3d 62 8c e3 3d 88 4d ca bd
       -0.07215942 0.100480504 0.1111076 -0.09878069
000370 e7 a2 42 3e 23 b1 6d 3d 2e 90 d2 3d d9 18 1a be
       0.19007455 0.05803026 0.10281406 -0.15048541
000380 0e be 82 be 44 6f f8 3d 35 18 0c be 4b 3d 15 be
       -0.25535625 0.12130597 -0.13681109 -0.14574163
000390 27 fe 2b 3e 8b 9f 36 bd bb a4 b8 3d b6 21 20 be
       0.1679617 -0.044585746 0.09015795 -0.1563786
0003a0 74 4f 2b be 8d 6f 91 3c 82 c9 9d bd 2b 14 af bc
       -0.16729528 0.017753387 -0.0770445 -0.021371922
0003b0 5b ca 1c be 9e e8 12 3c 6f 16 55 3e c9 7f e1 3d
       -0.15311567 0.008966593 0.20809339 0.11010701
0003c0 de 4a 01 3e 72 c2 24 3b 21 59 0e 3e cb da 44 bd
       0.12626216 0.0025140313 0.13901187 -0.04806022
0003d0 a3 a9 6c 3c d8 48 45 3e 6e 74 ca 3d cb 9b 48 bd
       0.014444741 0.19266069 0.098854885 -0.0489767
0003e0 22 b4 45 be 71 d3 90 3e ea b6 a5 ba ab 0a 81 be
       -0.19306996 0.28286317 -0.0012643014 -0.25203452
0003f0 15 ff 54 3c 3a 30 1d 3e 0a bc 59 3d e4 b9 50 bd
       0.013000269 0.15350428 0.053157844 -0.05095853

backbone.node_encoder.0.fc.0.bias f4 [32]
000000 f0 97 89 be 32 51 a1 3c 8e db 77 be 48 ba 45 be
       -0.26873732 0.019692037 -0.24204847 -0.19309342
000010 dd 1a 2b be 4b e3 3d be cd d5 3a bd fd 33 0f bd
       -0.16709466 -0.18543737 -0.045614053 -0.03496169
000020 93 2a 08 be d3 db 6a be 85 25 15 3d a9 2b 9d be
       -0.13297491 -0.22935419 0.036412735 -0.30697373
000030 a1 5c 90 be 7c ca aa 3c 5b 1e 60 be e8 70 a7 3d
       -0.2819567 0.020848505 -0.2188658 0.08175832
000040 20 7e 7e 3d 0b 23 14 3e 99 d7 c4 ba c8 3e 45 3e
       0.062132 0.14466493 -0.0015017866 0.1926223
000050 b9 25 b9 bd f7 f0 84 3e 5a a7 78 3e 09 66 24 be
       -0.09040398 0.25965092 0.2428259 -0.16054548
000060 6f 2a 00 3e 96 43 df 3d ef 8c 37 bd c5 8d 19 be
       0.12516187 0.10901563 -0.04481214 -0.14995487
000070 d9 3c aa be ec 80 82 3e 7e a7 b5 be 14 80 2b 3d
       -0.33249548 0.25488985 -0.3547935 0.04187019

backbone.node_encoder.0.gate.0.weight f4 [1, 32]
000000 f6 8f 31 be 3f ad 41 bd 0d 8e eb bd f8 41 a3 bd
       -0.17340073 -0.04728436 -0.115017034 -0.07971567
000010 d7 75 f9 bd 58 69 54 3d 74 bd 0e 3e 9d 08 25 3d
       -0.12180679 0.051858276 0.13939458 0.040291417
000020 bd fa 4e 3e c2 4a 81 3e f4 40 1e bc e6 3b e6 bc
       0.20212837 0.25252348 -0.009659041 -0.028104734
000030 e0 e4 1e 3e 01 3f 0a 3e b1 00 1a be 53 fa c0 3c
       0.15516996 0.13500597 -0.15039326 0.023556864
000040 08 a6 12 3e 48 04 38 be 78 4d 86 bd 3e f9 c8 3d
       0.14321148 -0.17970383 -0.06557745 0.09813164
000050 cd ff d4 3d 1e c3 d6 bd 1e fe 33 bd 3b 80 2e be
       0.104003526 -0.104864344 -0.043943517 -0.17041104
000060 b1 18 4b be c0 c5 82 bc b6 50 0d be fc 52 bd bd
       -0.19833638 -0.015963435 -0.1380032 -0.09244344
000070 88 2b 40 bb d1 d6 8d 3e dd c7 5c be e0 8d 4f be
       -0.0029322822 0.27702954 -0.21560617 -0.20268965

backbone.node_encoder.1.gat_layer.fc.0.weight f4 [4, 4]
000000 ad c6 20 bf 1b 95 31 bf 6b ee 9b 3e 6f ea 5d be
       -0.62803155 -0.6936814 0.30455336 -0.2167146
000010 78 33 97 3e 11 c9 80 bf 54 23 37 3f 11 08 f1 bc
       0.29531455 -1.0061361 0.7153828 -0.029422792
000020 89 ba 49 bf 7f e0 47 3f 43 91 1d 3e 6f 37 14 3f
       -0.78800255 0.7807693 0.15387444 0.57897085
000030 d0 89 18 bf 37 f1 87 3e a1 36 14 bf 2e 87 14 3d
       -0.59585285 0.2655122 -0.5789586 0.03626173

backbone.node_encoder.1.gat_layer.fc.0.bias f4 [4]
000000 65 e8 d8 3e 35 4c 01 3f a7 84 f6 bd f9 0a 5c 3e
       0.42364803 0.5050691 -0.1203702 0.2148856

backbone.node_encoder.1.gat_layer.att_layer.weight f4 [1, 8]
000000 30 54 39 3f 8c fc 47 3e ac 74 63 bf b6 9a 06 3f
       0.72394085 0.19529933 -0.888499 0.5257982
000010 e1 5d 94 bf 72 23 2b 3f c9 e0 ee 3e eb 2a 45 bd
       -1.159115 0.6685096 0.46655872 -0.048136633

backbone.node_encoder.1.fc.0.weight f4 [32, 32]
000000 91 bb 8b be a1 ec 78 bd 62 d9 ed 3d 37 84 52 3e
       -0.2729154 -0.060772542 0.11613728 0.20558248
000010 1a 48 ff 3d c7 c5 16 be 16 55 bf 3d 5e 0e e1 3d
       0.12464924 -0.14723884 0.09342401 0.109890684
000020 20 60 8c be a0 31 eb 3b bf 00 1c be ba 3e 06 be
       -0.27417088 0.0071775466 -0.1523466 -0.13109866
000030 7c 9a c2 3d 70 e7 37 3e d4 69 35 3e 5b de 6d 3e
       0.09502122 0.1795938 0.17716151 0.23229353
000040 7e 49 3c be 52 5e c7 3c 8b 28 a4 3d d7 52 29 3d
       -0.1838741 0.024336968 0.080155455 0.041338768
000050 80 df 35 3e 1c 2d 02 be 7b 02 b7 3d 74 9f b5 3d
       0.1776104 -0.1271252 0.0893602 0.08868304
000060 ee 8e ca ba c1 ca 41 bd 08 cf a2 3e 85 5c 53 3d
       -0.0015453973 -0.0473125 0.31798577 0.051601905
000070 25 a0 8e 3e ca e9 ec bc 11 a9 3a bd c0 69 99 bd
       0.27856556 -0.028920073 -0.04557139 -0.07490873
000080 84 37 50 ba 23 4b b2 3d 03 89 3c 3e 62 f4 7a be
       -0.0007942843 0.087057374 0.18411641 -0.24507287
000090 58 90 e4 bd eb be 7a 3d 9f 95 e0 3d 18 d2 d2 3d
       -0.11160344 0.06121723 0.10966038 0.102939785
0000a0 bc 1e 16 3e 5c 4d 27 3e 1a 85 90 be 50 61 ba be
       0.14660162 0.16338104 -0.28226548 -0.3640237
0000b0 2d 56 b4 bd c6 5a 71 bd 7c b5 28 3e 6d b6 e6 bd
       -0.08805499 -0.05892446 0.16475481 -0.11265264
0000c0 cf c4 86 be 68 65 89 3e e9 2c 3a be b7 42 9a be
       -0.26322028 0.2683518 -0.18181194 -0.30129024
0000d0 69 8a bb 3e 45 5d 60 3e e3 e3 1e 3e c7 f9 ec ba
       0.36629036 0.2191058 0.1551662 -0.001807981
0000e0 16 76 00 be 88 6c 93 3d a2 c3 b7 be 7b d5 8b 3e
       -0.12545046 0.07198435 -0.35891443 0.2731131
0000f0 9a 25 2e 3d c2 83 87 bd 75 bc 0d 3e 92 b7 3e be
       0.04251633 -0.06616928 0.13841422 -0.18624714
000100 5f 32 b4 be c2 68 ff 3e be 4d 30 3e 4d fe 60 3b
       -0.3519468 0.4988461 0.17217156 0.0034331263
000110 7b c1 8d be 84 e7 8a bd e1 5d 9a bd 87 08 55 3d
       -0.27686676 -0.06782439 -0.07537437 0.052010085
000120 f6 cd 02 be 5f 56 f0 3d 70 1b 1c bd 41 07 20 be
       -0.1277388 0.11735224 -0.038112104 -0.15627767
000130 83 8f ac 3e 0f 43 d8 3d c9 2e 71 be 47 37 a1 3c
       0.3370324 0.105596654 -0.23553003 0.019679679
000140 5c 24 0d 3d 50 0d 3c 3e ea 1e 0d 3d 31 7c fd bd
       0.034458503 0.18364453 0.03445331 -0.12377203
000150 70 e7 d8 bc 6d 5d 2c 3e 79 3b 3d 3e d9 4e 8a bd
       -0.026477545 0.16832514 0.18479718 -0.0675332
000160 fa 65 69 3e ec e6 20 3e c7 44 fb bb d8 9d aa bd
       0.22792807 0.1571309 -0.007668111 -0.083308876
000170 e6 9b e9 ba 32 33 93 ba b8 81 70 be 48 0a f0 bd
       -0.0017822951 -0.0011230467 -0.23486984 -0.11720711
000180 b0 1e 88 bd e0 f9 c0 bd 46 7c 6c 3d f7 4c 9e 3d
       -0.06646478 -0.0942266 0.057735704 0.07729524
000190 34 44 33 3e da 3d 08 3e 0c fc 16 3e 59 7b 65 3d
       0.17506486 0.13304844 0.14744586 0.056025837
0001a0 e5 6b 0a be 97 f2 eb bd ef fa 8e be e2 20 7b 3e
       -0.13517721 -0.1152088 -0.27925822 0.24524263
0001b0 08 71 49 3d a8 65 82 bd ce c6 09 3d 00 fc 2a 3e
       0.04918006 -0.06367046 0.03363686 0.16697693
0001c0 66 ee 0d 3e 58 a7 8f bc 71 e3 e5 3d da 5c 43 bb
       0.13860473 -0.01753585 0.11225022 -0.0029809983
0001d0 6b 74 bd 3c 0a 6f 14 be f9 e1 df 3d 14 1e 73 3d
       0.023126801 -0.14495483 0.10931773 0.059354857
0001e0 fa 14 50 3c b6 dd a3 bc b8 23 e7 3e 49 ff 46 3e
       0.012700314 -0.020003181 0.4514444 0.19433321
0001f0 81 bd 9e be 30 69 4b bd 52 9e 23 3e 61 1d be 3d
       -0.31003955 -0.04966086 0.15978363 0.09282947
000200 96 38 b1 bd a0 05 93 bd c8 6b 76 be a7 56 6f 3c
       -0.08653371 -0.07178807 -0.24064553 0.014608062
000210 9b af 74 be b1 32 65 be 96 90 64 3e 95 ca 2d 3e
       -0.23895113 -0.22382618 0.2232078 0.1697181
000220 7b 7f 14 3f bd 5d 4c be 22 69 17 be d1 88 fa 3d
       0.5800702 -0.19957633 -0.14786199 0.12233127
000230 68 77 89 3e bc 26 5f bd 21 46 24 be f3 9c 8c 3d
       0.26848912 -0.0544803 -0.16042377 0.06865873
000240 62 d1 ed 3d db bc ac 3d b6 15 40 3d ae 43 4a be
       0.11612202 0.08434459 0.046895705 -0.1975238
000250 5e 81 6b be b1 df 6e bb 23 9e ec bd ce 63 c4 3c
       -0.22998568 -0.0036449248 -0.115536 0.023973372
000260 1e dd 14 3e c5 78 8b be 89 45 03 3e 34 8c 0b 3e
       0.14537475 -0.27240577 0.12819494 0.13627702
000270 bb 2d 20 3f 74 84 3e bc 77 99 38 3d 48 b0 88 bc
       0.6256978 -0.011628259 0.04506823 -0.01668562
000280 18 25 73 be d0 99 16 3e cb 3f 84 3e e8 da 0f 3d
       -0.23744619 0.14707112 0.2582992 0.035120875
000290 f7 64 4b 3e 08 b6 49 be b7 86 49 be 3d d4 9f be
       0.19862734 -0.19698346 -0.19680296 -0.31216612
0002a0 fc 11 90 3d 77 bf c0 3e 40 76 82 3e de dc 32 bc
       0.0703468 0.37646076 0.25480843 -0.010916917
0002b0 1d cf c9 bd d5 0b 8a 3d cd be b1 3e be b6 c6 3c
       -0.09853957 0.06740538 0.34715882 0.02425706
0002c0 49 0b da 3d 25 26 29 bd 23 5f a8 bd 23 57 24 3e
       0.10646684 -0.041296143 -0.08221271 0.16048865
0002d0 10 b5 eb 3b eb 16 61 3d 4b 09 97 be dd be b2 bd
       0.007193215 0.054953497 -0.29499277 -0.087278105
0002e0 3c 1c 6c 3e 31 24 27 3d 45 55 0b 3e 7d fa 4d bd
       0.23057646 0.040806 0.13606746 -0.050287712
0002f0 d3 9d 81 be 47 a8 a0 be 18 ca 5d 3e 1f 94 85 bd
       -0.25315723 -0.31378385 0.21659124 -0.065223925
000300 29 a9 a5 bd 40 9d 92 3e b8 b7 b0 3d c9 b3 8a bd
       -0.08088905 0.28635597 0.086287916 -0.067725725
000310 d6 76 55 be 7d a0 95 3e d7 59 64 3d ce 7e 2e 3e
       -0.20846114 0.29224005 0.05574974 0.1704056
000320 29 57 af 3d 1d 94 0c be 82 a2 d9 3d 9d e8 32 3e
       0.08561546 -0.13728376 0.10626699 0.17471547
000330 1a 1c b3 3e 77 02 b3 be f1 b3 c9 bc ec 85 d4 3d
       0.34982377 -0.34962818 -0.024621936 0.10377106
000340 b6 f4 19 3d e3 cb 8b 3d 62 0e 68 3e 31 8b a3 bc
       0.03758689 0.06825998 0.22661737 -0.019963833
000350 eb 5d 1f 3e 1a 45 13 be 16 61 41 3d cc a7 55 3e
       0.1556317 -0.14381829 0.04721173 0.2086479
000360 0a 83 ef 3d 00 28 14 3d bb 27 40 be 71 a1 10 bd
       0.116949156 0.03617096 -0.18765156 -0.035310213
000370 ea c9 3c 3c 68 ce 08 bd 66 02 ca bd f8 09 7e 3e
       0.011522749 -0.03339997 -0.09863739 0.2480849
000380 48 aa 74 be 0d 63 90 3d 1d 72 91 3e 1e 8e d9 bd
       -0.23893082 0.070501424 0.28407374 -0.1062281
000390 72 b3 8e bd 69 80 a2 be d9 da ad 3e f1 3d 64 bd
       -0.0696782 -0.31738594 0.3395603 -0.055723134
0003a0 24 6d 16 3e b7 a3 b1 bd 1e 5b 2e bc 0b a1 45 3e
       0.14690071 -0.08673804 -0.010641841 0.19299714
0003b0 f5 37 5a 3e 5b 06 8b be 68 97 34 bd 45 99 3f 3e
       0.21310408 -0.27153286 -0.044089705 0.18710811
0003c0 74 c0 66 bd 42 50 24 be 59 b0 a3 3c 64 3d 35 be
       -0.05633588 -0.16046241 0.01998155 -0.176992
0003d0 9a 1d c7 bc c3 3e 5c 3e 18 e4 21 be d2 49 c8 3e
       -0.024306107 0.21508317 -0.15809667 0.3911882
0003e0 04 9f 0f be 69 f7 9d be 8c 7c a5 3d f1 b2 cf 3e
       -0.14025503 -0.3085282 0.08080396 0.4056621
0003f0 1f 11 53 be 81 b3 9b 3c cf 93 81 bd 62 63 70 3d
       -0.20612 0.019006493 -0.063270204 0.05868853
