model_parameter/traffic/GAttention_best.pth (torch, 906510 bytes, 378 tensors)

embedding.traffic_embedding.0.weight f4 [32, 1]
0	0x3eab9aa7	0.33516428
1	0x3e9a4492	0.3013044
2	0xbf28c622	-0.65927327
3	0xbf24d352	-0.6438495
4	0xbf472f6b	-0.7780673
5	0x3ef8c6d4	0.48589194
6	0xbe94596f	-0.28974482
7	0x3e92808e	0.28613704
8	0xbd14a112	-0.03628642
9	0x3e6a2335	0.22864993
10	0xbe72c906	-0.23709497
11	0x3efff090	0.49988222
12	0xbf3c306e	-0.735114
13	0xbf1f91ca	-0.6233183
14	0xbee7a820	-0.45245457
15	0xbf3740d4	-0.71583295
16	0x3f8887d8	1.0666456
17	0xbefdf562	-0.49601275
18	0x3eb91a3d	0.3615283
19	0x3e34a6a9	0.17641701
20	0x3f13a95e	0.5768031
21	0xbece33e7	-0.40273973
22	0xbf803f2c	-1.0019279
23	0xbe7518bd	-0.23935218
24	0xbf95f624	-1.1715741
25	0x3e767863	0.24069361
26	0x3ee58e0d	0.4483494
27	0xbf19cd91	-0.60079294
28	0xbef25972	-0.47333866
29	0xbf079dc7	-0.52975124
30	0x3f083558	0.53206396
31	0xbf5c322d	-0.8601406

embedding.traffic_embedding.0.bias f4 [32]
0	0x3f1e2440	0.61774063
1	0x3eae5508	0.3404925
2	0x3f075cdb	0.5287606
3	0x3dab1557	0.083536796
4	0x3f50370d	0.81334
5	0xbd7cf329	-0.061755333
6	0xbe12216f	-0.14270566
7	0x3ee8d004	0.45471203
8	0xbc5fc9dd	-0.013658968
9	0xbf4a259d	-0.78963643
10	0x3ee01b5f	0.43770882
11	0x3d65d9bc	0.05611585
12	0xbf80450c	-1.0021071
13	0xbf311043	-0.6916544
14	0x3f29fd65	0.66402274
15	0xbf859519	-1.0436126
16	0x3eff0abc	0.49812877
17	0x3e837198	0.25672603
18	0x3e20fd6f	0.15721677
19	0xbf55f1e1	-0.835722
20	0x3e82e6ee	0.2556681
21	0x3ea41249	0.320452
22	0x3f4b6b3e	0.79460514
23	0x3e8e3075	0.27771345
24	0x3e38cdd7	0.18047272
25	0x3de8e746	0.11372237
26	0xbd5129df	-0.051065322
27	0xbdac4d2d	-0.084131576
28	0xbf4ac632	-0.7920867
29	0xbf4aeb99	-0.79265743
30	0x3f733c7d	0.9501417
31	0x3f36b98e	0.71376884

out.linear.layers.0.weight f4 [32, 32]
0	0xbeddfcc1	-0.43356898
1	0xbee84d35	-0.45371404
2	0x3d20d119	0.03926191
3	0xbdc2e7ad	-0.09516845
4	0x3e832397	0.2561309
5	0x3e1d3eca	0.15355983
6	0x3dd9d8e9	0.106370755
7	0x3f10ee2a	0.5661341
8	0x3dd74376	0.10510914
9	0x3e27263e	0.16323182
10	0xbede479a	-0.43414003
11	0xbded50f7	-0.115877084
12	0x3d83d49e	0.06437038
13	0x3e5112c0	0.20417309
14	0xbf206420	-0.6265278
15	0xbe8c6bd2	-0.2742601
16	0xbce2e3fa	-0.027696598
17	0x3e247067	0.16058503
18	0xbef86ea9	-0.48521927
19	0xbe422660	-0.18959951
20	0xbe004af1	-0.12528588
21	0xbcbfce8a	-0.023413915
22	0xbecf7b59	-0.40523794
23	0xbe9099dc	-0.28242385
24	0xbe02bdd0	-0.1276772
25	0x3f2f2810	0.68420506
26	0xbdc7e087	-0.09759622
27	0xbdcccf3b	-0.100004636
28	0xbd6508d1	-0.05591661
29	0x3ec336c9	0.38127735
30	0xbdc405e6	-0.095714375
31	0x3d28d057	0.041214313
32	0xbe085892	-0.13315037
33	0xbf02fc75	-0.5116647
34	0x3d017f2e	0.03161543
35	0x3e427fc1	0.18994047
36	0xbe96e182	-0.29468924
37	0x3e8acca1	0.27109244
38	0x3c317f64	0.010833595
39	0xbf21773a	-0.6307255
40	0x3e861bc9	0.26193073
41	0xbf3c9161	-0.7365933
42	0xbe07bfdf	-0.13256787
43	0xbe0b7249	-0.13617815
44	0x3df186d9	0.11793298
45	0xbd4b63d9	-0.04965577
46	0x3d8b0feb	0.067901455
47	0xbe97edfc	-0.29673755
48	0xbe08e082	-0.13366893
49	0xbebb1ac5	-0.3654386
50	0xbe4ac8eb	-0.19803207
51	0x3e763896	0.24045023
52	0xbef4bec1	-0.47801784
53	0x3cfe791a	0.031063605
54	0x3e938aa9	0.28816727
55	0xbe97fd54	-0.29685462
56	0x3b6aa713	0.003580515
57	0x3de52a18	0.11189669
58	0x3ede39d2	0.43403488
59	0xbe3d2eb9	-0.18474855
60	0x3dec8909	0.11549575
61	0xbcaca4de	-0.021074709
62	0x3eb5c334	0.3550049
63	0xbd635997	-0.05550536
64	0xbde9008b	-0.11377057
65	0x3e0025f8	0.12514484
66	0xbe2549cd	-0.16141434
67	0x3e0cf5fb	0.13765709
68	0x3d36cd1b	0.044629198
69	0x3d5c9025	0.053848404
70	0xbea1ab78	-0.31576133
71	0xbed49349	-0.4151862
72	0x3c758343	0.0149849085
73	0xbe82e3aa	-0.2556432
74	0xbdeca6ca	-0.1155525
75	0x3cfe7721	0.031062664
76	0x3e6b5cbc	0.22984594
77	0xbe4b6c1a	-0.19865456
78	0xbe81fe1d	-0.25389186
79	0x3e6620b3	0.22473411
80	0xbea23bc8	-0.31686234
81	0x3e04006e	0.12890789
82	0xbe004be4	-0.1252895
83	0x3e4eacfa	0.20183173
84	0x3c7af3e5	0.015316938
85	0xbd0d1f3e	-0.034453623
86	0x3d9126e8	0.07087499
87	0xbce34fa4	-0.027747937
88	0x3e044c3d	0.12919708
89	0xbdeb3510	-0.1148473
90	0x3dd1f641	0.10252047
91	0x3dc1d45b	0.09464332
92	0xbce890b6	-0.028389316
93	0xbe2a1af4	-0.16611844
94	0xbe23e685	-0.16005905
95	0x3e9d3f31	0.30712274
96	0x3de106e9	0.10987646
97	0x3dd9b550	0.10630286
98	0xbd4f8978	-0.05066821
99	0x3e3529d7	0.17691742
100	0x3d918d39	0.07107014
101	0xbe83eaac	-0.25764978
102	0x3d704824	0.05866255
103	0x3cd56418	0.026048705
104	0x3dd4da57	0.103932075
105	0xbd0e9417	-0.0348092
106	0xba39aa55	-0.00070825714
107	0x3e40f726	0.1884428
108	0x3c5262b1	0.012840913
109	0xbe09c319	-0.1345333
110	0xbf0a2164	-0.539572
111	0x3c04ced1	0.0081059495
112	0xbe9e0580	-0.3086357
113	0x3d833511	0.06406606
114	0x3dc3bb86	0.09557252
115	0x3ea4dbb3	0.32198867
116	0x3e94f131	0.29090264
117	0x3dffdbaa	0.124930695
118	0xbdd10955	-0.10206858
119	0x3cd7e4e4	0.02635426
120	0x3d081f22	0.033232816
121	0x3e136b1a	0.14396325
122	0xbe94e8d0	-0.29083872
123	0x3d5ac8f8	0.053414315
124	0xbea953e4	-0.33071816
125	0x3e2e6a55	0.1703275
126	0xbbf642f6	-0.0075153066
127	0x3efa9e53	0.48948917
128	0xbe91bac4	-0.28462803
129	0x3d8bfb98	0.06835097
130	0xbea530c3	-0.32263765
131	0x3d0fa770	0.03507179
132	0xbebeca45	-0.37263694
133	0xbe66f326	-0.22553691
134	0xbea65948	-0.3248999
135	0xbe9d85fc	-0.30766284
136	0x3e13c7c7	0.14431678
137	0x3e307b04	0.17234427
138	0xbd7c4376	-0.061587773
139	0x3ca5c9f7	0.020237906
140	0xbe50f292	-0.20405033
141	0xbebd568d	-0.36980096
142	0x3e45c675	0.19313987
143	0x3cdca0cc	0.026932143
144	0x3d35f96b	0.044427317
145	0xbde85def	-0.113460414
146	0xbd190075	-0.03735395
147	0xbde1abf2	-0.11019124
148	0x3e1b2f9d	0.15154882
149	0xbec23290	-0.379292
150	0xbebd09b8	-0.36921477
151	0x3d9a595d	0.07536576
152	0xbcff6458	-0.031175777
153	0x3f359825	0.7093528
154	0x3ebdb8ad	0.3705496
155	0xbe807b80	-0.25094223
156	0xbf195939	-0.5990177
157	0xbf119e95	-0.568826
158	0x3ceb40de	0.028717455
159	0x3dfeef27	0.124479584
160	0xbe231123	-0.15924506
161	0x3e13e76c	0.14443749
162	0x3da32c1c	0.079673976
163	0x3e0176f5	0.12643035
164	0x3e8281d6	0.25489682
165	0x3e4cada3	0.19988112
166	0xbe6798ed	-0.2261693
167	0xbe8aa72d	-0.2708067
168	0x3d8d6c0c	0.06905374
169	0xbe9b7fa7	-0.30370829
170	0xbcf5f861	-0.030025663
171	0xbd0c521a	-0.034257986
172	0x3e20de10	0.1570971
173	0x3d294e16	0.041334234
174	0x3e2ef26c	0.17084664
175	0xbdeed75c	-0.1166217
176	0x3e85b46c	0.26114213
177	0x3d2aed43	0.041730177
178	0xbefb6370	-0.49099302
179	0xbe887d5c	-0.26658142
180	0x3dfe7247	0.124241404
181	0xbeda0bbc	-0.42587078
182	0xbedd33e0	-0.4320364
183	0xbe956c1e	-0.2918405
184	0xbe82e10d	-0.25562325
185	0x3e6df447	0.23237716
186	0xbe25dfda	-0.16198674
187	0xbceb1007	-0.028694166
188	0xbe28e0c9	-0.16491999
189	0xbe23a5fe	-0.1598129
190	0x3a6ddbce	0.0009073586
191	0x3ef0d618	0.4703834
192	0x3da1ce44	0.0790067
193	0x3d7e5eef	0.062102254
194	0xbf118d25	-0.56855994
195	0x3dbbd48d	0.091714
196	0x3ee63974	0.44965708
197	0x3e646b65	0.22306593
198	0xbea38cb2	-0.3194328
199	0x3ca96c8c	0.020681642
200	0xbddb5977	-0.107104234
201	0x3e4f2623	0.20229392
202	0x3d819d84	0.06328872
203	0x3dec3483	0.11533453
204	0xbc460c90	-0.012087956
205	0xbd1e3172	-0.038621373
206	0xbe566840	-0.20938206
207	0xbc8a80a2	-0.01690704
208	0x3c55ae10	0.013041988
209	0xbdc591c0	-0.0964694
210	0xbe5f6ade	-0.2181811
211	0xbecb50ca	-0.39710075
212	0xbe974928	-0.29548
213	0x3cb6f97d	0.022335762
214	0x3e4a5233	0.19757919
215	0x3e928f46	0.28624934
216	0x3e9e4b36	0.30916756
217	0xbea61bc1	-0.3244305
218	0x3d620270	0.055178106
219	0x3d5027be	0.05081915
220	0x3e9e3671	0.3090091
221	0xbe58cad5	-0.21171124
222	0xbe5344d4	-0.20631725
223	0xbea51f69	-0.32250527
224	0xbe025e6a	-0.12731329
225	0x3e8e9f20	0.27855778
226	0xbd2756ce	-0.040854268
227	0xbe3df55f	-0.18550633
228	0x3d7413ae	0.05958908
229	0xbe483cba	-0.19554415
230	0x3de72653	0.11286607
231	0xbdeb2e0e	-0.114833936
232	0xbcb5b9f8	-0.022183403
233	0x3dda305e	0.106537566
234	0x3de4da44	0.11174443
235	0x3e14a3df	0.14515637
236	0xbe1ce237	-0.15320669
237	0x3e2ec419	0.17066993
238	0xbe0ead9e	-0.13933417
239	0xbdf64c3a	-0.12026258
240	0xbe93aef4	-0.28844416
241	0xbd4f6fd8	-0.050643772
242	0xbd6c9e67	-0.05776825
243	0x3d588d59	0.052869175
244	0x3bd7ede6	0.006589639
245	0x3e672af9	0.22574987
246	0x3d8b038e	0.067877874
247	0x3de1910d	0.11013994
248	0x3dba3869	0.09092791
249	0xbeb52c56	-0.35385388
250	0xbe3a1e32	-0.18175581
251	0x3e939a4b	0.28828654
252	0x3d0a5f84	0.033782497
253	0x3e25f78f	0.16207717
254	0xbdb27c68	-0.08715135
255	0x3d311ded	0.04324143

out.linear.layers.0.bias f4 [32]
0	0xbcc2c0ac	-0.023773514
1	0xbe1a42d2	-0.15064552
2	0x3d8dbfa5	0.06921319
3	0xbd85641b	-0.06513234
4	0xbc1579e4	-0.009123299
5	0x3e023a00	0.12717438
6	0x3e394fd9	0.18096866
7	0x3caa0ca2	0.020757977
8	0xbd314e52	-0.043287583
9	0x3d3bf538	0.045888156
10	0x3d88ef64	0.06686285
11	0x3db5ad90	0.08870995
12	0x3e5c4ab3	0.2151287
13	0xbe15d65b	-0.14632551
14	0x3cd61f0d	0.026137853
15	0x3e1945e1	0.14968063
16	0x3e8aa64a	0.27079993
17	0x3e8d7ea6	0.27635688
18	0x3d078265	0.03308334
19	0xbcd5c94a	-0.026096959
20	0x3e13bb6f	0.14426969
21	0x3e2d2301	0.16907884
22	0xbe369c6a	-0.17833105
23	0x3e0f8a29	0.14017548
24	0xbc9f9be7	-0.01948352
25	0xbeb3648b	-0.35037646
26	0xbc0567a6	-0.0081423875
27	0x3d04691b	0.0323268
28	0xbaf25492	-0.0018488339
29	0x3d7f4e22	0.062330373
30	0x3d47d583	0.048787605
31	0xbce7d0cd	-0.028297806

out.linear.layers.2.weight f4 [32, 32]
0	0xbe9a3c69	-0.30124214
1	0x3d57a16e	0.052644186
2	0x3dfdaecf	0.12386858
3	0x3dc9bbf0	0.09850299
4	0xbe122ebf	-0.14275645
5	0xbe8f99a4	-0.28046906
6	0x3e6232a5	0.22089632
7	0xbd883af2	-0.06651868
8	0x3e884e9e	0.2662248
9	0x3cb6fdf3	0.02233789
10	0x3dab9784	0.08378509
11	0xbcd214af	-0.025644628
12	0xbda65ec0	-0.08123541
13	0xbcf6f72c	-0.030147158
14	0x3e1194ad	0.14216872
15	0xbea531e7	-0.32264635
16	0xbd73f34f	-0.05955821
17	0xbde019f6	-0.10942452
18	0x3d5cb4de	0.053883426
19	0xbe52c41d	-0.20582624
20	0xbc8f1cd7	-0.017469807
21	0xbc425edf	-0.011863439
22	0xbe963c07	-0.29342672
23	0xbeaa5f06	-0.33275622
24	0xbe9285ff	-0.28617856
25	0xbdb55550	-0.08854163
26	0xbea6b1da	-0.32557565
27	0x3e6235b2	0.22090796
28	0x3e6dde91	0.23229434
29	0x3e1187f0	0.14212012
30	0x3e306ef6	0.17229828
31	0x3e2fc9b7	0.17166792
32	0xbba4403a	-0.005012539
33	0xbdf22ccd	-0.11824951
34	0x3e54a550	0.20766187
35	0xbed8898f	-0.4229245
36	0x3f4dc7f0	0.80383205
37	0xbf17c719	-0.59288174
38	0xbe3ad596	-0.18245539
39	0xbe3fc127	-0.18726026
40	0xbe1031b9	-0.14081468
41	0xbe8f9f6b	-0.28051314
42	0xbf2548af	-0.6456403
43	0xbdd37cfd	-0.10326574
44	0x3e15fd10	0.14647317
45	0xbbd3ec39	-0.006467369
46	0x3e850f3e	0.2598819
47	0x3be223b9	0.006901231
48	0xbef1e8d5	-0.4724795
49	0xbeb6bfb0	-0.3569312
50	0x3daf9daf	0.08574998
51	0x3e086c65	0.13322599
52	0x3d0c5215	0.034257967
53	0x3e567474	0.20942861
54	0xbec6027e	-0.38673776
55	0x3cfb74d3	0.030695355
56	0xbe3a0ec6	-0.18169698
57	0x3aa5dba6	0.0012653961
58	0x3d1cf37b	0.03831814
59	0xbdf7ac56	-0.12093417
60	0x3dfeb20c	0.124363035
61	0xbe0d75a9	-0.13814415
62	0xbe5d1ccc	-0.21593016
63	0xbd25f771	-0.04051918
64	0xbd320f2e	-0.043471508
65	0x3dc4c223	0.09607341
66	0x3d9b1bad	0.07573638
67	0xbdc3caaa	-0.095601395
68	0x3df5fa63	0.12010648
69	0x3ef49764	0.47771752
70	0xbcea8cef	-0.028631655
71	0xbdbb0ddf	-0.09133505
72	0x3e1f110f	0.15533851
73	0x3e8425ca	0.2581008
74	0x3d67b0a3	0.05656494
75	0x3e12cda4	0.14336258
76	0x3e5fc2d4	0.21851665
77	0x3d3f497b	0.046700936
78	0x3cc10f41	0.023566844
79	0xbe638d94	-0.22221977
80	0x3d40ba9d	0.04705297
81	0x3deb0fbe	0.11477612
82	0xbe4b7403	-0.19868474
83	0xbe50abb7	-0.20378004
84	0x3e02e6f7	0.12783419
85	0x3dcac515	0.09900872
86	0xbda54a54	-0.080708176
87	0xbc139ab6	-0.009009054
88	0xbe4fb09e	-0.20282218
89	0x3dacb262	0.08432461
90	0xbe7e7ac5	-0.2485152
91	0x3d418e79	0.047255013
92	0xbdf2a3ed	-0.118476726
93	0xbe9f4efb	-0.31114945
94	0x3c7c2b89	0.015391239
95	0xbe8535ec	-0.26017702
96	0x3df12143	0.11773922
97	0xbe4a1f05	-0.19738396
98	0x3bea0761	0.007141993
99	0x3e10dae6	0.14146003
100	0xbf06879f	-0.5255069
101	0xbeef1b8e	-0.4670071
102	0xbe218149	-0.15771975
103	0xba655eb4	-0.00087497686
104	0x3e6b1039	0.22955407
105	0x3e6065aa	0.21913782
106	0xbe8343e7	-0.25637743
107	0xbde231c8	-0.11044651
108	0x3d2df044	0.042465463
109	0x3dd35303	0.103185676
110	0x3cc38362	0.02386636
111	0x3d9df941	0.07713557
112	0x3e406948	0.18790162
113	0x3cc10363	0.023561185
114	0xbc8930bf	-0.016746877
115	0xbdf89ea6	-0.12139635
116	0x3c8f837e	0.017518755
117	0xbe4c381d	-0.1994328
118	0xbef4f1ca	-0.4784072
119	0xbc29ae71	-0.0103565315
120	0x3d7f42eb	0.062319677
121	0xbec50c16	-0.38485783
122	0xbf4a5c81	-0.790474
123	0xbebc9230	-0.36830282
124	0x3e1a8a3b	0.15091793
125	0xbe898ed6	-0.26866788
126	0xbde368c5	-0.111039676
127	0xbe74f71d	-0.23922391
128	0x3dc297ce	0.09501611
129	0xbe8bc1df	-0.2729635
130	0xbeb44470	-0.35208464
131	0xbe4962fc	-0.19666666
132	0x3eb9ff8b	0.36327776
133	0x3dafbb46	0.085806414
134	0xbe727a83	-0.23679547
135	0x3d96e6ea	0.07368262
136	0x3c231891	0.009954588
137	0xbe8c1135	-0.27356878
138	0x3e56d9b4	0.20981485
139	0x3e096acb	0.13419645
140	0x3e054399	0.13014068
141	0xbeb1fe17	-0.34764168
142	0xbdfaffaf	-0.12255799
143	0x3e01bfb5	0.12670787
144	0xbe0330b0	-0.12811542
145	0x3e174c0b	0.14775102
146	0xbe26efb7	-0.16302381
147	0xbe50d015	-0.20391877
148	0x3d0f2441	0.034946684
149	0x3d5eef72	0.05442757
150	0xbd6c2b10	-0.057658255
151	0xbba07f8d	-0.0048980177
152	0x3b32c40c	0.0027277498
153	0xbe5c8513	-0.21535139
154	0xbeb02798	-0.34405208
155	0xbe90b249	-0.2826102
156	0x3e8a6ce5	0.27036205
157	0x3e1bed14	0.15227157
158	0xbebd7432	-0.37002712
159	0xbdf649bd	-0.12025783
160	0x3dd09a90	0.101857305
161	0xbe85a92e	-0.26105636
162	0x3d3b40c8	0.045716077
163	0xbddece31	-0.10879172
164	0xbef8f60b	-0.48625216
165	0xbf2e79d3	-0.6815464
166	0x3c73739c	0.014859106
167	0x3ca3a108	0.019974247
168	0x3e0f8d71	0.140188
169	0x3e0474ec	0.12935227
170	0xbe8242ee	-0.25441688
171	0xbd66f410	-0.0563851
172	0xbe6475f6	-0.22310624
173	0x3da4740d	0.080299474
174	0x3d2be5bd	0.041967142
175	0xbe38655d	-0.18007417
176	0x3e54e66f	0.20791028
177	0x3e44ff90	0.19238114
178	0xbeabcbb0	-0.3355384
179	0x3dda9278	0.10672468
180	0x3baf1685	0.0053432607
181	0x3e4b09ce	0.19827959
182	0x3f043a5f	0.5165157
183	0xbdaedb3b	-0.08537909
184	0x3de89fe2	0.1135862
185	0x3e0fb324	0.1403318
186	0xbd5c7294	-0.053820208
187	0xbe152748	-0.14565766
188	0xbe63f1eb	-0.22260253
189	0x3e3896f2	0.18026331
190	0x3e289fe3	0.16467242
191	0x3e9471bf	0.2899303
192	0xbf1cac05	-0.6119998
193	0x3f060f9a	0.52367556
194	0xbdde114a	-0.108431414
195	0xbe4e3ea5	-0.20141084
196	0x3d8b0cfb	0.06789585
197	0xbf0a591d	-0.54042226
198	0xbee1a7bd	-0.44073287
199	0xbc461278	-0.012089364
200	0xbe5616f4	-0.20907193
201	0x3cd11518	0.025522754
202	0xbf409427	-0.7522606
203	0xbe48541b	-0.19563334
204	0xbdd0e941	-0.1020074
205	0xbe966396	-0.29372853
206	0x3eac5de3	0.3366538
207	0xbbaa1b4e	-0.0051912433
208	0xbe04253f	-0.12904833
209	0x3e8fe4d7	0.28104278
210	0xbe4c654e	-0.1996052
211	0xbe147cd5	-0.14500745
212	0x3b9d02df	0.004791602
213	0xbe86908a	-0.2628215
214	0x3e0b61a7	0.1361147
215	0xbebbdc6e	-0.36691612
216	0xbeb94547	-0.36185667
217	0x3daa1a7b	0.08305832
218	0xbe8a906c	-0.2706331
219	0x3e8ae7d7	0.27130005
220	0xbe30e6f1	-0.17275597
221	0x3df0bf86	0.1175528
222	0xbebefc59	-0.373019
223	0x3ca6c2b2	0.02035651
224	0xbdc02309	-0.093816824
225	0xbe7066fe	-0.23476788
226	0x3e1ea126	0.15491161
227	0xbd70b53a	-0.05876658
228	0xbeb29ffa	-0.34887677
229	0xbe995293	-0.29945812
230	0x3d66baa1	0.056330327
231	0xbe03eefc	-0.12884134
232	0xbe21a45f	-0.15785359
233	0xbe32756a	-0.17427602
234	0xbee4e203	-0.44703683
235	0x3ebe1305	0.37123886
236	0x3e4ed248	0.20197403
237	0x3c834566	0.016024303
238	0x3e78c7a9	0.24294914
239	0x3e7e5285	0.24836166
240	0xbeca80c6	-0.3955137
241	0xbe857713	-0.2606741
242	0x3d81e030	0.063415885
243	0x3dff0e85	0.12453941
244	0x3e008f4a	0.1255466
245	0xbe91efa2	-0.28503138
246	0x3e4dc797	0.20095669
247	0x3e760a4d	0.24027367
248	0xbe69417a	-0.22778884
249	0x3e1de3fa	0.15418997
250	0x3f7d8ced	0.9904316
251	0x3d2305fa	0.03980062
252	0x3d163a57	0.03667673
253	0xbd2c4780	-0.042060375
254	0x3e0adcb1	0.1356075
255	0x3e09a40a	0.13441482

out.linear.layers.2.bias f4 [32]
0	0xbd8dd361	-0.06925083
1	0x3e355a2c	0.17710179
2	0x3e1e7147	0.154729
3	0x3ee14840	0.44000435
4	0x3daca21f	0.0842936
5	0x3e2e4763	0.1701942
6	0x3cd323b6	0.025773864
7	0xbe587523	-0.21138434
8	0xbe50c7d4	-0.20388728
9	0x3de432c0	0.11142492
10	0xbd021a9c	-0.031763658
11	0x3eff982e	0.4992079
12	0xbd172818	-0.03690347
13	0x3e608c99	0.21928634
14	0xbdc3c8de	-0.09559797
15	0xbe06a518	-0.13148916
16	0x3da989c7	0.08278232
17	0x3da96f2d	0.08273158
18	0x3e41953e	0.18904588
19	0xbe4ab9a3	-0.19797377
20	0x3d9482b4	0.07251492
21	0x3db1a13f	0.086733334
22	0x3e8ac745	0.27105156
23	0xbe9da65c	-0.30790985
24	0xbda5f86f	-0.081040256
25	0x3dc5843b	0.096443616
26	0x3e2ee2b4	0.17078668
27	0xbec65a0e	-0.3874058
28	0x3ecc828b	0.39943346
29	0xbde724e4	-0.11286333
30	0x3ec952cc	0.39320982
31	0xbca6394d	-0.020290995

out.linear.layers.4.weight f4 [32, 32]
0	0xbd62180c	-0.055198714
1	0x3e0d494e	0.13797495
2	0x3d2bab84	0.041911617
3	0xbf015f17	-0.5053572
4	0xbe2acdf5	-0.16680129
5	0xbe730017	-0.23730503
6	0xbe514dd0	-0.2043984
7	0xbe1efb55	-0.15525563
8	0xbf0c6ee9	-0.54856735
9	0xbe0d50f9	-0.1380042
10	0xbe3df671	-0.18551041
11	0x3e8d98c9	0.27655628
12	0xbe24341e	-0.16035506
13	0xbdbd8fbc	-0.09255931
14	0x3c974817	0.018466992
15	0x3df6adc6	0.120448634
16	0xbd879b5d	-0.0662143
17	0x3e9f0ce5	0.31064525
18	0xbe0dac60	-0.13835287
19	0xbcf2519e	-0.029579934
20	0x3e8580e8	0.2607491
21	0x3e59919d	0.21246953
22	0x3d4f95c8	0.050679952
23	0xbc23b622	-0.009992154
24	0x3e5a34f5	0.21309264
25	0x3bea18b7	0.0071440595
26	0xbe9775f3	-0.29582176
27	0xbe8af39f	-0.27138993
28	0xbdebb241	-0.115086086
29	0x3d86ceaf	0.065823905
30	0x3f8276ab	1.0192465
31	0xbee601c9	-0.44923237
32	0x3daefad0	0.085439324
33	0xbc186cb4	-0.009303261
34	0x3ccd7bbf	0.02508342
35	0xbdd5f7c3	-0.104476474
36	0xbd034240	-0.032045603
37	0xbede41ca	-0.43409568
38	0xbd1a033a	-0.037600733
39	0xbe57c40f	-0.21070884
40	0x3d9a44d4	0.07532659
41	0xbeed1f77	-0.46313068
42	0xbc3fdc29	-0.011710205
43	0x3dfc6ec6	0.12325816
44	0x3d635c94	0.05550821
45	0x3e2ed0b9	0.17071809
46	0x3e0f6184	0.14002043
47	0xbbd0e0aa	-0.0063744383
48	0xbd20852f	-0.039189514
49	0xbd50866a	-0.050909437
50	0xbdf6b5fd	-0.1204643
51	0xbe62cacf	-0.22147678
52	0xbd235dc2	-0.039884336
53	0x3bc936bb	0.0061405576
54	0x3d4f323d	0.05058502
55	0xbdc3b024	-0.095550805
56	0xbd378537	-0.044804778
57	0xbf0040c1	-0.50098807
58	0xbf0f891b	-0.5606858
59	0xbe3f6102	-0.1868935
60	0x3d1cf862	0.038322814
61	0xbd934aa2	-0.071919695
62	0xbed196c3	-0.40935335
63	0xbd975d4d	-0.073908426
64	0x3ce2c8f5	0.027683714
65	0xbe6f2bb6	-0.23356518
66	0xbe941414	-0.28921568
67	0x3e13cbd9	0.1443323
68	0x3d71cb3a	0.059031703
69	0x3d2b8e34	0.041883662
70	0xbebc055e	-0.36722845
71	0xbe5feb6b	-0.21867149
72	0xbdfbc2f7	-0.12293046
73	0xbe0813a3	-0.13288741
74	0xbe8f71df	-0.28016564
75	0x3d7e8714	0.06214054
76	0xbe953c44	-0.29147542
77	0xbd16e4ce	-0.0368393
78	0xbde71d02	-0.1128483
79	0xbe44b8ba	-0.19211093
80	0xbb91eb97	-0.0044531333
81	0x3dfa5e01	0.12224961
82	0x3d26ec7f	0.040752884
83	0xbe8bceaf	-0.27306125
84	0xbd821168	-0.06350976
85	0xbdd8edd6	-0.105922386
86	0xbe88f186	-0.26746768
87	0xbe52399b	-0.20529787
88	0x3e25940d	0.16169758
89	0xbd356026	-0.044281147
90	0x3e7ed169	0.24884571
91	0xbc54f98f	-0.0129989525
92	0xbed7cd01	-0.42148593
93	0xbed93e4e	-0.42430347
94	0x3d91f46e	0.071266994
95	0xbe1a9aaa	-0.15098062
96	0xbe87246e	-0.2639498
97	0xbcdd5c2d	-0.027021492
98	0xbe4dc531	-0.20094754
99	0x3e01a9e6	0.12662467
100	0x3dad968f	0.084759824
101	0xbe4377e2	-0.190887
102	0xbe8cf365	-0.27529445
103	0xbc6a6c94	-0.014308114
104	0xbe23b4c2	-0.15986922
105	0xbec6e6d0	-0.3884797
106	0xbea59e65	-0.32347408
107	0x3e393f09	0.18090452
108	0xbdbb04a9	-0.09131748
109	0xbe23f9ba	-0.16013232
110	0x3dd8a381	0.10578061
111	0xbe785ad3	-0.24253397
112	0x3bd9fa05	0.006652119
113	0x3daca779	0.084303804
114	0xbf48d947	-0.7845654
115	0xbec43a40	-0.3832569
116	0xbc1afff9	-0.009460443
117	0x3dd1d716	0.102461025
118	0x3da37c98	0.07982749
119	0x3e4a6e2d	0.19768591
120	0xbda86172	-0.08221711
121	0x3e52fa9f	0.20603417
122	0xbc9f9447	-0.019479884
123	0xbdc0f52b	-0.09421762
124	0xbe768d31	-0.24077298
125	0x3e623eb0	0.22094226
126	0x3e1b6092	0.15173557
127	0xbe1fcb75	-0.15604956
128	0x3d67de6a	0.056608595
129	0x3dc9638c	0.0983344
130	0x3e5f137a	0.21784773
131	0xbd6b7a01	-0.0574894
132	0xbd1941a0	-0.0374161
133	0xbddefd27	-0.10888129
134	0xbee2d635	-0.44304052
135	0x3e42e013	0.1903079
136	0xbd8a8099	-0.06762809
137	0xbdb2b752	-0.08726372
138	0xbf3426bc	-0.70371604
139	0xbe846fe0	-0.25866604
140	0xbc99bcd7	-0.018766804
141	0xbd217096	-0.03941401
142	0xbea9ee22	-0.33189493
143	0xbd78eb68	-0.060771376
144	0xbb3d57fc	-0.0028891554
145	0xbdcda2f5	-0.10040847
146	0xbec5b5b6	-0.38615197
147	0x3e110e61	0.14165641
148	0xbebe9ed9	-0.37230566
149	0x3e8d4408	0.27590966
150	0x3d8f6ea0	0.07003522
151	0xbead3b2d	-0.3383421
152	0xbdbf8b8c	-0.09352788
153	0xbcc24f87	-0.023719562
154	0x3d7f6a62	0.062357314
155	0x3d669852	0.056297608
156	0x3c4b3686	0.012403136
157	0xba90d761	-0.0011050516
158	0x3dec07b9	0.115249105
159	0x3d9d50df	0.076814406
160	0xbe2611cd	-0.16217728
161	0x3cf1a768	0.02949877
162	0x3c262f62	0.010143133
163	0xbe1bb01e	-0.15203902
164	0xbd8b5612	-0.06803526
165	0xbe2f2b2c	-0.17106313
166	0xbe30d062	-0.17266992
167	0x3ea8e09a	0.32983857
168	0x3d807be3	0.062736295
169	0xbd79e11e	-0.061005704
170	0xbb6fa0cb	-0.0036564346
171	0xbf26c8ef	-0.6515035
172	0xbb24580d	-0.0025076896
173	0xbe0442e8	-0.12916148
174	0xbc98462e	-0.018588152
175	0x3de873bd	0.113502
176	0xbd319008	-0.04335025
177	0x3e0f819a	0.14014283
178	0x3e29456a	0.16530386
179	0xbe3a86a7	-0.18215428
180	0xbf20131c	-0.6252916
181	0x3e15c4c4	0.14625841
182	0x3e11339a	0.1417984
183	0xbeb7b43c	-0.35879695
184	0xbe952250	-0.2912774
185	0x3e7915c8	0.24324715
186	0xbc3fd394	-0.011708159
187	0xbf3b8153	-0.7324421
188	0xbef4d9f2	-0.4782253
189	0x3e22f4b5	0.15913661
190	0x3d13fe0a	0.036130942
191	0x3e5e6394	0.21717674
192	0xbe1e604b	-0.1546642
193	0x3e67a4f8	0.22621524
194	0xbdf13dda	-0.117793754
195	0x3d30764f	0.043081578
196	0xbebaaf73	-0.36461982
197	0xbe209ca0	-0.15684748
198	0xbf0fbc38	-0.56146574
199	0xbe18a34b	-0.14906041
200	0xbe461fa6	-0.1934801
201	0x3e913be1	0.28365996
202	0xbd4693df	-0.048480865
203	0xbf350253	-0.7070667
204	0xbea7ff4c	-0.32811964
205	0xbeceb58a	-0.40372878
206	0x3bd06756	0.006359975
207	0x3dc31a42	0.09526493
208	0x3dd17dc5	0.10229067
209	0x3d7d6e89	0.061872993
210	0xbdfca288	-0.12335688
211	0x3ea5bcb3	0.3237053
212	0x3e818ba5	0.25301853
213	0x3b39c6b3	0.0028347194
214	0xbda76e14	-0.081752926
215	0x3d549603	0.051900875
216	0xbe977e3e	-0.29588503
217	0xbedbc3f7	-0.42922947
218	0x3dda3174	0.10653964
219	0x3e556424	0.20838982
220	0x3e3d6464	0.18495327
221	0xbd9279f7	-0.07152169
222	0xbe3b20c0	-0.18274212
223	0x3d91ed7f	0.07125377
224	0xbe82ba04	-0.25532544
225	0xbe0f2003	-0.13977055
226	0xbed67a68	-0.41890264
227	0x3db510e3	0.088411115
228	0x3e86d35a	0.26333123
229	0x3e4621b0	0.19348788
230	0xbd718ac6	-0.058970235
231	0xbc5bbd64	-0.013411853
232	0x3d9f877f	0.07789516
233	0xbe07e175	-0.13269599
234	0xbeba91da	-0.364394
235	0x3e7e16bc	0.2481336
236	0x3df6c9cc	0.120502084
237	0x3dce1139	0.10061879
238	0xbe60aee4	-0.21941715
239	0xbe5a84d6	-0.21339735
240	0x3e24aa75	0.16080649
241	0x3e87e5c8	0.26542497
242	0xbe5e1c40	-0.21690464
243	0xbddb2ac6	-0.10701518
244	0xbe9b677b	-0.30352387
245	0xbd889c26	-0.06670408
246	0xbeacb51c	-0.33731925
247	0x3d64a861	0.05582464
248	0x3e132183	0.14368252
249	0xbe223162	-0.1583915
250	0xbe750afa	-0.23929968
251	0xbdef70af	-0.116914146
252	0xbebe91b9	-0.37220553
253	0xbd8c4bb6	-0.06850378
254	0x3e26d7fc	0.16293329
255	0xbe34e0d4	-0.1766389

out.linear.layers.4.bias f4 [32]
0	0xbda14b4f	-0.07875692
1	0x3e9ca1b5	0.30592123
2	0x3dd3d875	0.1034402
3	0x3de85ff9	0.1134643
4	0x3da90bdc	0.08254215
5	0xbd8efd45	-0.06981901
6	0x3e065fe0	0.13122511
7	0x3e77aa3e	0.24186036
8	0x3d3acd9b	0.045606237
9	0x3e90f649	0.283129
10	0x3eeecc4f	0.4664025
11	0xbe1a4ddb	-0.15068762
12	0x3e764450	0.24049497
13	0xbdba9c48	-0.091118395
14	0x3eb4ab4c	0.3528694
15	0x3e38ce47	0.18047439
16	0x3ccf2b4b	0.025289198
17	0x3e17b198	0.1481384
18	0x3dcc9399	0.099890895
19	0xbe4711be	-0.19440362
20	0xb916ce30	-0.00014381926
21	0xbe311002	-0.17291263
22	0xbf018227	-0.5058922
23	0x3e9b8a0f	0.30378768
24	0x3e1f0ccd	0.15532227
25	0x3e8a5189	0.2701533
26	0x3eb31175	0.34974256
27	0x3eb6d8c2	0.35712248
28	0x3e548579	0.20754041
29	0x3ebf2d5a	0.37339288
30	0x3d5adf76	0.053435765
31	0x3e03829c	0.12842792

out.linear.layers.6.weight f4 [9, 32]
0	0xbcd08f88	-0.025459066
1	0xbe5bbaf7	-0.2145804
2	0xbe1ca57b	-0.15297501
3	0x3dcae6ac	0.099072784
4	0xbe3660fa	-0.17810431
5	0x3e804620	0.250535
6	0x3e322334	0.17396241
7	0xbea7e604	-0.32792675
8	0x3f401bf9	0.7504268
9	0x3d1100cc	0.03540115
10	0xbd958773	-0.073012255
11	0xbdf41ff2	-0.119201556
12	0x3e8f3929	0.27973297
13	0x3e61c297	0.22046886
14	0x3d9ad88b	0.075608335
15	0x3d4b4411	0.04962546
16	0xbe6f50f0	-0.23370719
17	0x3ddcc5e2	0.10779931
18	0xbe61204c	-0.21984977
19	0xbdb1d136	-0.08682482
20	0x3e697ece	0.22802278
21	0xbdddbf66	-0.10827522
22	0xbdfe6c65	-0.12423018
23	0x3e258c8f	0.161669
24	0xbcf1128c	-0.02942779
25	0x3c661f8f	0.01404561
26	0x3dbb03d3	0.09131589
27	0x3d047c16	0.0323449
28	0xbe905042	-0.28186232
29	0x3da57693	0.08079257
30	0x3e750876	0.23929009
31	0x3de0eacf	0.10982286
32	0xbd958b75	-0.0730199
33	0xbead46f4	-0.33843195
34	0xbe342a9b	-0.17594378
35	0xbe37c8fb	-0.17947762
36	0xbeb0a71c	-0.34502494
37	0xbc3b5168	-0.011432983
38	0x3d6636b5	0.056204516
39	0xbe0c6420	-0.1371007
40	0x3dc7c110	0.097536206
41	0x3e4511c0	0.19245052
42	0xbc873ede	-0.01650947
43	0xbe0d459a	-0.13796082
44	0x3e8b4641	0.27202037
45	0xbe6c9873	-0.2310503
46	0x3ea74a4c	0.32673872
47	0xbdd9250d	-0.1060277
48	0x3e889fd4	0.2668444
49	0x3e1cd55d	0.15315767
50	0xbe14d7e2	-0.14535478
51	0x3da43943	0.08018734
52	0x3e261c38	0.16221702
53	0x3bac1847	0.0052519175
54	0xbceab4b6	-0.028650623
55	0x3e182d42	0.14861014
56	0xbd9beded	-0.0761374
57	0x3e806a6d	0.25081196
58	0x3df1132a	0.117712334
59	0xbc80f80e	-0.015743282
60	0xbe848f51	-0.25890592
61	0x3d95816e	0.073000774
62	0x3e81b7be	0.25335497
63	0x3e97bc5d	0.29635897
64	0xbda5b961	-0.08091999
65	0xbe85efc8	-0.261595
66	0x3c5e99ae	0.013586445
67	0xbe3f8d61	-0.18706276
68	0xbd7d091b	-0.06177626
69	0xbd5b4591	-0.05353314
70	0x3e8da774	0.2766682
71	0xbe44f376	-0.19233498
72	0x3c5272d6	0.012844762
73	0xbe7c3fdf	-0.2463374
74	0xbcbb7bc0	-0.022886157
75	0xbe45eff6	-0.19329819
76	0x3debdad4	0.115163475
77	0xbc4b5ef4	-0.012412775
78	0xbe68c9b7	-0.22733198
79	0xbe619ab7	-0.22031675
80	0xbe30b9a2	-0.17258313
81	0xbd8a1668	-0.06742555
82	0x3e1a582f	0.15072702
83	0x3d3b9607	0.045797374
84	0xbd56420f	-0.052309092
85	0x3e87c4fb	0.26517472
86	0xbd7bf69e	-0.06151449
87	0x3e7baf67	0.2457863
88	0x3ca77a3d	0.02044403
89	0x3dc43376	0.09580128
90	0x3d9a54a2	0.07535674
91	0x3d103204	0.03520395
92	0xbe1c40fb	-0.15259163
93	0x3c4f887a	0.012666816
94	0x3d9fe1e4	0.07806757
95	0x3cba3e9f	0.022734938
96	0xbdf58d7c	-0.11989877
97	0xbe365fdf	-0.1781001
98	0xbddda6d5	-0.10822836
99	0xbe43a631	-0.19106366
100	0xbe0361bb	-0.1283025
101	0x3d8499c4	0.06474641
102	0x3e15b0e5	0.14618261
103	0xbe078d49	-0.1323749
104	0xbe35d714	-0.17757827
105	0xbe2bcd36	-0.167775
106	0xbd416e93	-0.047224592
107	0xbe384d7c	-0.17998308
108	0xbe13f599	-0.14449157
109	0x3dc22bd9	0.094810195
110	0xbd04ebcb	-0.032451432
111	0xbe3d79ad	-0.18503447
112	0xbd8dc2b4	-0.06921902
113	0xbb8dd2b5	-0.0043280968
114	0x3d864b3c	0.065573186
115	0xbd802a22	-0.06258036
116	0xbcf00df5	-0.02930353
117	0x3dcb2e4e	0.09920941
118	0xbc261a8f	-0.010138168
119	0x3e17883f	0.14798068
120	0xbe09673c	-0.13418287
121	0x3dfa939e	0.12235187
122	0x3e79d430	0.2439735
123	0xbdb3d482	-0.08780767
124	0xbe5649d3	-0.20926599
125	0x3e778d7e	0.24175069
126	0x3e5c096c	0.21487969
127	0x3e08fa1c	0.13376659
128	0x3de4e788	0.111769736
129	0x3e4c0389	0.19923224
130	0xbdd3b1b3	-0.10336628
131	0xbdd78f48	-0.105253756
132	0x3e0194f9	0.12654485
133	0xbbb58e57	-0.00554065
134	0x38939412	7.0370865e-05
135	0xbe82260c	-0.25419652
136	0xbc4b06c9	-0.012391754
137	0x3d0031d5	0.031297524
138	0xbe9d8e34	-0.30772555
139	0x3d892668	0.066967785
140	0x3d137f68	0.036010176
141	0xbda4c755	-0.08045832
142	0xbd837146	-0.064180896
143	0xbdd55f04	-0.104185134
144	0xbd199957	-0.037499752
145	0x3e44063e	0.19143006
146	0xbe3a080e	-0.18167135
147	0x3e3eaabb	0.18619816
148	0x3e6786a2	0.22609952
149	0xbdae7d15	-0.08519951
150	0x3f08df30	0.5346556
151	0x3df82a67	0.121174626
152	0xbce24a2f	-0.027623264
153	0xbddfa22b	-0.10919603
154	0xbce99a8a	-0.028516073
155	0xbefddfe7	-0.49584886
156	0x3d242bb5	0.040080745
157	0xbf62b39a	-0.885553
158	0xbda203b6	-0.07910864
159	0xbe86abd8	-0.2630298
160	0xbd175ccc	-0.036953732
161	0xbdde82fd	-0.10864828
162	0xbdfc331c	-0.12314436
163	0xbdc05040	-0.093903065
164	0x3dbd1bb1	0.09233797
165	0x3d321aaa	0.04348246
166	0xbe20bf73	-0.15698032
167	0xbe967320	-0.29384708
168	0xbc460402	-0.0120859165
169	0xbec42cb6	-0.38315362
170	0x3c8e8bf0	0.017400712
171	0xbdc6a8af	-0.097001426
172	0x3c0fb44e	0.008771015
173	0x3da6294b	0.08113345
174	0xbe673166	-0.22577438
175	0xbe028a06	-0.12747964
176	0x3e34c663	0.17653804
177	0xbe4354cb	-0.19075315
178	0x3e1e1513	0.15437727
179	0x3d845785	0.064620055
180	0xbd59537c	-0.053058133
181	0xbccf439c	-0.025300793
182	0xbbc69a76	-0.0060608936
183	0x3e628fb5	0.22125132
184	0xbe0c5ae9	-0.13706554
185	0x3e49f048	0.19720566
186	0x3b0957c0	0.0020956844
187	0x3c293cbe	0.0103294235
188	0xbd4079d1	-0.046991173
189	0x3c1ab0fa	0.009441609
190	0x3e11a5cd	0.14223404
191	0x3e605677	0.21907984
192	0xbb496c75	-0.0030734811
193	0x3c89ff87	0.016845478
194	0xbea04eaa	-0.31310016
195	0xbe3c648a	-0.18397728
196	0xbd33da18	-0.043909162
197	0x3eb504de	0.35355276
198	0x3dbb59dc	0.09147999
199	0xbe7b6cf1	-0.24553277
200	0x3cc760b8	0.024338111
201	0xbe1c0f69	-0.15240254
202	0x3dcc778f	0.099837415
203	0xbd42ca48	-0.04755619
204	0x3c5ace7b	0.013354893
205	0xbd78d158	-0.06074652
206	0xbecc9653	-0.39958438
207	0xbd9161d8	-0.0709874
208	0xbe49997b	-0.19687454
209	0xbe647eab	-0.22313945
210	0x3c68bf15	0.014205714
211	0xbcc0dd2b	-0.023542961
212	0x3d9899b8	0.074511945
213	0xbb7c6b3a	-0.003851606
214	0xbca54c09	-0.020177858
215	0x3e583a94	0.21116096
216	0xbe61e97a	-0.2206172
217	0x3e213234	0.15741807
218	0xbc582918	-0.013193391
219	0x3c25c757	0.010118327
220	0xbd41db3a	-0.04732821
221	0x3a54996a	0.00081100187
222	0x3d725918	0.059166998
223	0x3e8e6d31	0.2781768
224	0x3e42abc5	0.19010837
225	0xbe27fbd6	-0.16404662
226	0xbc983cba	-0.018583644
227	0xbd81bb6a	-0.063345745
228	0xbe3bdf5a	-0.1834692
229	0xbdfcc95a	-0.12343092
230	0x3ce51a91	0.02796677
231	0xbdcdb8e1	-0.100450285
232	0xbddfaef0	-0.109220386
233	0xbe2610bb	-0.1621732
234	0xbe4172bb	-0.18891422
235	0x3eaf2736	0.34209603
236	0x3e7f5336	0.24934086
237	0x3d733a67	0.05938187
238	0xbe3801b7	-0.17969404
239	0xbe78cd58	-0.24297082
240	0xbe6f6427	-0.23378049
241	0xbd48b03c	-0.048996195
242	0x3db18435	0.086677946
243	0x3e608931	0.21927334
244	0x3d859850	0.06523192
245	0xbe9bac03	-0.30404672
246	0xbd3e2820	-0.046424985
247	0x3e141475	0.14460929
248	0xbdfeb415	-0.12436692
249	0x3dd65350	0.10465109
250	0x3da6797c	0.0812864
251	0xbbfd268b	-0.007725542
252	0xbdc58c05	-0.09645847
253	0x3cc2d307	0.023782266
254	0x3c097e08	0.008391865
255	0x3cce8126	0.025208067

out.linear.layers.6.bias f4 [9]
0	0xbc9e308a	-0.019310255
1	0xbdf45b9b	-0.11931535
2	0x3d150091	0.036377493
3	0x3d285b07	0.041102435
4	0x3b8aeeed	0.004239908
5	0x3e37061c	0.17873424
6	0x3e0ea077	0.139284
7	0x3d9a0e5f	0.07522272
8	0x3da859f1	0.0822028

backbone.node_encoder.0.gat_layer.fc.0.weight f4 [4, 4]
0	0x3e0a55d4	0.13509303
1	0x3f18f9b8	0.5975604
2	0x3d3b87e3	0.04578389
3	0x3f221004	0.6330569
4	0xbeb39cc7	-0.3508055
5	0xbeb6972a	-0.35662204
6	0xbf0cd1e1	-0.5500775
7	0x3ec49e0b	0.38401827
8	0xbf39462d	-0.72372705
9	0xbdb51d02	-0.088434234
10	0x3e8bd657	0.27311966
11	0xbba04fc4	-0.0048923213
12	0xbd965e3c	-0.073421925
13	0xbec7820d	-0.38966408
14	0xbe95fe1b	-0.2929543
15	0xbf0119ee	-0.5043019

backbone.node_encoder.0.gat_layer.fc.0.bias f4 [4]
0	0x3e1bab53	0.15202074
1	0x3ebbf7d6	0.3671252
2	0x3eb8b97c	0.36079013
3	0xbcb556d6	-0.022136133

backbone.node_encoder.0.gat_layer.att_layer.weight f4 [1, 8]
0	0xbe3980d7	-0.18115555
1	0x3f879640	1.0592728
2	0x3f741bce	0.95354927
3	0x3ea9bf38	0.331537
4	0xbd1e6636	-0.038671695
5	0x3ed21277	0.41029713
6	0xbfcbcc4c	-1.5921721
7	0xbf0310eb	-0.5119769

backbone.node_encoder.0.fc.0.weight f4 [32, 32]
0	0xbd93e061	-0.07220531
1	0xbc41edce	-0.011836482
2	0x3d96629e	0.073430285
3	0x3d32cd15	0.043652613
4	0x3dfdcf6a	0.12393077
5	0xbd03f28f	-0.032213744
6	0xbe0bce84	-0.13652998
7	0xbd07d905	-0.03316595
8	0xbe59b8f2	-0.21261957
9	0x3d4517c9	0.048118386
10	0x3dc3fcf5	0.09569732
11	0xbd9ccc3d	-0.07656143
12	0xbe7e943b	-0.24861233
13	0x3c0440a9	0.008072057
14	0x3e404fb4	0.18780404
15	0x3c1699ac	0.009191912
16	0x3d583fb5	0.05279513
17	0xbd8f52c1	-0.06998206
18	0x3d9a0f1b	0.075224124
19	0xbb3950f6	-0.0028277016
20	0xbc8e7158	-0.01738803
21	0x3d579361	0.052630786
22	0x3eb52c8e	0.35385555
23	0x3d324f7a	0.043532826
24	0x3e40e7e2	0.18838456
25	0x3d40d871	0.047081415
26	0x3dc3e93e	0.09565972
27	0x3deb7f65	0.11498908
28	0x3e306c7d	0.17228885
29	0xbe22841f	-0.15870713
30	0x3e5fa1c3	0.21839051
31	0x3e08657b	0.13319962
32	0xbe3085aa	-0.17238489
33	0x3ca5fd10	0.020262271
34	0xbe55b002	-0.20867923
35	0xbb9ded6d	-0.004819563
36	0xbe59dfd7	-0.21276794
37	0xbe025a68	-0.127298
38	0xbde66d85	-0.11251358
39	0x3dcb7331	0.099340804
40	0x3e442823	0.19155936
41	0x3e7be1c7	0.24597846
42	0x3dbc834a	0.09204729
43	0xbd5805e4	-0.052739993
44	0x3e1fb6ed	0.15597124
45	0x3dfff5ba	0.124980405
46	0xbe799dda	-0.24376622
47	0x3e859d15	0.26096407
48	0xbd9efd55	-0.07763163
49	0xbe5042cc	-0.20337981
50	0x3e1a7cd3	0.15086679
51	0x3e97d6aa	0.29655963
52	0xbd81c588	-0.06336504
53	0xbd5be3b0	-0.053683937
54	0xbc00ea4c	-0.007868361
55	0xbe3a6360	-0.18201971
56	0xbd4d9cda	-0.050198413
57	0xbde72621	-0.112865694
58	0xbd63fb01	-0.055659298
59	0x3d1fd10c	0.039017722
60	0xbe0f98cf	-0.14023136
61	0xbbf8bb48	-0.007590685
62	0xbe169129	-0.14703812
63	0x3d28b708	0.041190177
64	0xbd7e0db1	-0.062024776
65	0x3bbec7b1	0.005822145
66	0xbe7de63a	-0.24794856
67	0x3dffefb6	0.12496893
68	0xbdd35a5b	-0.10319968
69	0x3cd14265	0.025544355
70	0xbcb4d478	-0.02207397
71	0xbdfcf8e4	-0.123521596
72	0x3ec16d3f	0.3777866
73	0xbd5a21b9	-0.053254817
74	0xbe0a7f64	-0.13525158
75	0xbd7349d7	-0.05939659
76	0xbc6842f5	-0.01417612
77	0x3e17999f	0.14804696
78	0xbe0d25a6	-0.13783893
79	0xbd18af8a	-0.037276782
80	0xbd97c4ff	-0.07410621
81	0x3e50a532	0.20375517
82	0x3c9c94d0	0.019113928
83	0x3e402e58	0.18767679
84	0x3e23f7fe	0.1601257
85	0x3e583a37	0.21115957
86	0xbe75300d	-0.23944111
87	0xbdb867f3	-0.09004202
88	0xbd94aa92	-0.07259096
89	0xbc8e0565	-0.017336557
90	0xbd1034f6	-0.035206757
91	0x3d465ff0	0.048431337
92	0x3b8abe63	0.0042341216
93	0xbd892129	-0.06695778
94	0xbdf63645	-0.1202207
95	0x3e1a8939	0.15091409
96	0xbec10fc0	-0.3770733
97	0xbe2a5c91	-0.16636874
98	0x3dba2871	0.09089745
99	0x3e9f7415	0.3114325
100	0xbc463d98	-0.012099646
101	0xbda4bd88	-0.08043963
102	0x3dcb0320	0.099127054
103	0xbf0c3d4c	-0.5478103
104	0xbdf04675	-0.117321886
105	0x3da98222	0.08276774
106	0xbcc98d70	-0.024603575
107	0x3bc727d0	0.006077744
108	0x3e852615	0.26005617
109	0x3f20f4ce	0.6287354
110	0xbd0efdbc	-0.03490995
111	0x3e9e7a6e	0.3095278
112	0xbe826ae2	-0.2547217
113	0x3e7adffd	0.24499507
114	0x3c3b02a2	0.011414202
115	0xbddec035	-0.10876504
116	0xbe852173	-0.26002082
117	0x3ec13558	0.3773601
118	0x3c87fc04	0.016599663
119	0x3df827af	0.12116944
120	0x3c1d0f7c	0.009586211
121	0x3cd5a857	0.026081247
122	0xbd5a8754	-0.053351715
123	0x3db13267	0.086521916
124	0x3e578656	0.21047339
125	0x3e942a6a	0.2893861
126	0xbe628f02	-0.22124866
127	0xbc67a93d	-0.014139471
128	0x3d725ba9	0.059169445
129	0xbb51cef1	-0.0032014216
130	0xbd4b5790	-0.049644053
131	0x3e27390d	0.16330357
132	0xbcdc4b09	-0.026891248
133	0x3e34cc54	0.1765607
134	0x3c192425	0.009346996
135	0xbe4af2b3	-0.19819145
136	0x3e8111f4	0.2520901
137	0x3d8e876b	0.06959423
138	0xbea2c0a8	-0.3178761
139	0xbcce447d	-0.025179142
140	0x3e34f6c7	0.17672263
141	0x3c8d84db	0.017275264
142	0xbd9c66bf	-0.07636785
143	0x3d651a04	0.055933014
144	0xbdc704d0	-0.09717715
145	0xbdeed45e	-0.116615996
146	0x3e527eaa	0.20556131
147	0x3e68a514	0.22719222
148	0x3d32da06	0.043664955
149	0x3c535799	0.012899303
150	0x3d5d6750	0.054053605
151	0xbe26f3a7	-0.16303883
152	0xbcc71a31	-0.024304481
153	0x3d818c9d	0.06325648
154	0x3aa6095d	0.0012667585
155	0xbc656dd3	-0.014003235
156	0x3e1a0d32	0.15044096
157	0x3e812626	0.25224417
158	0xbe041c68	-0.12901461
159	0x3dc1dffa	0.09466548
160	0xbe07f80f	-0.1327822
161	0xbe826c5c	-0.25473297
162	0x3d8770ca	0.0661331
163	0x3e3a93ec	0.1822049
164	0xbe292e20	-0.16521502
165	0x3cfee260	0.031113803
166	0xbd9d4f95	-0.07681195
167	0xbe036c21	-0.12834217
168	0xbe6d1b5c	-0.23154968
169	0x3e09dff4	0.13464338
170	0xbe8cb19a	-0.2747925
171	0x3d22bbc8	0.039729863
172	0xbcd7374a	-0.026271481
173	0x3b73c30d	0.0037195117
174	0xbdeb9945	-0.11503843
175	0x3dc00ea7	0.09377795
176	0x3ce3fb04	0.027829655
177	0x3e78e070	0.24304366
178	0xbcb0e804	-0.021595009
179	0xbd55a0a5	-0.052155156
180	0x3d354fae	0.04426544
181	0xbd288849	-0.041145597
182	0xbe2e06a9	-0.16994728
183	0xbd4a188b	-0.049339812
184	0xbdf44162	-0.11926533
185	0xbcbc6cc5	-0.023001084
186	0x3de7ceb9	0.11318726
187	0x3e02ebda	0.12785283
188	0x3daa21ee	0.08307253
189	0x3e147e11	0.14501216
190	0x3d2ed19f	0.04268038
191	0xbde224ac	-0.11042151
192	0xbdb1b4d8	-0.08677071
193	0x3d890021	0.06689478
194	0xbca0faa7	-0.01965077
195	0x3d265ad9	0.040613983
196	0xbe540996	-0.20706782
197	0xbdbbc8e4	-0.09169176
198	0xbde0ad98	-0.109706104
199	0xbcd932be	-0.026513454
200	0x3e84fa68	0.25972295
201	0x3d6a6fd1	0.057235543
202	0xbdf6431a	-0.12024517
203	0xbe472936	-0.19449314
204	0x3ddf0257	0.10889118
205	0x3e08823a	0.13330927
206	0xbe056526	-0.13026866
207	0x3e5b8d22	0.21440557
208	0xbe1a1ad6	-0.150493
209	0xbc961793	-0.018321788
210	0x3ba2ef1c	0.0049723517
211	0x3d7e9a2c	0.06215875
212	0xbdc5db43	-0.096609615
213	0xbe11d2cb	-0.14240567
214	0xbc4a5e47	-0.012351579
215	0xbe6019b3	-0.21884803
216	0xbd1ab460	-0.037769675
217	0x3d949d16	0.07256524
218	0x3daa1828	0.08305389
219	0xbd789a33	-0.06069393
220	0x3e3f86bb	0.1870374
221	0x3dc2f5c7	0.095195346
222	0x3d867ca2	0.065667406
223	0xbe0021e2	-0.12512925
224	0xbe87f4e8	-0.26554036
225	0x3dca8ff1	0.09890736
226	0xbe3c9a81	-0.18418314
227	0xbe252c25	-0.16130121
228	0x3e224ceb	0.15849654
229	0xbc5cc472	-0.013474571
230	0x3e092307	0.13392268
231	0xbe2ad786	-0.16683778
232	0xbe19b021	-0.15008594
233	0x3cb58774	0.022159316
234	0xbcf13579	-0.029444443
235	0xbcaca5a3	-0.021075075
236	0xbe0eb74a	-0.13937107
237	0x3c3f50cf	0.011676981
238	0x3e4b0ff5	0.19830306
239	0x3dea7b7a	0.114493325
240	0x3dee60c0	0.11639547
241	0xbd88fb55	-0.06688563
242	0x3e291e57	0.1651548
243	0xbd29e832	-0.041481204
244	0x3bd4fe22	0.0065000216
245	0x3d9050d3	0.07046666
246	0x3dd163b4	0.10224095
247	0xbdb38b18	-0.087667644
248	0xbe3e41fa	-0.18579856
249	0x3e8f46ae	0.27983612
250	0x3bcf0b3f	0.0063184793
251	0xbe6a8515	-0.2290233
252	0x3d19560a	0.03743557
253	0x3e2a7264	0.16645199
254	0x3cf7a0e3	0.030228084
255	0xbda431e5	-0.08017329

backbone.node_encoder.0.fc.0.bias f4 [32]
0	0xbe5f43a3	-0.21803145
1	0x3ca22a05	0.019795427
2	0xbe8ccdad	-0.27500668
3	0xbe59262f	-0.21205972
4	0xbe669fbd	-0.22521873
5	0xbe6835ef	-0.22676824
6	0xbd940769	-0.07227976
7	0xbd1502fa	-0.03637979
8	0xbe1a1e09	-0.1505052
9	0xbe1defa0	-0.15423441
10	0x3c57d354	0.013172943
11	0xbea2c01b	-0.3178719
12	0xbe953ed4	-0.29149497
13	0x3d0aef56	0.033919655
14	0xbe601e5b	-0.2188658
15	0x3d69b725	0.057059426
16	0x3cb658a5	0.022259066
17	0x3e1aa489	0.15101828
18	0x3ce50e0d	0.027960801
19	0x3e3721da	0.17884007
20	0xbd844fe8	-0.064605534
21	0x3e7426cb	0.23842923
22	0x3e3805b4	0.17970926
23	0xbe4923af	-0.19642518
24	0x3dc0506c	0.09390339
25	0x3e66f069	0.22552647
26	0xbd21f955	-0.039544422
27	0xbde2a3a9	-0.11066372
28	0xbeae48f9	-0.3404005
29	0x3e9379ac	0.28803766
30	0xbec161c1	-0.37769893
31	0xbb066387	-0.00205061

backbone.node_encoder.0.gate.0.weight f4 [1, 32]
0	0xbe2c60d2	-0.16833809
1	0xbd7dc3fd	-0.061954487
2	0xbe0429c1	-0.12906553
3	0xbdb88416	-0.090095684
4	0xbdf2945a	-0.11844702
5	0x3d6f7123	0.058457505
6	0x3e0546a7	0.13015233
7	0x3d6e7e11	0.058225695
8	0x3e4d9a82	0.20078471
9	0x3e7edfd8	0.24890077
10	0xbc949f01	-0.018142225
11	0xbcbd3310	-0.023095638
12	0x3e2413df	0.16023205
13	0x3e01c27f	0.1267185
14	0xbe170cea	-0.1475102
15	0x3cfd6dcb	0.030936142
16	0x3e1337b4	0.14376718
17	0xbe3bf902	-0.18356708
18	0xbd86bd06	-0.06579022
19	0x3ddf824a	0.109135225
20	0x3da3f4e3	0.08005693
21	0xbe053de8	-0.13011897
22	0xbd50b469	-0.050953303
23	0xbe2f9993	-0.17148428
24	0xbe54eaf8	-0.20792758
25	0xbcd0de2c	-0.025496565
26	0xbdeedbdb	-0.11663028
27	0xbdad200a	-0.084533766
28	0x3cabbd1e	0.020964202
29	0x3e9119f6	0.2834012
30	0xbe5997b5	-0.21249278
31	0xbe5328c2	-0.20621017

backbone.node_encoder.1.gat_layer.fc.0.weight f4 [4, 4]
0	0xbf171dc3	-0.5902979
1	0xbf29b1e5	-0.6628707
2	0x3ea40ed5	0.32042566
3	0xbe9295c1	-0.28629878
4	0x3ebb5a48	0.36592317
5	0xbf8cd329	-1.1001941
6	0x3f36ab7c	0.71355414
7	0x3d1d4c80	0.038403034
8	0xbf57816c	-0.8418186
9	0x3f4d4026	0.8017601
10	0x3e2f205e	0.17102191
11	0x3f17a370	0.5923376
12	0xbf330b94	-0.6993954
13	0x3e81cd45	0.2535192
14	0xbf190fed	-0.59789926
15	0x3cfa48fb	0.030552378

backbone.node_encoder.1.gat_layer.fc.0.bias f4 [4]
0	0x3ec2149c	0.3790635
1	0x3ef2f159	0.4744976
2	0xbe122f80	-0.14275932
3	0x3e3e816e	0.18604061

backbone.node_encoder.1.gat_layer.att_layer.weight f4 [1, 8]
0	0x3f35399e	0.7079104
1	0x3e386aa9	0.18009438
2	0xbf6ae1e1	-0.91750914
3	0x3ec94037	0.39306805
4	0xbf92d7e5	-1.1472136
5	0x3f523409	0.8211065
6	0x3ee33704	0.4437791
7	0xbde7073e	-0.11280678

backbone.node_encoder.1.fc.0.weight f4 [32, 32]
0	0xbe70c319	-0.23511924
1	0xbdb7cd3a	-0.08974691
2	0x3e52fd42	0.20604423
3	0x3e52c581	0.20583154
4	0x3df5ac74	0.119957834
5	0xbdfe8c8c	-0.12429151
6	0x3e0ed13b	0.13947003
7	0x3dbbfdf3	0.09179296
8	0xbe6591e6	-0.22418937
9	0x3d149128	0.036271244
10	0xbe30fd57	-0.17284141
11	0xbdc84c80	-0.09780216
12	0x3df18f5b	0.11794921
13	0x3d5259e5	0.05135526
14	0x3e02fa3d	0.12790771
15	0x3e2f8f54	0.17144519
16	0xbdc6bd7d	-0.09704111
17	0x3ce1fd07	0.027586473
18	0x3dd91971	0.10600556
19	0x3d6ca1aa	0.057771362
20	0x3e3aa8e3	0.18228488
21	0xbe5a2859	-0.21304454
22	0x3da440ab	0.08020147
23	0x3e0bc90b	0.1365091
24	0xbd2ae6a4	-0.041723862
25	0xbdb7da76	-0.08977215
26	0x3ec528f8	0.3850782
27	0x3dd88ef3	0.105741404
28	0x3e98b5fd	0.29826346
29	0xbd877fff	-0.0661621
30	0xbd8f7a7d	-0.07005785
31	0xbdc55ad9	-0.096364684
32	0xbd7893ab	-0.060687702
33	0x3df7710b	0.12082108
34	0x3e06cfd6	0.1316522
35	0xbe596c0b	-0.21232621
36	0xbd8075b6	-0.062724516
37	0x3d9f5e56	0.07781665
38	0x3e0cba1e	0.13742873
39	0x3dcce3ae	0.10004364
40	0x3e0a9043	0.13531594
41	0x3e58c3b8	0.21168411
42	0xbe9fce1e	-0.31211942
43	0xbec18328	-0.37795377
44	0xbd78f15d	-0.060777057
45	0xbda5a30b	-0.080877386
46	0x3e2a2d8f	0.16618942
47	0xbe241324	-0.16022927
48	0xbe89ec1e	-0.26937956
49	0x3e7ca424	0.2467199
50	0xbe408e1a	-0.18804207
51	0xbebb2539	-0.36551836
52	0x3e8a63f1	0.27029374
53	0x3e8f03a7	0.27932474
54	0x3e1b6494	0.15175086
55	0x3c3cf17d	0.011532185
56	0xbda950a8	-0.08267337
57	0x3dbf7b37	0.09349673
58	0xbeb251ea	-0.3482812
59	0x3e925fb5	0.28588644
60	0x3c3fc6ea	0.01170514
61	0xbd3ee374	-0.046603635
62	0x3e15a1d7	0.14612518
63	0xbe244fc5	-0.16046055
64	0xbeb70c70	-0.35751677
65	0x3f0c192c	0.5472591
66	0x3cd75ab9	0.026288377
67	0xbdabb3b4	-0.08383885
68	0xbe873a99	-0.26411894
69	0x3b0cdaec	0.0021492792
70	0xbd494f16	-0.049147688
71	0x3c8dd59b	0.01731377
72	0xbdac6f61	-0.08419681
73	0x3dca5e81	0.098813064
74	0xbd87829f	-0.06616711
75	0xbddb10de	-0.106965765
76	0x3eb64b71	0.35604432
77	0x3e044a73	0.12919025
78	0xbe3fab98	-0.18717802
79	0x3cb4cf3e	0.022071477
80	0xbd5b21c4	-0.053499
81	0x3e8bb66f	0.27287623
82	0x3da656b3	0.08122005
83	0xbe183aee	-0.1486623
84	0xbd8d86fb	-0.06910511
85	0x3e6e27b9	0.2325734
86	0x3db31c01	0.08745576
87	0xbd7ed563	-0.06221522
88	0x3e82b417	0.25528023
89	0x3e69dc5d	0.22837968
90	0xbd593248	-0.053026468
91	0xbdeae70d	-0.11469851
92	0xbcbec30d	-0.023286367
93	0x3ca46e71	0.020072194
94	0xbe4cdfb9	-0.20007218
95	0xbd0d5be5	-0.034511466
96	0x3ceb9bef	0.028760878
97	0xbd41d6af	-0.04732388
98	0x3de41503	0.1113682
99	0xbe2159aa	-0.1575686
100	0x3def9027	0.11697417
101	0x3e3ac499	0.18239059
102	0x3e099811	0.13436915
103	0x3c2881ef	0.010284885
104	0xbdfcf580	-0.12351513
105	0xbe56a735	-0.20962222
106	0xbeb7f70e	-0.35930675
107	0x3ea47c5c	0.3212613
108	0x3d63a0b0	0.055573165
109	0xbdc2fbed	-0.09520707
110	0x3bf6f066	0.007535982
111	0x3e20e9cb	0.15714185
112	0x3e04b83a	0.12960902
113	0x3c20e9bb	0.009821351
114	0x3e1511ab	0.14557521
115	0xbc0b3014	-0.008495349
116	0x3d832422	0.06403376
117	0xbe8f196f	-0.27949092
118	0x3de2e542	0.11078884
119	0x3d930fc6	0.07180743
120	0x3c625f13	0.013816613
121	0xbc43d4db	-0.011952604
122	0x3f02785d	0.5096491
123	0x3e435c03	0.19078068
124	0xbe8ec74e	-0.27886432
125	0xbd1b1ce6	-0.037869357
126	0x3e1ff3d8	0.15620363
127	0x3e03114c	0.12799567
128	0xbd5bf87c	-0.05370377
129	0xbbec7ea2	-0.0072172442
130	0xbe6a1fd4	-0.22863704
131	0xbc1e4f49	-0.009662458
132	0xbe4b41af	-0.19849275
133	0xbe752cda	-0.23942891
134	0x3e9783dd	0.2959279
135	0x3dd21d00	0.102594376
136	0x3f12348b	0.57111424
137	0xbe5bb32f	-0.21455072
138	0xbddcb0d9	-0.107759185
139	0x3d9b9d98	0.07598418
140	0x3e8c61d9	0.27418402
141	0xbe1879fe	-0.14890286
142	0xbe49bca1	-0.19700862
143	0x3d8e67d7	0.069534
144	0x3e1d21bb	0.15344898
145	0x3e066b8c	0.13126963
146	0x3dbf91ed	0.09354005
147	0xbe267db5	-0.16258891
148	0xbe38fd9c	-0.18065494
149	0xbcfaa20a	-0.030594844
150	0xbe1ca274	-0.15296346
151	0x3d28a25d	0.041170467
152	0x3e34bb24	0.17649513
153	0xbe812d7f	-0.25230023
154	0x3cbc5e6a	0.022994239
155	0x3e1152e0	0.1419177
156	0x3f288ab8	0.6583667
157	0xbcaf0d45	-0.021368632
158	0x3c3f24e5	0.011666511
159	0xbd798f69	-0.060927782
160	0xbea63fe1	-0.3247061
161	0x3e12d997	0.14340816
162	0x3e5f820b	0.21826951
163	0x3d85d91c	0.06535551
164	0x3e640d66	0.22270736
165	0xbe171bb8	-0.14756668
166	0xbe67aadd	-0.22623773
167	0xbe80ec10	-0.251801
168	0x3dcbe016	0.099548504
169	0x3ef4fb4d	0.47847977
170	0x3e7c0c7d	0.24614139
171	0xbc5b2fd3	-0.013378101
172	0xbdf7eadb	-0.12105342
173	0x3d93d3c9	0.07218129
174	0x3ec15e7f	0.37767407
175	0x3d0d7136	0.034531794
176	0x3d9bcdbe	0.076076016
177	0xbd68c8aa	-0.056831993
178	0xbe0b3cb8	-0.13597381
179	0x3e053d25	0.13011606
180	0xbe1d14ea	-0.1534001
181	0x3e0cd6ef	0.13753866
182	0xbea41526	-0.32047385
183	0xbd89ab45	-0.0672212
184	0x3e54a44a	0.20765796
185	0x3d2a57f8	0.0415878
186	0x3df7a082	0.12091161
187	0xbd8f9f48	-0.07012802
188	0xbe6fc6e9	-0.23415722
189	0xbea37cb3	-0.31931075
190	0x3e74e403	0.23915105
191	0xbd42c449	-0.047550473
192	0xbd5696b2	-0.052389808
193	0x3e811e61	0.2521849
194	0x3ce71e7f	0.028212784
195	0xbd9f3d1a	-0.07775326
196	0xbe72154d	-0.23640938
197	0x3ea1f5a2	0.31632715
198	0x3d8d9336	0.06912844
199	0x3e064ae9	0.13114513
200	0x3dc186ec	0.094495624
201	0xbe1a7b2a	-0.15086046
202	0x3de1cd73	0.110255145
203	0x3e1db1e8	0.15399897
204	0x3ecc1cba	0.39865667
205	0xbe776fe1	-0.24163772
206	0xbcc8e998	-0.024525449
207	0x3e4e3014	0.20135528
208	0x3cee1e01	0.029067041
209	0x3d5c5e59	0.053800914
210	0x3e25d62b	0.1619498
211	0xbcd36431	-0.02580461
212	0x3e19a47f	0.15004157
213	0xbe211e31	-0.15734173
214	0x3d846853	0.06465211
215	0x3e5ff7eb	0.21871917
216	0x3deebfbb	0.116576634
217	0x3d37153f	0.044697996
218	0xbe52f95a	-0.20602933
219	0xbcb0e637	-0.02159415
220	0xbc9a2ead	-0.018821085
221	0xbcf6d34b	-0.03013005
222	0xbe1a4d0c	-0.15068454
223	0x3e8aabd8	0.2708423
224	0xbe59756c	-0.21236199
225	0x3d67c525	0.056584496
226	0x3e977068	0.29577947
227	0xbdef87a1	-0.11695791
228	0xbcd0fa80	-0.025510073
229	0xbe960895	-0.29303423
230	0x3edaa94c	0.42707288
231	0xbd8d847f	-0.06910037
232	0x3e3f3bf1	0.1867521
233	0xbd960e6f	-0.07326972
234	0xbd2a1fd2	-0.041534252
235	0x3e3917c0	0.18075466
236	0x3e6b73e7	0.22993432
237	0xbe9c5b84	-0.3053857
238	0xbd678393	-0.056521963
239	0x3e0e34f5	0.13887389
240	0xbd0b697d	-0.03403615
241	0xbe0aba32	-0.1354759
242	0x3cc712f9	0.024301039
243	0xbe266cb0	-0.16252398
244	0xbd3dec2c	-0.04636781
245	0x3e524697	0.2053474
246	0xbe2cf4bf	-0.16890238
247	0x3ede9b93	0.4347807
248	0xbe1c82a3	-0.15284209
249	0xbe96abe6	-0.29428023
250	0x3e04a15f	0.12952183
251	0x3eccbc15	0.39987245
252	0xbe639940	-0.22226429
253	0xbb2bca70	-0.0026213191
254	0xbd513921	-0.051079873
255	0x3db78d44	0.08962491

backbone.node_encoder.1.fc.0.bias f4 [32]
0	0xbc5752f7	-0.013142339
1	0x3df79f41	0.12090922
2	0x3c1ae2ca	0.009453485
3	0xbe1558c8	-0.14584649
4	0xbe2b3539	-0.16719522
5	0x3d2412c7	0.04005697
6	0x3d3e4144	0.04644896
7	0xbddcd659	-0.10783071
8	0x3e40edf4	0.18840772
9	0x3d867c21	0.065666445
10	0xbe90f7a9	-0.2831395
11	0xbddb81eb	-0.10718139
12	0x3e8277e8	0.25482106
13	0x3e346c78	0.17619503
14	0x3dc41734	0.09574738
15	0x3d01429d	0.031557668
16	0xbeb79e8b	-0.35863146
17	0x3d7b8d77	0.06141421
18	0xbc402efd	-0.011729953
19	0x3be7ffac	0.007080039
20	0xbd94a28c	-0.07257566
21	0xbd0c95c2	-0.034322508
22	0x3b318c5c	0.0027091717
23	0x3c7ccc50	0.015429571
24	0xbd4a4a12	-0.049387045
25	0xbe4f0df2	-0.20220163
26	0xbd0a40f3	-0.033753347
27	0xbe37e434	-0.17958146
28	0xbe0ecf34	-0.13946229
29	0x3cc7b3b3	0.02437768
30	0xbe1dfbb5	-0.1542805
31	0xbe877a92	-0.264607

backbone.node_encoder.1.gate.0.weight f4 [1, 32]
0	0x3d971674	0.073773295
1	0x3de011a3	0.10940864
2	0xbda8d858	-0.08244389
3	0xbe4d497b	-0.20047562
4	0xbe7ce3a7	-0.24696217
5	0xbd0e8a83	-0.034800064
6	0xbd3c9a85	-0.0460458
7	0xbdd8b437	-0.10581248
8	0x3c6367d9	0.01387974
9	0x3cd43a05	0.025906572
10	0xbd1ec510	-0.038762152
11	0x3c8b2fb9	0.01699053
12	0x3db11713	0.08646979
13	0x3d669153	0.056290936
14	0xbe18b232	-0.14911726
15	0xbe50f2a8	-0.20405066
16	0xbdccf3f8	-0.10007471
17	0xbca23220	-0.019799292
18	0x3e64d895	0.22348244
19	0x3d327114	0.04356487
20	0x3e02e129	0.12781204
21	0xbd829f6c	-0.063780636
22	0xbddaa4d8	-0.10675973
23	0x3e2ebf5e	0.17065188
24	0x3e08b5f2	0.13350657
25	0x3e1a45dc	0.15065712
26	0xbe2b7401	-0.1674347
27	0x3e4ee9a3	0.20206313
28	0x3daa2b3e	0.08309029
29	0x3e09a941	0.13443471
30	0xbd0a0699	-0.0336977
31	0xbd4c9bee	-0.049953394
