model_parameter/traffic/GraphWave_best.pth (torch, 244562 bytes, 63 tensors)

embedding.traffic_embedding.0.weight f4 [32, 1]
0.25303078 0.79671717 0.22082014 0.7536811 -0.053634264 0.3325544 -0.4682453 -0.0047391043
0.92566323 0.5589178 -1.0855706 0.9406602 0.725243 0.44245592 0.7909775 0.98305357
-0.36463004 -1.4044429 -0.33481312 0.6729766 0.95619017 -0.34388736 -0.77485085 0.041563455
0.08286477 -0.58107674 -0.32672712 0.38265735 -0.23232168 0.3670305 0.5630263 0.5561742
00000000: 408d 813e a8f5 4b3f ad1e 623e 3ff1 403f
00000010: 9aaf 5bbd 9244 aa3e d9bd efbe 7d4a 9bbb
00000020: 44f8 6c3f 3d15 0f3f faf3 8abf 1bcf 703f
00000030: 86a9 393f 9589 e23e 807d 4a3f 66a9 7b3f
00000040: cab0 babe c9c4 b3bf a06c abbe 3248 2c3f
00000050: e1c8 743f 0112 b0be a05c 46bf 713e 2a3d
00000060: 01b5 a93d 72c1 14bf c748 a7be aaeb c33e
00000070: bce5 6dbe 6ceb bb3e 7e22 103f 6f61 0e3f

embedding.traffic_embedding.0.bias f4 [32]
0.13547675 1.1454476 0.32786044 1.1212513 0.016898694 0.26913306 -0.77519 0.01848524
-0.18022338 0.8907014 0.23712729 -0.92602944 0.23755023 0.6523274 -0.72879446 -0.3198789
0.2525477 0.8738149 -0.33048272 0.79427433 -0.88386863 0.32647803 0.55616564 0.050933465
-0.026570005 -0.54055643 -0.11286462 -0.3476023 0.17127907 0.5029496 0.8786549 -0.48539948
00000000: 6bba 0a3e 079e 923f 53dd a73e 2a85 8f3f
00000010: 216f 8a3c cfcb 893e da72 46bf 5c6e 973c
00000020: 7a8c 38be 0205 643f 7fd1 723e 4410 6dbf
00000030: 5e40 733e eefe 263f 4692 3abf 2bc7 a3be
00000040: ef4d 813e 55b2 5f3f 0835 a9be 9055 4b3f
00000050: 3745 62bf 2128 a73e df60 0e3f 9c9f 503d
00000060: 57a9 d9bc e861 0abf 9125 e7bd eef8 b1be
00000070: c863 2f3e 4ec1 003f 87ef 603f 4886 f8be

out.linear.layers.0.weight f4 [32, 32]
0.14550059 0.25945988 -0.083460346 -0.20491911 -0.06507966 -0.0822364 -0.11843857 0.086947165
0.12139639 -0.28286287 0.049709473 0.24445795 0.017625544 0.15335362 -0.026906751 0.35659006
0.116783544 0.2226344 0.08585207 -0.029295754 0.0352848 0.05721053 0.0036542441 0.23474105
0.13490264 0.07258336 0.37695074 0.0250347 0.017549917 -0.18663108 0.14837523 -0.054099817
-0.09333807 -0.29315266 -0.12559022 -0.2625614 0.043173485 -0.018280562 0.2294515 0.09973293
0.35598174 -0.0039382502 -0.28813282 0.035752323 -0.18910562 -0.33344597 0.03169662 -0.008260523
-0.37081727 -0.25041413 0.21239835 -0.26939654 0.13366471 0.019651584 0.2738088 -0.12052229
0.15174884 0.31224874 -0.07931319 -0.1288835 0.1403845 0.19176419 -0.13261713 -0.06270327
0.024747953 -0.046862464 0.109548464 -0.3982392 0.123176515 0.083808444 -0.08072376 0.05369974
0.056226034 0.06489764 0.010556682 -0.519827 0.09081069 -0.022004018 -0.03133208 -0.23445567
0.14728877 -0.43783283 0.4232508 -0.11037498 -0.1951569 -0.043659437 0.102505 -0.051006004
0.074122556 -0.02900228 -0.34775102 -0.27175906 0.1919163 0.033254758 -0.050941985 0.3718355
-0.113878846 -0.16646788 -0.17278679 -0.310397 0.10634507 0.090737544 -0.16466525 -0.043185655
0.07717272 0.2109091 -0.11595766 -0.20172614 -0.17972802 0.06035495 0.07008394 -0.08562385
-0.08149112 -0.057309162 -0.12928675 0.016352149 0.35927382 0.28801388 0.037411906 0.3221707
0.33449498 -0.19779883 0.00269138 0.21866003 0.36148039 -0.07876204 -0.10200522 -0.15693814
-0.13856527 0.28066337 0.23067948 0.04262683 0.11418744 -0.08124901 0.005595831 -0.012486856
-0.12178652 0.5422121 0.19835556 0.0061042355 0.2972997 0.0913594 -0.024310537 0.11392875
-0.10522254 -0.4681566 -0.11426738 -0.13330142 -0.24651965 -0.03799607 0.32541308 -0.01331131
0.07415466 0.050141048 -0.4006978 -0.02160859 0.1921122 -0.087473325 0.13935429 0.0385942
-0.07955947 0.06363008 -0.06945319 0.38827404 -0.051568136 0.16647069 0.059376206 0.002987682
-0.0077332025 0.1429496 -0.025112342 0.03825729 -0.04463756 -0.057637803 -0.3571434 -0.058581907
-0.07132671 -0.32272628 -0.38124403 0.16999252 0.23997064 0.028735528 0.22500183 -0.06917407
0.14661954 0.66921514 -0.41152313 -0.09658292 0.14070809 0.30041444 -0.2164194 -0.18119659
0.08861237 -0.116667666 0.102787636 -0.0316 -0.0851333 -0.123575635 -0.0070940442 0.11729567
0.018725004 -0.12051475 -0.10933054 0.056481786 0.11897806 -0.19356935 -0.17653026 0.05481025
-0.1028158 -0.20143475 0.30125913 0.17144102 -0.26378047 -0.08827665 0.057106785 -0.25811103
0.11883244 -0.04701979 0.014335916 -0.20310362 -0.17067425 0.052809477 -0.15923582 -0.03539547
-0.52247983 -0.06131693 0.39532405 0.08789043 -0.51673347 0.047648508 -0.033216592 -0.016156092
0.5966162 -0.30967903 0.44487995 -0.29032826 0.3371108 0.10525714 -0.06162068 -0.14975838
-0.24909443 -0.05899711 -0.46656048 -0.13187405 -0.08094201 -0.35651016 -0.123560354 -0.3730234
0.10453197 0.31569752 0.031680815 0.03300475 0.09523847 -0.03274339 0.14348093 -0.0491447
00000000: 1bfe 143e edd7 843e 42ed aabd 51d6 51be
00000010: 7c48 85bd 8f6b a8bd ec8f f2bd 5b11 b23d
00000020: ac9e f83d 67d3 90be 299c 4b3d 2f53 7a3e
00000030: 7263 903c bb08 1d3e 8c6b dcbc f992 b63e
00000040: 362c ef3d 46fa 633e 36d3 af3d a6fd efbc
00000050: cb86 103d 9755 6a3d 0b7c 6f3b f55f 703e
00000060: eb23 0a3e 96a6 943d b0ff c03e 9215 cd3c
00000070: d8c4 8f3c 381c 3fbe adef 173e c597 5dbd
00000080: 0828 bfbd 1b18 96be b99a 00be 736e 86be
00000090: aed6 303d 1ec1 95bc 56f5 6a3e c740 cc3d
000000a0: 3d43 b63e 700c 81bb 2586 93be 0771 123d
000000b0: e7a4 41be 6eb9 aabe 51d4 013d 2557 07bc
000000c0: c3db bdbe 4836 80be f47e 593e 58ee 89be
000000d0: 67df 083e 5cfc a03c ab30 8c3e 64d4 f6bd
000000e0: 0c64 1b3e 11df 9f3e f46e a2bd 09fa 03be
000000f0: f4c0 0f3e d55d 443e c9cc 07be 926a 80bd
00000100: 38bc ca3c dbf2 3fbd f25a e03d 02e6 cbbe
00000110: f843 fc3d c3a3 ab3d 8052 a5bd 42f4 5b3d
00000120: 454d 663d 0ee9 843d eff5 2c3c 6213 05bf
00000130: f4fa b93d c541 b4bc 1156 00bd 2615 70be
00000140: ded2 163e a02b e0be 54b4 d83e 470c e2bd
00000150: 36d7 47be 3dd4 32bd 24ee d13d aceb 50bd
00000160: 91cd 973d 3196 edbc 6c0c b2be 0124 8bbe
00000170: b585 443e 2436 083d 8ba8 50bd 3961 be3e
00000180: 5039 e9bd 8e76 2abe 05ef 30be 5bec 9ebe
00000190: 72cb d93d 9bd4 b93d 029e 28be 71e3 30bd
000001a0: bb0c 9e3d 8ef8 573e 367b edbd 4c91 4ebe
000001b0: 9f0a 38be c136 773d 2b88 8f3d 8f5b afbd
000001c0: d1e4 a6bd 03bd 6abd bf63 04be f1f4 853c
000001d0: bdf2 b73e 8e76 933e 3a3d 193d 8ff3 a43e
000001e0: ed42 ab3e c78b 4abe dd61 303b 6ae8 5f3e
000001f0: f513 b93e fe4d a1bd 1de8 d0bd 64b4 20be
00000200: 0ee4 0dbe 1cb3 8f3e 3e37 6c3e 7999 2e3d
00000210: 1bdb e93d e265 a6bd 3c5d b73b ac95 4cbc
00000220: 366b f9bd 6ace 0a3f b81d 4b3e 0a06 c83b
00000230: ab37 983e a31a bb3d e426 c7bc 7a53 e93d
00000240: ea7e d7bd 39b2 efbe 0405 eabd 2b80 08be
00000250: a66f 7cbe c4a1 1bbd 8b9c a63e ae17 5abc
00000260: 66de 973d b360 4d3d 4328 cdbe 7f04 b1bc
00000270: 10b9 443e 3725 b3bd e4b2 0e3e f414 1e3d
00000280: 13f0 a2bd 7d50 823d 793d 8ebd dbcb c63e
00000290: 1c39 53bd 4b77 2a3e 7734 733d fccc 433b
000002a0: ce66 fdbb 6161 123e 66b8 cdbc adb3 1c3d
000002b0: e0d5 36bd 9e15 6cbd 80db b6be 95f3 6fbd
000002c0: bd13 92bd 613c a5be 6b32 c3be 8512 2e3e
000002d0: ddba 753e c566 eb3c e166 663e 23ab 8dbd
000002e0: 6f23 163e af51 2b3f 29b3 d2be 44cd c5bd
000002f0: c815 103e eccf 993e 0c9d 5dbe 998b 39be
00000300: 677a b53d 75ef eebd 5382 d23d 006f 01bd
00000310: 5e5a aebd 3915 fdbd 2875 e8bb b638 f03d
00000320: 2e65 993c 70d0 f6bd b1e8 dfbd 7259 673d
00000330: c5aa f33d 0b37 46be 59c4 34be b680 603d
00000340: 1791 d2bd e944 4ebe a33e 9a3e 3c8e 2f3e
00000350: 3c0e 87be 63ca b4bd cee8 693d 2127 84be
00000360: 6c5e f33d d397 40bd 31e1 6a3c 65fa 4fbe
00000370: 3bc5 2ebe c04e 583d b70e 23be d7fa 10bd
00000380: 3dc1 05bf 7627 7bbd ea67 ca3e e6ff b33d
00000390: a548 04bf 152b 433d 1f0e 08bd c859 84bc
000003a0: d7bb 183f 408e 9ebe 4ec7 e33e e8a5 94be
000003b0: c999 ac3e 0e91 d73d f765 7cbd 435a 19be
000003c0: 9c12 7fbe f4a6 71bd 04e1 eebe fe09 07be
000003d0: edc4 a5bd 8088 b6be 360d fdbd ecfc bebe
000003e0: dc14 d63d 1ba3 a13e bec3 013d fd2f 073d
000003f0: 630c c33d ef1d 06bd aaec 123e f44b 49bd

out.linear.layers.0.bias f4 [32]
0.24410433 -0.2792891 0.16858396 -0.20888981 -0.12054105 0.119411126 -0.046035804 -0.2706504
-0.036025874 -0.062890284 0.17242761 0.045263834 -0.13316582 -0.1312551 -0.24193232 -0.3628197
-0.10741836 -0.32960364 -0.13097413 -0.066266574 -0.12653689 0.36869332 -0.009773027 -0.24812444
0.21164362 -0.14963427 -0.2097692 0.33144626 -0.027946858 -0.18655571 0.07419973 -0.053824667
00000000: 7cf6 793e fbfe 8ebe 46a1 2c3e 36e7 55be
00000010: 3ade f6bd d28d f43d 0a90 3cbd b092 8abe
00000020: de8f 13bd 9fcc 80bd dd90 303e 9266 393d
00000030: 9f5c 08be bd67 06be 1bbd 77be 81c3 b9be
00000040: 28fe dbbd cfc1 a8be 151e 06be c5b6 87bd
00000050: e392 01be 5fc5 bc3e 0c1f 20bc 5514 7ebe
00000060: 1bb9 583e ba39 19be bdcd 56be 53b3 a93e
00000070: cff0 e4bc 7608 3fbe 07f6 973d 4177 5cbd

out.linear.layers.2.weight f4 [32, 32]
0.23461168 -0.7833546 -0.84868604 -0.17679366 -0.66371965 -0.46173564 -0.6479703 0.03858954
-0.018046014 0.17048822 -0.43085185 -1.0355692 0.26587272 -0.662569 -0.83176243 -0.6667079
0.11598709 0.09106834 0.3330076 -0.5303511 -0.13570666 0.008100552 0.30892938 -0.11919842
-0.013050979 -1.8681362 0.09900683 0.063096836 0.0008477298 -0.02947432 0.0026541392 -0.1627295
0.20263845 -0.546924 -0.5303306 -0.114955455 0.14217341 0.012609826 -0.12483947 0.044352196
0.22831136 0.22736177 -0.31899983 -0.0042420975 0.25174707 -0.092609785 -0.25464365 0.23475826
0.09359622 0.24937797 -0.1634774 -0.29033375 0.20232846 0.022831516 0.17620127 -0.15381688
-0.13764147 -0.20431453 -0.009464962 -0.16019507 0.09383907 -0.053948827 -0.37791345 -0.08444479
-0.11939178 0.1569454 -0.04215804 -0.6234005 -0.41768962 -0.19019395 0.027069917 0.03604803
0.30619138 -0.05584022 0.16174836 0.19240655 0.003566374 0.14360274 0.2863736 0.067826904
0.17465736 -0.34074968 0.06922188 -0.0018993287 0.16034625 -0.028615559 0.013072925 -0.027259659
-0.7073675 -0.11697284 -0.10592453 -0.22482063 -0.05192074 0.47711688 -0.27727845 -0.1354353
-0.60615474 -0.38127697 -0.2588495 0.053562775 1.0562415 -1.0707626 -0.1046778 -0.90270185
0.21682048 0.179686 -0.07193007 -0.8671642 -0.9387451 -0.13661137 0.104067 0.8102068
-0.52498764 -0.13279448 0.37332255 0.3145261 -1.1403084 -0.24633765 -0.6171078 0.8653579
0.21924788 0.2537358 0.12818815 0.049019754 -0.018251773 -1.1585985 0.047083165 0.031305812
-0.11393773 0.18804927 0.09814223 0.04084264 -0.046812236 -0.20877577 0.13306153 -0.028422548
-0.13961473 -0.38071898 -0.078967735 0.027621994 0.08873134 -0.13292247 -0.0007798081 0.017755078
0.18784654 -0.47142825 0.34719452 0.2617318 0.20765826 0.09966687 -0.21652107 -0.08724712
0.19406387 0.17437977 0.11051341 0.41838932 -0.0046455297 -0.7918633 -0.56865036 0.014519352
0.27774578 -0.38971302 -0.26530558 -0.32173735 -0.18655285 -0.28295088 0.050695248 -0.18144357
-0.04616228 -0.18671927 -0.2025961 -0.28449875 -0.040170755 -0.08416594 -0.26854733 0.34682262
-0.1830333 0.102414094 -0.40934592 -0.41617388 0.3374507 0.12740456 -0.31344888 -0.16556726
0.09761889 -0.08580955 -0.3182164 -0.17293604 -0.06562059 -0.19299631 0.4050966 0.32914805
-0.048576426 0.22844665 0.25950798 -0.15698233 -0.050392136 -0.19959003 -0.15203495 -0.013965473
-0.2813253 -0.35214236 0.03681283 -0.11337157 0.02573235 0.12567632 -0.09661087 -0.32135588
-0.036457516 -0.1578318 0.28647086 -0.3396105 -0.16147009 0.13795573 -0.18742779 0.0020685478
0.1927409 0.035345275 0.13240285 -0.19423147 -0.11112314 -0.25851563 0.37702495 0.051269833
-0.03096954 0.21895343 0.0115727065 -0.3511364 -0.29120252 0.014861989 -0.050036747 -0.22852576
0.020597888 0.16942972 0.18527257 -0.037539598 -0.12676057 0.1437954 0.29710674 0.28958532
-0.016038923 -0.54795605 0.08462936 0.31959876 0.32435936 -0.3824465 -0.18123537 0.11523594
-0.29063162 0.14969422 -0.36876395 0.38202313 -0.65874094 0.28028324 -0.0642944 -0.033398863
00000000: 0b3e 703e ed89 48bf 7d43 59bf 6609 35be
00000010: 88e9 29bf 9d68 ecbe 62e1 25bf 1110 1e3d
00000020: 3cd5 93bc 7794 2e3e 9d98 dcbe 888d 84bf
00000030: 7820 883e 1f9e 29bf 62ee 54bf 5ead 2abf
00000040: a48a ed3d 0a82 ba3d f97f aa3e 17c5 07bf
00000050: b0f6 0abe 2db8 043c fe2b 9e3e 4d1e f4bd
00000060: c6d3 55bc 161f efbf 18c4 ca3d ea38 813d
00000070: 2f3a 5e3a 2174 f1bc 11f1 2d3b 90a2 26be
00000080: 7480 4f3e 3603 0cbf bfc3 07bf c46d ebbd
00000090: e895 113e 7299 4e3c d6ab ffbd a6aa 353d
000000a0: 74ca 693e 86d1 683e f253 a3be 4b01 8bbb
000000b0: fee4 803e 33aa bdbd a760 82be 7864 703e
000000c0: 60af bf3d f05c 7f3e 9f66 27be a0a6 94be
000000d0: 312f 4f3e 2909 bb3c 1b6e 343e 2c82 1dbe
000000e0: e3f1 0cbe d437 51be ee12 1bbc 2d0a 24be
000000f0: b32e c03d 72f9 5cbd df7d c1be 64f1 acbd
00000100: ad83 f4bd 4cb6 203e e9ad 2cbd 2d97 1fbf
00000110: 6adb d5be 34c2 42be bbc1 dd3c 19a7 133d
00000120: 1ec5 9c3e b7b8 64bd 5da1 253e 3906 453e
00000130: d4b9 693b 990c 133e 8f9f 923e d5e8 8a3d
00000140: 61d9 323e be76 aebe 33c4 8d3d e5f2 f8ba
00000150: cf31 243e 2d6b eabc d22f 563c a64f dfbc
00000160: 0916 35bf 758f efbd f6ee d8bd 6137 66be
00000170: d8aa 54bd aa48 f43e 71f7 8dbe 8daf 0abe
00000180: f52c 1bbf bc36 c3be ec87 84be a464 5b3d
00000190: ec32 873f c00e 89bf 5061 d6bd 7817 67bf
000001a0: 3006 5e3e 9bff 373e 1350 93bd 79fe 5dbf
000001b0: 9951 70bf dae3 0bbe 1421 d53d b669 4f3f
000001c0: 9765 06bf 47fb 07be 2224 bf3e 9109 a13e
000001d0: a0f5 91bf f03f 7cbe c7fa 1dbf 1888 5d3f
000001e0: 8482 603e a9e9 813e c143 033e f0c8 483d
000001f0: be84 95bc f54c 94bf 47da 403d 863a 003d
00000200: 2f58 e9bd fd8f 403e cbfe c83d 9d4a 273d
00000210: 30be 3fbd 51c9 55be 4841 083e 67d6 e8bc
00000220: 2af7 0ebe 99ed c2be d6b9 a1bd 8547 e23c
00000230: c7b8 b53d d41c 08be 096c 4cba 1973 913c
00000240: d85a 403e 0b5f f1be 7bc3 b13e b601 863e
00000250: 5ea4 543e 251e cc3d b3b7 5dbe 9eae b2bd
00000260: aeb8 463e 9c90 323e db54 e23d 2037 d63e
00000270: 8739 98bb 8eb7 4abf 1293 11bf 93e2 6d3c
00000280: b234 8e3e 7788 c7be 22d6 87be c2ba a4be
00000290: b607 3fbe f0de 90be d2a5 4f3d 58cc 39be
000002a0: a914 3dbd 5633 3fbe 5a75 4fbe d2a9 91be
000002b0: 178a 24bd 315f acbd 097f 89be bc92 b13e
000002c0: 156d 3bbe 7bbe d13d ca95 d1be be14 d5be
000002d0: 57c6 ac3e 5776 023e 5f7c a0be 778a 29be
000002e0: 6aec c73d ebbc afbd 43ed a2be 2516 31be
000002f0: 1664 86bd d3a0 45be d268 cf3e 1886 a83e
00000300: 13f8 46bd ebed 693e 3bde 843e fabf 20be
00000310: fc67 4ebd 5461 4cbe 0daf 1bbe 70cf 64bc
00000320: df09 90be 014c b4be 0dc9 163d 5b2f e8bd
00000330: a6cc d23c 4bb1 003e ebdb c5bd c288 a4be
00000340: 7a54 15bd a99e 21be 4fac 923e 6de1 adbe
00000350: 6a58 25be 4444 0d3e 12ed 3fbe 7990 073b
00000360: df5d 453e 35c6 103d 9d94 073e 9de4 46be
00000370: 8794 e3bd 295c 84be 6a09 c13e 5100 523d
00000380: d5b3 fdbc 5435 603e 739b 3d3c 26c8 b3be
00000390: 7f18 95be b37f 733c 55f3 4cbd a802 6abe
000003a0: e7bc a83c fc7e 2d3e 18b8 3d3e 1fc3 19bd
000003b0: 86cd 01be 1a3f 133e 601e 983e 8744 943e
000003c0: 0f64 83bc d946 0cbf 2852 ad3d 73a2 a33e
000003d0: 6e12 a63e 07d0 c3be c495 39be d200 ec3d
000003e0: abcd 94be 7149 193e a1ce bcbe 8998 c33e
000003f0: 3fa3 28bf 4981 8f3e c8ac 83bd 3fcd 08bd

out.linear.layers.2.bias f4 [32]
-0.18852414 0.27584222 0.28662735 -0.30595088 0.39828444 0.5079722 0.37156117 -0.31893656
-0.008016477 0.3190294 0.22387561 -0.08200923 0.020691926 0.15906629 0.076755 0.23344196
0.11368512 0.040159814 0.17062059 -0.13969961 -0.0916231 0.015109432 -0.71937037 0.16290094
0.25209424 0.13748157 -0.23573771 0.0130750155 0.36127415 -0.052369032 -0.045866802 0.06043031
00000000: 790c 41be 313b 8d3e d2c0 923e 98a5 9cbe
00000010: f0eb cb3e 770a 023f 443d be3e a74b a3be
00000020: 8b57 03bc d257 a33e a63f 653e 75f4 a7bd
00000030: 1d82 a93c 46e2 223e ba31 9d3d 690b 6f3e
00000040: bfd3 e83d 9e7e 243d 2ab7 2e3e 6a0d 0fbe
00000050: e4a4 bbbd 8d8d 773c a828 38bf 81cf 263e
00000060: 7f12 813e f8c7 0c3e 3a65 71be 9738 563c
00000070: edf8 b83e e980 56bd d4de 3bbd c685 773d

out.linear.layers.4.weight f4 [32, 32]
-0.5344164 0.2918066 -0.061092127 -0.1993803 0.11070285 -0.36010286 -0.22377437 0.05349536
0.2600955 0.018809695 0.26393884 0.040936124 0.100141086 0.11686114 -0.15807326 -0.113317296
0.05705293 -0.0108269835 -0.42976457 -0.16547447 0.4360326 -0.22602662 0.012367052 0.1984418
0.107132114 0.011823279 -0.13847253 0.041828904 -0.36500326 0.3184071 0.13152808 -0.6155838
0.1695856 -0.06593488 0.09435074 -0.60006034 0.056895852 -0.5846517 -0.13104156 0.22666954
0.03812894 0.09005941 0.048948545 0.043599583 0.011226527 -0.16296905 -0.4141502 0.5676381
-0.07921164 -0.5923461 0.082257345 -0.01638465 -0.10083257 -0.50579286 0.21636751 0.088395245
0.15059425 -0.038162474 -0.69921607 0.007987384 -0.5871966 0.18274523 -0.015050141 -0.12268919
-0.0478162 -0.34510067 0.22737369 0.20757657 0.21865188 -0.30243972 0.0056076017 -0.26538378
0.09629737 0.1628382 0.21249558 0.08691764 -0.53746307 0.0076284697 -0.5708136 0.096588716
0.22130464 -0.47007567 -0.46768695 0.34930414 -0.10651362 0.02621341 0.13474508 0.13095625
-0.49153134 0.21217702 -0.8468964 -0.02952314 -0.17007193 -0.24013379 -0.4434394 0.17349347
0.17701574 0.1252078 -0.08398575 -0.42822948 0.046837594 -0.02400746 -0.15257172 0.121497
-0.17812587 -0.019531175 -0.09358589 -0.18812053 0.091999725 -0.17256472 0.27243343 -0.522789
-0.24484955 -0.5545323 0.112469375 -0.21458156 -0.29619348 0.13173264 -0.45863953 -0.13082497
0.26910257 0.019503348 -0.19359764 -0.039227393 -0.0013133105 0.2976808 -0.6866514 0.33992788
-0.24308124 -0.029743277 0.6899499 -0.53422767 -0.5682052 -0.042359274 -0.41313052 0.35808286
0.26717633 0.0034693019 0.1777037 -1.5120018 0.34252867 -0.24800234 -0.31470755 -0.09499589
-0.09211523 0.052839894 0.102298796 0.05122924 -0.28501406 -0.19367915 -0.039968226 -0.3869818
-0.048792407 -0.22015299 0.29134023 -0.8997366 0.030673888 -0.629339 0.29467735 0.24006377
-0.21088329 0.08078881 0.036017198 -0.35807592 0.20954387 -0.18953885 -0.20975508 -0.20734833
0.04928505 0.09551346 -0.09573621 -0.09909333 -0.06539877 0.050781798 -0.028801562 0.22906357
-0.23897378 0.13612579 0.027950983 0.03198789 0.029328449 0.2044624 -0.38737598 -0.26277602
0.2566623 -0.12111847 -0.23697177 -0.15838063 -0.08595466 0.101700984 -0.05051632 -0.23303527
0.026464282 -0.17903602 -0.5101849 0.04139159 0.0044778106 -0.18379822 -0.36415952 0.0915068
-0.05242087 -0.088747 -0.098823704 0.24087405 -0.58277357 0.044219412 -0.38876134 0.3696358
-0.43381765 0.19894917 -0.16364026 -0.24673814 0.09414913 -0.48904467 -0.08672977 -0.12760668
0.28020602 0.09775912 -0.3304919 -0.031412903 0.20301399 -0.35237163 -0.27435312 0.03564451
-0.6108082 -0.091094546 -1.0257144 0.029423073 -0.04364209 0.12929174 0.27365392 -0.8284002
0.058923263 0.27869427 -0.50173616 -0.27829835 -0.45747855 0.09954005 -0.02422259 0.13978036
-0.57697165 0.10037934 0.2470452 -0.25775203 -0.020657051 -0.15587285 0.5041052 -0.8041797
-0.17982695 0.07698498 -0.21392371 -0.13416173 0.17059605 -0.45504713 -0.12884831 -0.15501885
00000000: 83cf 08bf ad67 953e bd3b 7abd 592a 4cbe
00000010: 2db8 e23d 675f b8be 1c25 65be f31d 5b3d
00000020: 3d2b 853e ca16 9a3c fe22 873e a3ac 273d
00000030: c516 cd3d e554 ef3d f5dd 21be e612 e8bd
00000040: 55b0 693d a963 31bc 1a0a dcbe 2472 29be
00000050: aa3f df3e 8673 67be 2d9f 4a3c 5434 4b3e
00000060: 1568 db3d 6db6 413c becb 0dbe c954 2b3d
00000070: b5e1 babe 4106 a33e 4caf 063e e696 1dbf
00000080: d9a7 2d3e de08 87bd f63a c13d 8e9d 19bf
00000090: a00b 693d bcab 15bf c22f 06be 0f1c 683e
000000a0: 172d 1c3d 1171 b83d 457e 483d 7a95 323d
000000b0: 78ef 373c 5ce1 26be 7f0b d4be bb50 113f
000000c0: b639 a2bd fea3 17bf 8a76 a83d 1a39 86bc
000000d0: 4e81 cebd a47b 01bf 728f 5d3e 9108 b53d
000000e0: 6135 1a3e 4150 1cbd d3ff 32bf 84dd 023c
000000f0: 8452 16bf 9121 3b3e de94 76bc 7844 fbbd
00000100: ebda 43bd 09b1 b0be a6d4 683e f48e 543e
00000110: 47e6 5f3e 61d9 9abe f9bf b73b 62e0 87be
00000120: 8e37 c53d 0fbf 263e 7198 593e e001 b23d
00000130: 2e97 09bf 3ef8 f93b d720 12bf 4ed0 c53d
00000140: af9d 623e c2ad f0be aa74 efbe fed7 b23e
00000150: d023 dabd 81bd d63c 9dfa 093e 6519 063e
00000160: ffa9 fbbe ef44 593e 34ce 58bf 83da f1bc
00000170: 5627 2ebe a2e5 75be 7d0a e3be 46a8 313e
00000180: 9d43 353e 7936 003e b900 acbd e540 dbbe
00000190: c7d8 3f3d 4bab c4bc c33b 1cbe 6bd3 f83d
000001a0: a166 36be d8ff 9fbc f6a9 bfbd aba2 40be
000001b0: 5a6a bc3d ceb4 30be 657c 8b3e 80d5 05bf
000001c0: d7b9 7abe d4f5 0dbf 5856 e63d 45bb 5bbe
000001d0: aca6 97be ece4 063e cdd2 eabe fbf6 05be
000001e0: d0c7 893e 7cc5 9f3c 763e 46be e7ac 20bd
000001f0: 6323 acba 9e69 983e 63c8 2fbf 070b ae3e
00000200: 4aea 78be 2ca8 f3bc 8fa0 303f 25c3 08bf
00000210: e575 11bf eb80 2dbd d885 d3be a356 b73e
00000220: 56cb 883e 3a5d 633b f5f7 353e 4689 c1bf
00000230: eb5f af3e 53f4 7dbe 5921 a1be 358d c2bd
00000240: e9a6 bcbd a56e 583d 0882 d13d c0d5 513d
00000250: 5ded 91be d453 46be b9b5 23bd 7a22 c6be
00000260: 8cda 47bd c96f 61be 8c2a 953e 2355 66bf
00000270: ce47 fb3c 5c1c 21bf f3df 963e 47d3 753e
00000280: caf1 57be 9b74 a53d c586 133d ba55 b7be
00000290: ab92 563e 7916 42be 09ca 56be 1f53 54be
000002a0: 1fdf 493d 909c c33d 5911 c4bd 72f1 cabd
000002b0: caef 85bd 9300 503d 41f1 ebbc a48f 6a3e
000002c0: 8bb5 74be 8f64 0b3e 76f9 e43c bc05 033d
000002d0: 3742 f03c 975e 513e 2556 c6be 948a 86be
000002e0: 3e69 833e f60c f8bd baa8 72be 882e 22be
000002f0: ff08 b0bd 9b48 d03d 33ea 4ebd cca0 6ebe
00000300: 9fcb d83c 3855 37be 7a9b 02bf 3a8a 293d
00000310: 99ba 923b 9a35 3cbe 1e73 babe eb67 bb3d
00000320: 44b7 56bd fdc0 b5bd 1564 cabd b0a7 763e
00000330: a630 15bf 6a1f 353d ba0b c7be e740 bd3e
00000340: 591d debe 55b9 4b3e 5091 27be eca8 7cbe
00000350: 42d1 c03d 1064 fabe 619f b1bd 53ab 02be
00000360: 2a77 8f3e ef35 c83d 3c36 a9be d1aa 00bd
00000370: e6e2 4f3e 0e6a b4be 0378 8cbe faff 113d
00000380: ed5d 1cbf c78f babd 9c4a 83bf a808 f13c
00000390: 0cc2 32bd 0e65 043e 5e1c 8c3e 0912 54bf
000003a0: 8559 713d 04b1 8e3e c871 00bf 1f7d 8ebe
000003b0: a13a eabe a7db cb3d 746e c6bc 9522 0f3e
000003c0: 6ab4 13bf af93 cd3d 6bf9 7c3e 13f8 83be
000003d0: fa38 a9bc 229d 1fbe 0a0d 013f b9de 4dbf
000003e0: 8e24 38be 4daa 9d3d d10e 5bbe b161 09be
000003f0: bbb0 2e3e f0fb e8be d0f0 03be 43bd 1ebe

out.linear.layers.4.bias f4 [32]
0.5508727 0.24579036 0.096998885 0.73597723 0.13630982 0.3722376 0.2974796 0.66690034
0.37732193 0.26468527 0.0006709766 0.3126471 0.23529112 -0.06530294 0.06911658 0.7108148
0.4097108 0.06311712 0.3715462 0.27823508 -0.006384909 -0.3356081 -0.054242536 0.40428263
0.29693562 0.104310274 0.23432726 -0.5415452 0.3553371 -0.09231023 0.1805861 -0.22882625
00000000: fe05 0d3f 78b0 7b3e 5aa7 c63d 0169 3c3f
00000010: cd94 0b3e ed95 be3e 3f4f 983e fbb9 2a3f
00000020: 5730 c13e d484 873e 7ae4 2f3a 4813 a03e
00000030: 28f0 703e 8cbd 85bd fe8c 8d3d f5f7 353f
00000040: 9dc5 d13e 8c43 813d 4e3b be3e d474 8e3e
00000050: 8038 d1bb d3d4 abbe 6c2d 5ebd 22fe ce3e
00000060: f207 983e a0a0 d53d 7cf3 6f3e b5a2 0abf
00000070: bfee b53e 250d bdbd 90eb 383e 6e51 6abe

out.linear.layers.6.weight f4 [9, 32]
-0.19971722 0.032900758 -0.11217611 0.12603945 0.814418 -0.00703981 0.10837574 0.20377436
-0.13233891 -0.211783 0.3749913 -0.29105705 0.0898824 -0.1566762 -0.12269893 -0.1974678
-0.17676726 -0.08525751 -0.14996773 0.15957952 -0.06515409 0.09024851 -0.83263516 -0.038265374
-0.053085092 -0.19320633 0.4504909 0.04895442 0.03882627 -0.1983639 0.20404701 0.052329995
-0.20989004 -0.26580396 -0.07998406 0.19689278 -0.060895525 0.08693316 0.3119216 0.23810865
-0.23924346 -0.28354606 0.03814273 0.28180492 -0.01735544 0.0077904467 -0.16887434 -0.07338674
-0.28803352 -0.1457946 0.05419635 0.15064384 -0.07058435 0.13274328 -0.33195457 0.01362807
-0.18144742 -0.04437067 0.10620093 0.24417202 -0.017349564 -0.24008863 0.29158175 -0.01864039
-0.12921502 -0.00023795693 -0.06442207 -0.113493964 0.038194004 0.16347712 -0.035344347 0.31590927
-0.12746425 -0.110288054 -0.08052365 0.14548229 0.2174339 -0.029624965 -0.16467164 -0.20742798
0.16266485 -0.033671625 0.06932504 0.22938783 -0.047201797 -0.08116225 -0.2886446 -0.14188868
-0.21761453 0.009630268 0.091881074 0.09874561 0.14084458 -0.46935022 0.049905665 0.013825191
-0.14395618 -0.06750068 -0.1530335 -0.030120583 0.06127187 0.059624374 0.0019629782 0.31346184
-0.10859856 -0.12399961 -0.22394964 0.2597483 0.2828029 -0.07756022 -0.13748945 -0.1837726
-0.03349435 -0.1274903 -0.03394346 0.23412654 -0.03356853 -0.087602034 -0.24858807 -0.140136
-0.15130752 -0.06493464 -0.07523115 0.13912837 0.13515161 -0.36265194 0.1926569 0.08426959
-0.23587748 -0.019608626 -0.06394128 0.17427927 -0.046233013 -0.035607338 0.12407224 0.11595156
-0.14015321 0.07663441 0.12672067 0.19920483 0.22563653 -0.63630635 -0.11154629 -0.08882171
-0.08338738 0.29232347 0.14019533 -0.16772212 -0.47857416 -0.22039671 -0.3446929 -0.17068432
-0.1557633 0.08006326 0.14379321 0.13698214 0.0012647717 -4.2238575e-05 0.42642447 -0.52261436
0.008996615 -0.011653596 -0.23365498 -0.24702856 0.0031638325 -0.099228874 0.08585492 0.21083531
-0.1551551 -0.21713185 0.029659724 0.0022277285 0.1937425 -0.016187722 -0.3806777 -0.25823298
-0.095530406 0.030533768 -0.021725351 0.2169104 -0.021926925 -0.06773095 -0.088042215 -0.15482953
-0.12841286 0.32414204 0.043042306 0.11933534 0.29708752 -0.668858 -0.050935823 0.037763983
0.12439749 -0.08472458 -0.2656329 -0.24279575 -0.039727364 -0.097442724 0.09505985 0.23779906
-0.120007485 -0.17836814 0.16920976 -0.17083946 0.25976777 -0.01678342 -0.40372196 -0.23093253
-0.096671924 -0.04684024 -0.094967216 0.2847119 -0.012990824 -0.15310349 0.15619451 -0.14075387
-0.19945373 -0.047509592 0.2578633 0.14658237 0.22305542 -0.6841628 0.051544685 0.08277007
-0.2046689 -0.031337235 -0.16926369 0.046363667 -0.044066027 0.23479688 0.28434956 0.14341216
0.06421555 -0.02607474 0.08099523 0.22346778 0.16170971 -0.21798468 -0.09450619 -0.25815985
-0.122355394 0.1081696 -0.28900233 -0.048402075 0.086591505 -0.0022141442 -0.23538001 -0.31614494
-0.0029160816 -0.08483781 0.14031266 -0.33748183 0.16969346 -0.35339412 -0.002046441 0.00809935
00000000: ac82 4cbe f2c2 063d 97bc e5bd 7c10 013e
00000010: b37d 503f 35ae e6bb 1af4 dd3d 3aaa 503e
00000020: da83 07be a5dd 58be dcfe bf3e 6e05 95be
00000030: 4414 b83d ba6f 20be 9449 fbbd 0035 4abe
00000040: 7a02 35be 7d9b aebd 2491 19be d068 233e
00000050: 826f 85bd 36d4 b83d 9427 55bf 27bc 1cbd
00000060: c16f 59bd e1d7 45be bea6 e63e 6e84 483d
00000070: 4b08 1f3d e81f 4bbe b3f1 503e fa57 563d
00000080: 6aed 56be 7517 88be afce a3bd 439e 493e
00000090: 966d 79bd 030a b23d 30b4 9f3e c1d2 733e
000000a0: 3dfc 74be f32c 91be 8d3b 1c3d bc48 903e
000000b0: ff2c 8ebc 0147 ff3b 65ed 2cbe ca4b 96bd
000000c0: 2179 93be 2e4b 15be fefc 5d3d 6142 1a3e
000000d0: 878e 90bd dbed 073e f3f5 a9be 4548 5f3c
000000e0: 5acd 39be 05be 35bd e07f d93d 3b08 7a3e
000000f0: ac20 8ebc cbd9 75be 344a 953e bbb3 98bc
00000100: f150 04be 1484 79b9 b8ef 83bd 866f e8bd
00000110: 5171 1c3d 8c66 273e 3cc5 10bd dcbe a13e
00000120: fd85 02be b4de e1bd 95e9 a4bd 4ff9 143e
00000130: fea6 5e3e 0eb0 f2bc af9f 28be 0068 54be
00000140: 9d91 263e 42eb 09bd 49fa 8d3d a5e4 6a3e
00000150: ac56 41bd 6538 a6bd 3ac9 93be 444b 11be
00000160: 58d6 5ebe 46c8 1d3c 252c bc3d 233b ca3d
00000170: 9039 103e ac4e f0be e269 4c3d 0e83 623c
00000180: 4069 13be cc3d 8abd d0b4 1cbe 71bf f6bc
00000190: 36f8 7a3d b038 743d 4fa5 003b 127e a03e
000001a0: ec68 debd 82f3 fdbd 0e53 65be bbfd 843e
000001b0: 8bcb 903e e5d7 9ebd 09ca 0cbe e22e 3cbe
000001c0: 5f31 09bd d18c 02be 4c08 0bbd debe 6f3e
000001d0: 287f 09bd b268 b3bd df8d 7ebe d07f 0fbe
000001e0: 5cf0 1abe 74fc 84bd ca12 9abd ab77 0e3e
000001f0: 2f65 0a3e 84ad b9be da47 453e 8995 ac3d
00000200: de89 71be 45a2 a0bc a5f3 82bd 4476 323e
00000210: d45e 3dbd 00d9 11bd 9619 fe3d 0378 ed3d
00000220: 5384 0fbe 80f2 9c3d 10c3 013e 5afc 4b3e
00000230: 430d 673e f9e4 22bf 6272 e4bd 28e8 b5bd
00000240: 01c7 aabd 6cab 953e 5d8f 0f3e 59bf 2bbe
00000250: ac07 f5be adaf 61be 967b b0be dfc7 2ebe
00000260: 6a80 1fbe 35f8 a33d 873e 133e 0c45 0c3e
00000270: b2c6 a53a 5329 31b8 4f54 da3e 0eca 05bf
00000280: 8a66 133c b9ee 3ebc 4043 6fbe 0ef5 7cbe
00000290: 4d58 4f3b 8238 cbbd b4d4 af3d 36e5 573e
000002a0: fbe0 1ebe d057 5ebe f3f8 f23c 15ff 113b
000002b0: 6f64 463e 1d9c 84bc 30e8 c2be 1d37 84be
000002c0: 72a5 c3bd f421 fa3c 5df9 b1bc c31d 5e3e
000002d0: 18a0 b3bc 86b6 8abd 7a4f b4bd a28b 1ebe
000002e0: a97e 03be f2f5 a53e 214d 303d 1666 f43d
000002f0: db1b 983e 473a 2bbf 15a2 50bd 68ae 1a3d
00000300: 1cc4 fe3d 1584 adbd 0901 88be 739f 78be
00000310: 29b9 22bd 0d90 c7bd bdae c23d 9981 733e
00000320: 7cc6 f5bd 23a6 36be 5345 2d3e 8af0 2ebe
00000330: 4800 853e 627d 89bc a5b4 cebe 9479 6cbe
00000340: eefb c5bd 8ddb 3fbd 2c7e c2bd c2c5 913e
00000350: 77d7 54bc 29c7 1cbe 74f1 1f3e c821 10be
00000360: 993d 4cbe 6b99 42bd a906 843e b019 163e
00000370: a468 643e 4b25 2fbf 8520 533d 5b83 a93d
00000380: b994 51be 795b 00bd 7653 2dbe d4e7 3d3d
00000390: 947e 34bd 986e 703e 4496 913e a3da 123e
000003a0: 7183 833d b19a d5bc d4e0 a53d bdd4 643e
000003b0: 3b97 253e 6037 5fbe 768c c1bd 872d 84be
000003c0: 7795 fabd 0688 dd3d 1df8 93be 4141 46bd
000003d0: e356 b13d 2d1b 11bb 7507 71be c0dd a1be
000003e0: bb1b 3fbb 72bf adbd 1fae 0f3e 6bca acbe
000003f0: 1fc4 2d3e 13f0 b4be 951d 06bb 23b3 043c

out.linear.layers.6.bias f4 [9]
-0.041210435 -0.015942354 -0.08828051 -0.034825284 0.08948477 0.0036059802 -0.06140558 0.07407995
0.07408066
00000000: 46cc 28bd 8a99 82bc 69cc b4bd f5a4 0ebd
00000010: cb43 b73d 4f52 6c3b 6b84 7bbd 3bb7 973d
00000020: 9ab7 973d

backbone.backbone.0.blocks.0.conv1.weight f4 [32, 32, 1, 3]
-1.0462757 -0.18193312 -0.2670062 -0.48212314 -0.11491924 -0.057709016 -0.32405332 -0.0015481376
-0.13789697 -0.46323282 -0.10165012 -0.09514614 0.2782593 0.0510174 0.15222682 -0.95815057
-0.06972338 -0.07460558 0.34388018 0.17057644 0.011948729 -0.10623938 -0.028810767 -0.118953146
-0.2871916 0.10576015 -0.051327955 -0.2846429 -0.11120007 -0.13697207 0.28624377 -0.0113189975
-0.0676472 -0.035051674 0.005263608 -0.04253129 -0.48627284 0.028345002 -0.10592241 -0.2934499
-0.011859652 -0.18366674 -0.19897316 0.120155156 -0.02352323 -0.35657078 0.16410787 -0.044582453
0.3020287 -0.12539412 0.111750595 0.16978215 -0.06856758 -0.031910017 0.7707628 0.029247522
0.18739542 -0.5101317 -0.1421667 -0.082431816 -0.11062761 -0.04713206 -0.070409425 0.096275255
-0.103623375 0.09131032 0.12308276 -0.017681096 -0.06479964 -0.23550555 -0.14165528 -0.1798861
-0.3461761 0.09830013 0.017287461 0.6925206 0.11506682 0.04820375 0.5742015 0.024800755
-0.0014674306 -0.2357223 0.039181817 -0.09937208 0.19215307 0.04132945 -0.03633687 -0.4539821
-0.12115611 -0.13830963 -0.35258946 -0.120323524 -0.081614286 -0.06708447 -0.04520363 -0.03627113
-0.06611544 -0.02182517 -0.06429949 0.053275347 0.091000974 0.04360842 0.012226383 0.043877218
0.07850141 0.20163561 0.053128365 0.19657628 0.1278046 0.23834917 0.14750126 -0.09835167
0.032706764 0.051717825 -0.11840635 -0.07099071 -0.05669964 0.022788519 0.112405874 0.14596255
0.019048123 -0.04203796 0.048906773 0.19196013 0.20481567 0.039724622 -0.075795606 -0.053601064
-0.03438765 -0.97790736 -1.1710682 -0.6916955 0.10363406 -0.0303466 -0.04028806 0.047284
0.042836115 0.095220335 -0.680869 -0.86935836 -0.55585456 -0.096534505 -0.06823006 -0.10785471
0.36887345 0.39130512 0.35008544 0.27017665 0.41383222 0.21504918 -0.01642609 0.018601764
-0.080287635 0.1756674 0.21061058 0.055231806 -0.81805784 -0.88725823 -0.601787 0.6432203
0.90569556 0.4658609 0.4261235 0.46687892 0.24268366 0.12090819 0.09640488 0.18757442
-0.275585 -0.24779718 -0.22957057 -0.02150294 -0.10742299 -0.1341967 0.12462105 0.1198416
0.15442215 -0.5761275 -0.74014443 -0.48338068 0.48124543 0.59686315 0.30179268 0.06335294
0.1735983 0.07676787 -0.0021001336 0.22261555 0.14221641 -0.5474792 -0.8637554 -0.54837525
-0.10934537 -0.011901556 0.034656897 -0.14230958 -0.19578184 -0.14026836 -0.19347823 -0.2271292
-0.16323224 -0.115369365 -0.21613047 -0.13314557 -0.15989736 -0.21561022 -0.0462364 -0.021998491
-0.15409705 -0.12715995 0.08868959 0.07346966 0.1238194 -0.14122052 -0.22093108 -0.13276418
-0.017421639 -0.03371004 -0.0420939 -0.030093756 -0.09261898 -0.07164314 0.06741861 -0.051521216
-0.024339925 0.5319993 0.96632475 0.45742214 -0.076861925 -0.15060052 -0.16440581 -0.098767065
-0.10507205 -0.09113799 0.5172885 0.8309299 0.3055696 -0.04164639 -0.089043416 0.08769705
-0.36537182 -0.40964055 -0.31809065 -0.16838062 -0.23162171 -0.20797776 0.13868417 0.022375226
-0.02329603 -0.140932 -0.18729788 -0.08398283 0.5860609 0.7988825 0.47557402 -0.28823766
00000000: 5dec 85bf ad4c 3abe 09b5 88be d8d8 f6be
00000010: c75a ebbd 4a60 6cbd 51ea a5be e1ea caba
00000020: dd34 0dbe da2c edbe f02d d0bd fbdb c2bd
00000030: 0178 8e3e 9ff7 503d 59e1 1b3e 5b49 75bf
00000040: 22cb 8ebd cfca 98bd 1011 b03e 97ab 2e3e
00000050: 9ac4 433c 0894 d9bd 8f04 ecbc b59d f3bd
00000060: c70a 93be c798 d83d 433d 52bd b7bc 91be
00000070: ddbc e3bd 6842 0cbe 8b8e 923e 5173 39bc
00000080: 9d8a 8abd 5892 0fbd 587a ac3b 4a35 2ebd
00000090: c1f8 f8be c733 e83c d9ed d8bd 113f 96be
000000a0: fc4e 42bc 2213 3cbe 9fbf 4bbe e813 f63d
000000b0: cab3 c0bc 7290 b6be e50b 283e 179c 36bd
000000c0: 81a3 9a3e 5167 00be 7fdd e43d 5fdb 2d3e
000000d0: 296d 8cbd 14b4 02bd b650 453f 8098 ef3c
000000e0: 96e4 3f3e fe97 02bf 2694 11be 03d2 a8bd
000000f0: ba90 e2bd 8c0d 41bd d132 90bd f62b c53d
00000100: 7e38 d4bd e800 bb3d d012 fc3d f2d7 90bc
00000110: acb5 84bd 5e28 71be 150e 11be 1034 38be
00000120: fe3d b1be 9451 c93d 6f9e 8d3c 0849 313f
00000130: 27a8 eb3d 4c71 453d dffe 123f f42a cb3c
00000140: cd56 c0ba 3061 71be 1d7d 203d 9783 cbbd
00000150: c6c3 443e 1249 293d f8d5 14bd 5870 e8be
00000160: b220 f8bd 0aa1 0dbe 9b86 b4be 2e6c f6bd
00000170: 6425 a7bd 9563 89bd 7127 39bd 0991 14bd
00000180: 8867 87bd b3ca b2bc 73af 83bd 4037 5a3d
00000190: b85e ba3d be9e 323d 2b51 483c 99b8 333d
000001a0: 59c5 a03d 9179 4e3e 219d 593d 4b4b 493e
000001b0: 36df 023e ce11 743e 920a 173e 9a6c c9bd
000001c0: 87f7 053d 12d6 533d 077f f2bd 9463 91bd
000001d0: e23d 68bd fdae ba3c 0d35 e63d 3577 153e
000001e0: cf0a 9c3c ff2f 2cbd 7852 483d 3291 443e
000001f0: 33bb 513e 49b6 223d ba3a 9bbd ca8c 5bbd
00000200: 11da 0cbd 2358 7abf 90e5 95bf f512 31bf
00000210: 183e d43d 6f99 f8bc 1805 25bd deac 413d
00000220: ec74 2f3d e102 c33d 6e4d 2ebf 458e 5ebf
00000230: 7c4c 0ebf e2b3 c5bd 34bc 8bbd eee2 dcbd
00000240: fbdc bc3e 2559 c83e 663e b33e 9854 8a3e
00000250: d1e1 d33e da35 5c3e 0290 86bc ba62 983c
00000260: d86d a4bd 28e2 333e 4daa 573e bf3a 623d
00000270: 3d6c 51bf 5b23 63bf b60e 1abf 16aa 243f
00000280: aadb 673f 5285 ee3e dc2c da3e c10a ef3e
00000290: 1182 783e b79e f73d ec6f c53d 8213 403e
000002a0: 7a19 8dbe 8bbe 7dbe 8c14 6bbe ef26 b0bc
000002b0: 9600 dcbd dc6a 09be 5239 ff3d 836f f53d
000002c0: d720 1e3e 187d 13bf 1b7a 3dbf ac7d f7be
000002d0: cd65 f63e 06cc 183f 9284 9a3e 30bf 813d
000002e0: c1c3 313e 7938 9d3d 65a2 09bb 55f5 633e
000002f0: 2ea1 113e 9927 0cbf 131f 5dbf 5262 0cbf
00000300: 77f0 dfbd befe 42bc 64f4 0d3d 9ab9 11be
00000310: 097b 48be 82a2 0fbe 281f 46be 8f94 68be
00000320: 5a26 27be c646 ecbd 4e51 5dbe 5057 08be
00000330: 22bc 23be edc8 5cbe 6162 3dbd 2e36 b4bc
00000340: 9ecb 1dbe 3836 02be e3a2 b53d 4377 963d
00000350: 0795 fd3d 1d9c 10be c23b 62be 55f3 07be
00000360: d3b7 8ebc 8a13 0abd a76a 2cbd 2e87 f6bc
00000370: 05af bdbd a3b9 92bd c512 8a3d e907 53bd
00000380: 8664 c7bc 1b31 083f 0f61 773f 3c33 ea3e
00000390: c969 9dbd 0637 1abe ff59 28be 6346 cabd
000003a0: 0430 d7bd 8ea6 babd 056d 043f d2b7 543f
000003b0: 9e73 9c3e 6895 2abd 655c b6bd 839a b33d
000003c0: 0412 bbbe 68bc d1be c7dc a2be f86b 2cbe
000003d0: 3e2e 6dbe 1ff8 54be 3903 0e3e 404c b73c
000003e0: 51d7 bebc 7a50 10be 04cb 3fbe 31ff abbd
000003f0: 1608 163f 9083 4c3f 707e f33e e393 93be

backbone.backbone.0.blocks.0.conv1.bias f4 [32]
0.0072621778 0.2811139 -0.29172513 -0.12591475 -0.048360858 -0.08663458 -0.083365135 0.003708194
0.09318818 -0.0909571 0.01534092 0.027980868 -0.10281442 -0.033377755 0.019391678 0.051836353
0.0047300486 0.08956728 -0.027254175 -0.105895534 -0.041838977 0.11554369 -0.14235942 -0.08875484
0.1106714 -0.14951873 0.062183235 0.088794075 -0.1710524 -0.074019894 -0.070896976 -0.011343129
00000000: 90f7 ed3b 29ee 8f3e ff5c 95be ccef 00be
00000010: 0916 46bd 786d b1bd 57bb aabd 2c05 733b
00000020: 72d9 be3d b747 babd 7b58 7b3c 2238 e53c
00000030: 5e90 d2bd 1db7 08bd 4cdb 9e3c 5b52 543d
00000040: 86fe 9a3b 0d6f b73d 2644 dfbc c2df d8bd
00000050: 595f 2bbd 2ca2 ec3d abc6 11be 19c5 b5bd
00000060: b0a7 e23d 701b 19be d9b3 7e3d abd9 b53d
00000070: 5c28 2fbe be97 97bd 6f32 91bd 88d8 39bc

backbone.backbone.0.blocks.0.conv2.weight f4 [32, 32, 1, 3]
-0.024985356 0.25631985 0.04899482 0.037151515 0.1368292 -0.07193544 -0.022631025 -0.032862175
-0.06279057 -0.05755323 0.085529916 -0.11997807 0.19566397 -0.37092623 -0.2033745 0.025034107
0.19026886 0.051526055 0.087655075 0.03390746 0.06687242 0.04750661 -0.10182082 -0.10867036
-0.09657769 0.37736088 0.17158914 -0.03518772 -0.041816942 -0.062281515 0.02800099 -0.23088135
-0.06772454 -0.1268032 0.30396026 0.16335672 -0.06486259 0.21043767 0.0025948752 -0.047848355
0.0013644214 -0.034972887 -0.22108221 0.29496995 0.16548651 -0.06770039 0.3085639 0.036794238
0.49886364 -0.53450775 -0.17081878 0.42383546 -0.6459579 -0.114954375 0.044479802 -0.13179888
0.089876495 -0.03539117 0.18512325 0.06986151 -0.15374525 0.4212655 0.17062384 0.119511105
-0.23407353 -0.12672749 0.31879565 -0.692854 -0.18291442 -0.04274711 0.083122045 0.09189334
-0.4125917 0.49715304 0.1721058 0.066896655 -0.22046706 0.08467573 0.09657645 -0.2753466
-0.021613136 -0.18841049 0.21851672 0.028239852 0.32081524 -0.300314 -0.0143600525 0.051232994
0.023723526 -0.034527108 -0.024959864 0.13845855 -0.007402108 -0.3295501 0.30391625 0.07437504
0.23174526 0.13612926 0.073289774 -0.08907907 -0.08889016 -0.16252214 -0.024448248 -0.11800651
-0.10369586 -0.08355979 -0.10451754 -0.12515311 -0.4155456 -0.2761143 -0.16775854 0.09598484
0.08224872 0.12216152 0.19066225 0.068530835 0.04806659 -0.23431435 -0.1922943 -0.10784101
0.41030067 0.40787572 0.20485172 -0.06984589 -0.15368299 -0.047130153 -0.4318966 -0.23952506
-0.10489723 0.81980914 0.64146656 0.34080046 0.0903738 0.21271953 0.09322582 -0.18323594
-0.14914837 -0.0018381855 0.8669835 0.6946645 0.33491346 0.50521433 0.42390037 0.24584348
-0.9400923 -0.7938671 -0.34466827 -1.1354855 -0.9278171 -0.563408 -0.16131938 -0.025533231
0.008586477 -0.07067115 0.0031182682 -0.07077638 0.9217805 0.7308601 0.40156087 -0.44825923
-0.53482515 -0.30074444 -1.1251379 -0.75928855 -0.46533543 -0.032091748 -0.040102337 -0.104261704
0.48513997 0.3182108 0.1809909 -0.035304435 -0.12479184 -0.13143636 -0.21818575 -0.12761986
-0.054129086 0.6278021 0.5212867 0.32377607 -0.77743405 -0.7049397 -0.39671263 0.014817215
0.022570591 -0.013528732 -0.07000757 -0.02697289 -0.2065916 0.73565924 0.7058302 0.4337413
0.17923237 0.30620185 0.2601074 0.20239115 0.52644384 0.3905153 0.02244759 0.21480158
0.18713163 0.28070143 0.49023 0.39761847 -0.15360245 -0.06704459 -0.063366964 0.17459954
0.46552426 0.33134854 -0.20232034 -0.36497003 -0.11665257 -0.023559628 0.20497821 -0.031757656
0.07802171 -0.0012562092 0.03662753 0.25388193 0.43460736 0.31759578 -0.026683187 0.076895855
-0.01615242 -0.03218427 -0.012153962 -0.023955451 0.09568015 0.16217557 0.08974123 0.18803467
0.33096293 0.18950133 0.056030937 -0.039237477 0.00083141675 0.022638856 0.028994968 -0.02621616
-0.14467955 0.026718576 -0.04841971 -0.049089584 -0.023997808 -0.06656749 -0.3237133 -0.37378982
-0.3183271 0.12638634 0.45725703 0.32986274 0.147196 0.030967738 -0.02541424 -0.0101744775
00000000: 17ae ccbc 5b3c 833e cbae 483d 302c 183d
00000010: f41c 0c3e e352 93bd b364 b9bc 7d9a 06bd
00000020: 5898 80bd f0bc 6bbd 4f2a af3d 10b7 f5bd
00000030: 235c 483e 0bea bdbe 6841 50be 5414 cd3c
00000040: d7d5 423e fc0c 533d 8184 b33d 8ce2 0a3d
00000050: 68f4 883d 4b96 423d 6f87 d0bd 918e debd
00000060: 86ca c5bd 7235 c13e 10b5 2f3e 0021 10bd
00000070: 3e48 2bbd e71a 7fbd 5562 e53c 296c 6cbe
00000080: 2ab3 8abd b3d8 01be aea0 9b3e fc46 273e
00000090: add6 84bd f97c 573e c80e 2a3b a3fc 43bd
000000a0: 63d6 b23a bb3f 0fbd 6063 62be 4d06 973e
000000b0: 4c75 293e 81a6 8abd 16fc 9d3e 8eb5 163d
000000c0: 0e6b ff3e 80d5 08bf 1eeb 2ebe f600 d93e
000000d0: 7f5d 25bf 336d ebbd 7430 363d 49f6 06be
000000e0: 2b11 b83d 55f6 10bd f390 3d3e 8d13 8f3d
000000f0: 656f 1dbe 1db0 d73e 04b8 2e3e 3dc2 f43d
00000100: f9b0 6fbe dac4 01be 2f39 a33e e15e 31bf
00000110: eb4d 3bbe 9817 2fbd e43b aa3d 9332 bc3d
00000120: 383f d3be d88a fe3e 813c 303e 1d01 893d
00000130: 1ec2 61be 786a ad3d e0c9 c53d 3bfa 8cbe
00000140: 080e b1bc aeee 40be d9c2 5f3e 4357 e73c
00000150: e541 a43e c2c2 99be 6d46 6bbc b0d9 513d
00000160: d757 c23c 4c6c 0dbd a178 ccbc 14c8 0d3e
00000170: 628d f2bb caba a8be e99a 9b3e f151 983d
00000180: a14e 6d3e 7865 0b3e f318 963d 166f b6bd
00000190: 0b0c b6bd 346c 26be b147 c8bc 66ad f1bd
000001a0: 7f5e d4bd 6521 abbd 4b0d d6bd 2328 00be
000001b0: 65c2 d4be db5e 8dbe e5c8 2bbe b393 c43d
000001c0: 0472 a83d d22f fa3d f73c 433e e559 8c3d
000001d0: 79e1 443d 1af0 6fbe cce8 44be bfdb dcbd
000001e0: ee12 d23e 16d5 d03e a6c4 513e 5d0b 8fbd
000001f0: 135f 1dbe 8c0b 41bd 8d21 ddbe 0f46 75be
00000200: 5cd4 d6bd 03df 513f 2737 243f 667d ae3e
00000210: e615 b93d 26d3 593e 2eed be3d 34a2 3bbe
00000220: 5aba 18be 45ef f0ba a1f2 5d3f 88d5 313f
00000230: c779 ab3e ba55 013f 7809 d93e 65be 7b3e
00000240: e4a9 70bf e03a 4bbf 5c78 b0be 9757 91bf
00000250: 6c85 6dbf 823b 10bf e830 25be 112b d1bc
00000260: 4bae 0c3c 09bc 90bd dc5b 4c3b 35f3 90bd
00000270: cff9 6b3f a619 3b3f 6399 cd3e 3c82 e5be
00000280: 4dea 08bf 2dfb 99be 8504 90bf bc60 42bf
00000290: 7240 eebe a372 03bd 5942 24bd 2987 d5bd
000002a0: 4464 f83e 87ec a23e ae55 393e 629b 10bd
000002b0: dd92 ffbd 4197 06be 166c 5fbe c8ae 02be
000002c0: 76b6 5dbd a3b7 203f 0c73 053f fac5 a53e
000002d0: eb05 47bf ee76 34bf eb1d cbbe e7c3 723c
000002e0: f6e5 b83c 9da7 5dbc 2160 8fbd 40f6 dcbc
000002f0: c08c 53be 2a54 3c3f 4ab1 343f 5713 de3e
00000300: b188 373e 7dc6 9c3e cc2c 853e a03f 4f3e
00000310: 06c5 063f 9ff1 c73e 02e4 b73c f2f4 5b3e
00000320: 6f9f 3f3e 19b8 8f3e 6dff fa3e a694 cb3e
00000330: f649 1dbe ad4e 89bd 8ac6 81bd 39ca 323e
00000340: 3259 ee3e 84a6 a93e 102d 4fbe 5add babe
00000350: 8be7 eebd 1f00 c1bc cfe5 513e 5114 02bd
00000360: d9c9 9f3d 63a7 a4ba c006 163d d0fc 813e
00000370: db84 de3e ea9b a23e b396 dabc 937b 9d3d
00000380: 1452 84bc a7d3 03bd 6921 47bc 393e c4bc
00000390: f4f3 c33d 5a11 263e 40ca b73d 298c 403e
000003a0: f973 a93e a30c 423e b280 653d 7ab7 20bd
000003b0: 6ff3 593a 1f75 b93c db86 ed3c 46c3 d6bc
000003c0: e026 14be eae0 da3c bf53 46bd 2912 49bd
000003d0: 0d97 c4bc 8954 88bd c0bd a5be 6161 bfbe
000003e0: c5fb a2be 6c6b 013e 981d ea3e c5e3 a83e
000003f0: 8cba 163e 0eb0 fd3c 8631 d0bc dab2 26bc

backbone.backbone.0.blocks.0.conv2.bias f4 [32]
0.10372859 -0.11422622 0.1352453 -0.21970776 -0.04200058 -0.31854284 -0.33019468 -0.14356007
-0.37586197 0.20115568 -0.14345603 -0.21082047 0.11103118 -0.38857844 -0.13539991 -0.25713935
-0.1978895 -0.023053072 -0.0760069 -0.16778879 -0.16437577 0.06691091 -0.09385487 -0.12217026
-0.093836434 -0.19691038 -0.12793325 -0.00035836094 -0.07419478 -0.16306758 0.044679 0.12265132
00000000: a86f d43d 70ef e9bd be7d 0a3e 12fb 60be
00000010: cd08 2cbd 0c18 a3be 470f a9be 6901 13be
00000020: fb70 c0be c1fb 4d3e 23e6 12be 52e1 57be
00000030: 5164 e33d c1f3 c6be 46a6 0abe c5a7 83be
00000040: 8ca3 4abe ccd9 bcbc 81a9 9bbd d3d0 2bbe
00000050: 1f52 28be 9608 893d fb36 c0bd 6734 fabd
00000060: 512d c0bd e0a2 49be ef00 03be 64e2 bbb9
00000070: 6ff3 97bd 30fb 26be 5401 373d 9e30 fb3d

backbone.backbone.0.blocks.0.skip_conv.bias f4 [32]
0.13312723 -0.01388373 0.25672057 -0.07325761 -0.24328363 -0.08099225 -0.030911053 -0.23847781
0.12486107 0.26833844 0.2172524 0.009744924 0.12414903 -0.058979638 0.07054102 -0.02164422
0.101886265 -0.030954983 0.20391245 -0.016003015 0.20621917 -0.31505737 -0.098749466 0.049504355
0.07433632 0.12799472 -0.00089015404 0.059975527 0.3288692 -0.16398753 0.22091936 0.13841236
00000000: 8152 083e 9678 63bc e170 833e 1608 96bd
00000010: 581f 79be 44df a5bd 2d39 fdbc 8733 74be
00000020: 29b7 ff3d a863 893e 6a77 5e3e 2ca9 1f3c
00000030: d941 fe3d a294 71bd cf77 903d 384f b1bc
00000040: bfa9 d03d 4e95 fdbc 6dce 503e c118 83bc
00000050: 1e2b 533e 334f a1be 293d cabd 14c5 4a3d
00000060: a43d 983d 0c11 033e 3a59 69ba e6a8 753d
00000070: 8b61 a83e 59ec 27be af38 623e f8bb 0d3e

backbone.backbone.0.blocks.1.conv1.weight f4 [32, 32, 1, 3]
0.03925466 0.07409026 0.026054142 0.0781275 0.21601361 0.18684751 0.14240094 0.38766888
0.43530747 0.13123819 -0.09766993 -0.11207032 -0.11753919 -0.112277985 -0.062706344 -0.05380494
0.026695015 -0.23839937 0.045190234 0.1505154 0.10475253 0.049042612 0.06943974 -0.10591777
-0.31716213 -0.47929788 -0.32158917 0.55613065 0.45231152 0.34669513 0.08585417 0.086975984
0.060701508 0.12079242 0.13538128 0.021138992 0.35165352 0.31932902 0.24371235 -0.14940177
-0.18003424 0.077845104 0.15564018 0.0018861511 0.18279168 0.1757382 0.1311694 0.09340037
-0.11693566 -0.10075393 0.05165202 0.13288678 -0.08980137 0.0077027283 0.3312232 0.31234923
-0.11882107 0.029720332 0.08861513 0.17509732 0.11265173 0.29171273 0.3479158 0.04425391
0.083350964 0.0092424685 -0.04039486 -0.14851984 -0.097710975 0.12456587 0.07652382 0.15025333
-0.12304727 -0.08105594 -0.031760257 0.33184075 0.25305268 0.2140984 -0.020427816 0.012916889
-0.050811313 -0.4120265 -0.25987333 -0.10747132 0.18782212 0.2620136 0.010345617 0.018577635
0.036457565 0.010082782 0.062226158 -0.19000578 -0.14919524 0.3171244 0.23995896 0.16253522
-0.34938627 -0.5641204 -0.3705227 0.3614203 0.12294099 -0.12651345 -0.017997116 -0.036210194
-0.07108198 -0.77486175 -0.04953016 0.19174165 0.24904138 0.02484899 0.13358207 0.06728669
0.09127768 0.014688146 0.033516146 -0.19521417 -0.3737937 -0.053058717 0.19204962 -0.27291903
-0.079015635 -0.071287006 -0.57733625 0.12569101 -0.008417377 -0.30325922 -0.05155211 0.075532235
-0.42703012 0.17939815 0.22869085 -0.11741608 -0.04645849 -0.16347 0.06831516 -0.21131875
0.102176905 0.17216372 0.26157176 -0.36080948 0.5426129 0.2454972 0.18674749 -0.06210797
-0.07472403 -0.14142586 0.10325848 0.39035 0.38823995 0.2681303 0.10916916 0.104826435
-0.31195855 -0.13514826 0.018024936 -0.16402903 -0.073083475 -0.04204127 0.030497098 -0.051394068
0.13862306 -0.28406307 -0.4542232 0.014189503 -0.40151665 -0.2598599 -0.055313773 0.0178494
0.018876579 -0.2790231 0.043869622 0.15502098 0.2517228 -0.38831338 -0.0920822 -0.002129574
0.37944368 -0.2894618 -0.1628351 0.06290724 -0.20644021 0.13784361 0.023728902 0.3746112
0.17279646 0.30946898 0.289535 -0.101980224 0.3180623 -0.1834581 -0.17394024 -0.75152105
0.037939567 0.070363335 -0.23312543 -0.24075738 0.45684665 0.5568007 0.071315065 -0.35329872
-0.27812314 -0.3282268 0.22960101 0.40569654 -0.013416032 -0.08401256 -0.3753822 -0.1053874
0.3479404 -0.18724364 -0.1368661 0.055221558 -0.019182803 0.1317176 -0.042112604 -0.25265706
-0.4562334 0.5102662 0.26660156 0.1989974 -0.53396755 -0.86535645 -0.04241023 -0.069057435
-0.30527896 -0.123018585 -0.003483616 0.39106002 0.11849801 -0.26459268 -0.37686026 0.108404964
-0.12755878 -0.35714898 -0.20554218 0.18192448 0.19009826 -0.009334453 0.114189506 0.13049746
0.12283533 -0.022054175 -0.24324477 -0.05883564 0.18212762 0.4146853 -0.038723893 0.10497772
0.17229801 -0.17802137 0.08559537 -0.14878611 0.0316563 -0.05280902 -0.21847674 -0.067417435
00000000: 7fc9 203d a2bc 973d 7f6f d53c 5001 a03d
00000010: ac32 5d3e f454 3f3e 8dd1 113e 897c c63e
00000020: 9fe0 de3e 4e63 063e 2c07 c8bd 2085 e5bd
00000030: 63b8 f0bd 00f2 e5bd 2f6c 80bd 9262 5cbd
00000040: 81af da3c f71e 74be 6519 393d b620 1a3e
00000050: 7f88 d63d e8e0 483d 6c36 8e3d 6aeb d8bd
00000060: 1363 a2be 8866 f5be 56a7 a4be 945e 0e3f
00000070: 6095 e73e 0682 b13e 50d4 af3d 7720 b23d
00000080: 25a2 783d 0462 f73d 64a1 0a3e ae2b ad3c
00000090: ee0b b43e 187f a33e bb8f 793e c7fc 18be
000000a0: e55a 38be 416d 9f3d 2460 1f3e bb38 f73a
000000b0: be2d 3b3e b7f4 333e 4551 063e b148 bf3d
000000c0: f77b efbd 1458 cebd 1291 533d 7913 083e
000000d0: c8e9 b7bd 2b67 fc3b 1696 a93e 3dec 9f3e
000000e0: 7658 f3bd 0e78 f33c d97b b53d b64c 333e
000000f0: f3b5 e63d 5f5b 953e 0522 b23e 9743 353d
00000100: e9b3 aa3d b96d 173c 1575 25bd 9615 18be
00000110: b11c c8bd 641c ff3d 85b8 9c3d 02dc 193e
00000120: 3500 fcbd a800 a6bd 0b17 02bd 08e7 a93e
00000130: 1f90 813e 9c3c 5b3e 3c58 a7bc 5ca1 533c
00000140: 861f 50bd 23f5 d2be 1e0e 85be ec19 dcbd
00000150: 7154 403e a626 863e aa80 293c 2030 983c
00000160: 8754 153d 4132 253c dbe0 7e3d e090 42be
00000170: a3c6 18be 215e a23e cdb7 753e a26f 263e
00000180: c2e2 b2be 326a 10bf 27b5 bdbe 150c b93e
00000190: 7cc8 fb3d be8c 01be b06e 93bc 2451 14bd
000001a0: 6e93 91bd 575d 46bf 23e0 4abd ec57 443e
000001b0: b404 7f3e 1c90 cb3c bdc9 083e 9bcd 893d
000001c0: cbef ba3d 8da6 703c 3a48 093d 39e6 47be
000001d0: e361 bfbe 1954 59bd a8a8 443e 0bbc 8bbe
000001e0: f3d2 a1bd ecfe 91bd 4fcc 13bf 25b5 003e
000001f0: 0ae9 09bc cb44 9bbe 4e28 53bd a5b0 9a3d
00000200: b1a3 dabe 26b4 373e ef2d 6a3e d777 f0bd
00000210: 424b 3ebd ae64 27be d2e8 8b3d f163 58be
00000220: 2042 d13d b04b 303e bcec 853e 05bc b8be
00000230: aee8 0a3f 9e63 7b3e bc3a 3f3e ed64 7ebd
00000240: ea08 99bd f1d1 10be 2f79 d33d f5db c73e
00000250: 63c7 c63e 6048 893e 1594 df3d 3eaf d63d
00000260: 08b9 9fbe 4e64 0abe 08a9 933c 3af7 27be
00000270: caac 95bd 7733 2cbd 0dd5 f93c 9682 52bd
00000280: 34f3 0d3e b770 91be f18f e8be 177b 683c
00000290: 9793 cdbe 5b0c 85be b290 62bd e838 923c
000002a0: 0ea3 9a3c 1edc 8ebe a2b0 333d d2bd 1e3e
000002b0: d0e1 803e 03d1 c6be 9895 bcbd 5390 0bbb
000002c0: 7146 c23e 5634 94be 3fbe 26be 83d5 803d
000002d0: 1065 53be e026 0d3e 1d63 c23c 0acd bf3e
000002e0: 8ef1 303e b872 9e3e ee3d 943e 02db d0bd
000002f0: 10d9 a23e 71dc 3bbe 641d 32be af63 40bf
00000300: 8566 1b3d a71a 903d 6fb8 6ebe 1a89 76be
00000310: cee7 e93e 7e8a 0e3f a20d 923d 92e3 b4be
00000320: 2866 8ebe 580d a8be 871c 6b3e 75b7 cf3e
00000330: ebce 5bbc c70e acbd 1932 c0be 59d5 d7bd
00000340: 3e25 b23e ccbc 3fbe a026 0cbe 0030 623d
00000350: 4125 9dbc fbe0 063e 447e 2cbd 445c 81be
00000360: 6d97 e9be cea0 023f 0080 883e f9c5 4b3e
00000370: 19b2 08bf 0088 5dbf 59b6 2dbd fc6d 8dbd
00000380: 864d 9cbe 2bf1 fbbd 614d 64bb 0539 c83e
00000390: 16af f23d b178 87be d4f3 c0be 6c03 de3d
000003a0: c59e 02be 3bdc b6be a679 52be 694a 3a3e
000003b0: 1ea9 423e 89ef 18bc 30dc e93d 20a1 053e
000003c0: 1791 fb3d f5aa b4bc 2815 79be a4fd 70bd
000003d0: aa7f 3a3e a251 d43e f29c 1ebd 8ffe d63d
000003e0: e46e 303e 3c4b 36be a04c af3d 635b 18be
000003f0: 09aa 013d 454e 58bd 5eb8 5fbe 2712 8abd
