model_parameter/traffic/GraphWave_final.pth (torch, 244654 bytes, 63 tensors)

embedding.traffic_embedding.0.weight f4 [32, 1]
000000 57 1c 7a 3e 15 b6 46 3f 1e 69 68 3e 8c e6 38 3f
       0.24424873 0.77621585 0.22696349 0.72226787
000010 af c3 33 be 27 21 9b 3e 6a eb cc be 4b 4e 85 bc
       -0.17555116 0.3029873 -0.40023357 -0.016272685
000020 61 27 89 3f ab c3 04 3f 6b 59 93 bf 28 dd 67 3f
       1.0715142 0.51861066 -1.1511663 0.9057183
000030 08 2a 71 3f 03 2b d1 3e 79 8e 49 3f 6e ae 91 3f
       0.9420476 0.40853128 0.7873302 1.1381357
000040 7c 64 00 bf 97 75 9c bf 7d 2b a3 be d3 2c 2a 3f
       -0.50153327 -1.2223386 -0.31869116 0.66474646
000050 92 20 70 3f ee 44 e3 be 2c 5c 5a bf a7 44 f3 3d
       0.937997 -0.44388527 -0.85296893 0.11878329
000060 7e c5 6a 3e c2 70 23 bf 8e 17 05 bf dc c0 f2 3e
       0.229269 -0.6384393 -0.51989067 0.47412765
000070 59 a6 ca be a1 e4 aa 3e 49 b0 05 3f 65 81 1d 3f
       -0.39580038 0.33377555 0.52222115 0.61525565

embedding.traffic_embedding.0.bias f4 [32]
000000 33 16 07 3e 69 9c 81 3f d1 33 de 3e 51 ec 83 3f
       0.13192062 1.0125858 0.43398908 1.0306493
000010 34 b2 1a 3d 44 76 74 3e 97 55 44 bf 2b 66 58 3e
       0.037767604 0.2387324 -0.766931 0.21132724
000020 89 71 6e be 89 da 55 3f 7b 4c 73 3e 1f 09 6a bf
       -0.23285498 0.83536583 0.23759644 -0.9142017
000030 3c 13 16 3e 29 6f 1a 3f 06 99 42 bf 58 74 b4 be
       0.14655775 0.60325867 -0.76014745 -0.35245013
000040 11 7b b2 3e 86 c8 4d 3f 7e 9e 97 be 6a 00 2d 3f
       0.34859517 0.803841 -0.29613107 0.67578757
000050 e8 36 5f bf 8a 32 02 3f 20 cc 0f 3f 48 05 1e 3e
       -0.87193155 0.50858366 0.56170845 0.15431702
000060 25 16 b9 bd 49 9c df be 62 fd a1 bd 58 00 ea be
       -0.09037427 -0.43673924 -0.07909657 -0.45703387
000070 3e 0f a9 3e 98 32 ec 3e 58 57 52 3f 72 41 10 bf
       0.3301944 0.4613235 0.82164526 -0.5634986

out.linear.layers.0.weight f4 [32, 32]
000000 7e 7b 43 3e 91 b2 86 3e f8 64 cf bd 23 2a 7e bc
       0.19090077 0.2630811 -0.1012668 -0.015512976
000010 c4 c7 cf 3a 44 2f 80 bd 87 d1 cf bd f1 99 db 3b
       0.0015852381 -0.06259015 -0.10147386 0.006701701
000020 39 96 70 3d a7 90 96 be 87 ff 8e bd fe 24 2c 3e
       0.058737013 -0.29407236 -0.06982332 0.16810986
000030 eb f1 c2 bd 72 e4 41 bb e7 bb ca bd b9 77 e8 3e
       -0.095187984 -0.0029585627 -0.09899121 0.4540384
000040 4f 5e 9f 3c cc 24 4f 3e 58 22 df 3d 45 8c 69 3d
       0.01945415 0.2022888 0.108952224 0.057018537
000050 dc 13 b4 3c 69 6a e2 3c 0f 3e 9f bc 86 3e c4 3e
       0.021982126 0.027638631 -0.019438772 0.38328952
000060 43 e5 e8 3c d3 3e 4f bc e6 e3 b4 3e 42 12 69 3d
       0.028429633 -0.012649256 0.35330123 0.056902178
000070 a8 2b e4 3c 24 ce 26 bd 34 a1 0b 3e 53 77 86 bc
       0.027852848 -0.040723935 0.13635713 -0.01641432
000080 f1 64 26 3d 95 01 8f be 7f 13 2d bd e7 7f cd bd
       0.04062361 -0.27930894 -0.04225492 -0.10034161
000090 ee 01 d5 bd 13 1c 74 3c eb c1 d3 3d 72 ec 59 3e
       -0.10400759 0.014899272 0.10339721 0.21281603
0000a0 bc 8f bf 3d b6 64 80 bc 5d b9 01 be aa cd fc 3c
       0.09353587 -0.015673023 -0.12668367 0.030859787
0000b0 f5 8f 1d be a0 09 23 be 5d a6 b9 bc d0 42 f5 bd
       -0.15386946 -0.1592164 -0.022662336 -0.11975634
0000c0 bf bf 64 be 95 27 3e be e1 ad d2 3d 0d 56 0b be
       -0.2233877 -0.18569787 0.10287071 -0.13607045
0000d0 c5 ee 00 3e 40 bc 39 bd dc f0 9a 3d 17 6a 93 bd
       0.12591083 -0.045345545 0.075654715 -0.071979694
0000e0 9a 39 4f 3e 25 bf 05 3e cd 26 ae bd 4c 37 0a be
       0.20236817 0.13061197 -0.085034944 -0.13497657
0000f0 f7 41 17 3e d6 4e a0 3e 9f 5f 24 be d9 81 b1 bd
       0.14771257 0.31310147 -0.16052102 -0.086673446
000100 75 da 80 bb af ff f0 bc 32 52 ed 3d 3f b9 51 be
       -0.003932292 -0.029418794 0.11587943 -0.20480822
000110 0c 20 b3 3d 03 5f 06 3e ac 01 4a 3d 5c 98 b8 bc
       0.08746347 0.13122182 0.049318 -0.022533588
000120 97 fb 9a 3d ce 8c 3d 3e dc 92 65 bd 9b 89 9c be
       0.07567518 0.18510744 -0.05604826 -0.30573735
000130 1b 20 2f bd 62 68 fd bd 78 87 de bd b2 bf 21 be
       -0.042755228 -0.12373425 -0.10865682 -0.15795782
000140 5a d4 4e 3e db ce e3 be e9 1a 7e 3e e8 c5 58 bd
       0.20198193 -0.44493756 0.24814953 -0.052923113
000150 0d ca 13 be ec c1 6f 3b 66 45 8e 3d 1b 57 8d 3d
       -0.14432545 0.0036584092 0.069468305 0.0690138
000160 13 a7 1a 3e 62 c8 f7 3c 7e d8 a2 be 79 90 fc bd
       0.15102796 0.030246917 -0.31805795 -0.123322435
000170 74 e3 f5 3d 50 6f c8 bd 98 dc 6c bc 13 b0 71 3e
       0.12006274 -0.09786856 -0.0144568905 0.23602323
000180 5f 7d 53 bc 4f f2 11 be b4 af 8d bd 3a 69 7f be
       -0.012908309 -0.1425259 -0.06918278 -0.24942484
000190 70 73 85 3d 7a 63 4c 3c b7 a4 52 be e0 a6 ba bd
       0.065161586 0.012474889 -0.20570646 -0.0911386
0001a0 9f 9e 1b 3d 8a 81 64 3d 3a 0d 83 3d 83 49 b1 bd
       0.03799307 0.0557876 0.06399007 -0.086565994
0001b0 e2 01 e7 bd 59 6d e3 3d bd 1e 1c 3e 0b db 16 be
       -0.11279656 0.11104841 0.152461 -0.14731996
0001c0 44 d5 6e bb b4 05 5e bd 0f 41 2b be 79 d5 2c 3e
       -0.0036443034 -0.054204658 -0.16724037 0.16878308
0001d0 be 09 9f 3e b6 1e 4c 3e 4b 9b c2 bc 73 aa b3 3e
       0.3106212 0.1993359 -0.02375569 0.3509098
0001e0 e4 92 6c 3e 07 96 6f be 02 ba 8a 3d 3a 74 72 3e
       0.2310291 -0.23397075 0.067737594 0.2367715
0001f0 0e c5 9d 3e 37 e9 08 be 37 11 db bd 43 a9 53 3c
       0.30814403 -0.13370214 -0.10696643 0.012918773
000200 b1 c4 ad bc d1 5c 14 3e 9c 13 74 3e 9f fe 5a be
       -0.021211954 0.14488532 0.23835605 -0.21386193
000210 9f 22 9e 3b 8d 8f c5 bc e0 1f a7 bd d5 82 21 3e
       0.0048259045 -0.024116302 -0.081603765 0.15772565
000220 66 64 1c be be 09 cb 3e a0 9c a6 3d 1e a5 1a 3b
       -0.15272674 0.3965587 0.081353426 0.0023596953
000230 4b 76 92 3e 93 c5 8e 3d c2 19 38 ba 7d 15 be 3c
       0.28605875 0.06971278 -0.0007022881 0.023203606
000240 39 42 92 bd f4 91 bf be 01 7e e6 bc e8 ef 1d bd
       -0.07141537 -0.3741604 -0.028136255 -0.03855887
000250 69 bb 33 be cf 4e ee 3d c2 19 10 3e b7 6d 32 bd
       -0.1755196 0.11636125 0.14072326 -0.043561663
000260 73 a2 33 3e 4e 28 61 3e da 07 66 be a2 78 56 3b
       0.17542438 0.21988031 -0.22463933 0.0032725711
000270 37 ee 18 3e 37 17 3a be 34 dd ce 3d 8a 39 27 be
       0.14934622 -0.18172918 0.10100785 -0.16330543
000280 7b cf 77 3e 06 5b 45 3e 8d e6 46 3d 33 b0 e2 3d
       0.24200241 0.19273004 0.048559714 0.110687636
000290 2b ec 09 be 62 b5 43 3e f6 20 a7 3d a4 c7 fd bc
       -0.13468997 0.19112161 0.08160584 -0.030978985
0002a0 74 62 10 3d bd ae cf 3d ff eb 2c bd ef 96 90 bd
       0.035250142 0.101407506 -0.04221725 -0.07060038
0002b0 b9 ce 35 be fb 2d 0d be 8d b9 3b be ad 6c 64 bc
       -0.1775464 -0.13787071 -0.18332501 -0.013941926
0002c0 27 27 a4 bd 61 55 1f be 67 a5 bb bd 15 db 18 3e
       -0.0801528 -0.15559913 -0.09162407 0.14927323
0002d0 1c 2d 3c 3e fa 82 1f be 15 ab 25 3e f2 c4 df bc
       0.18376583 -0.15577307 0.16178544 -0.02731559
0002e0 d0 92 0b 3e a3 b0 08 3f 62 47 98 be 7d a1 1a be
       0.13630223 0.53394526 -0.2974196 -0.15100665
0002f0 4f 1a 92 3e f8 dc b9 3e e6 11 b1 bd 00 8b e7 bd
       0.28535697 0.36301398 -0.08645992 -0.11305809
000300 26 ef 44 3d 56 f4 88 bd 86 1f 9d 3d 8e 98 0f 3e
       0.048079632 -0.066872284 0.07672028 0.14023039
000310 dc 2d 83 bd 25 c2 2f be 37 7a d6 bc d9 93 d7 3d
       -0.06405231 -0.17163904 -0.026181323 0.105262466
000320 89 25 14 be 4c f3 6f bd 86 c9 55 bd 9a bb 4d 3d
       -0.14467444 -0.058581635 -0.05219414 0.05022774
000330 01 d2 d6 3d b2 5f 7c be 16 47 cb bd e9 28 af 3d
       0.10489274 -0.2464588 -0.09925668 0.08552725
000340 f0 5d 0d be 6c 10 48 be 53 07 6f 3e 6b d5 c9 3d
       -0.13805366 -0.19537514 0.23342638 0.09855159
000350 52 94 5e be e5 7a d7 bd b5 80 44 3d f7 ed 99 bd
       -0.21736267 -0.10521487 0.047974307 -0.07516091
000360 60 5d f8 3d dc 36 9c bd b6 dc f0 bd ff 60 03 be
       0.12127185 -0.07627651 -0.11760847 -0.1282997
000370 a9 5a 0c be e9 d3 91 3d 87 c1 21 be 8a e8 5d bc
       -0.13706459 0.07120497 -0.15796481 -0.013544211
000380 a8 e6 ce be c7 20 c4 bd fb ac 62 3e 16 94 04 bc
       -0.40410352 -0.09576564 0.221363 -0.008091947
000390 aa 16 5b be 7b d3 1d 3e a2 46 1f 3e af 7d a7 bd
       -0.21395364 0.15412705 0.15554288 -0.08178269
0003a0 76 5f df 3e 37 37 83 be b7 de 66 3d 55 4e 24 be
       0.43627518 -0.25628063 0.05636474 -0.16045506
0003b0 64 4c 68 3e 7c a5 5f 3d e1 3d 2e 3d 74 0b e1 bd
       0.2268539 0.054601178 0.04253948 -0.10988513
0003c0 a3 c3 80 be 64 af f7 bd be 9a 80 be 80 bc 66 be
       -0.2514926 -0.12094 -0.2511806 -0.22532845
0003d0 dd 6c 2e 3d a8 ab fd bd 0b d9 50 be 2b ce b6 be
       0.04258429 -0.123862565 -0.20395295 -0.3570417
0003e0 c7 63 46 bd 5a 95 cf 3e 81 25 b2 3c c4 4d 0d 3d
       -0.048435 0.40543634 0.021746399 0.03449799
0003f0 05 61 58 ba 3f ad 85 3e 35 2c 14 3e 26 9a 03 be
       -0.0008254203 0.2610874 0.14469989 -0.12851772

out.linear.layers.0.bias f4 [32]
000000 e9 fd fe 3d 90 7b 10 be 93 5d 4a 3e 74 f3 52 be
       0.12450773 -0.14109635 0.19762258 -0.20600682
000010 b6 d7 95 bd 75 87 1c 3e 97 c7 3b 3d 93 ef d1 bd
       -0.07316534 0.15286048 0.04584464 -0.10250773
000020 43 e3 4f bc 8f f9 7e bd 7e 0d 16 3e c9 c9 42 3d
       -0.012688461 -0.062249716 0.14653584 0.04755572
000030 f9 e9 b3 bc b2 ee 0b be 85 64 0b be 4f ce a2 be
       -0.021962153 -0.13665274 -0.13612564 -0.31798026
000040 80 87 98 bd 6d b6 ff bd 68 b2 3b bc dc bb 82 3c
       -0.074477196 -0.12485967 -0.01145611 0.015958719
000050 d9 f6 25 bd 8c de 8e 3e 31 77 98 bd a9 be 04 be
       -0.040518615 0.27904165 -0.07444609 -0.12963356
000060 53 e7 9b 3d 8d be 03 be 10 6e f3 bd 03 c7 9a 3e
       0.07612481 -0.12865658 -0.11886227 0.3022996
000070 06 ac 53 3d a2 d4 b8 bd 8e de 41 3d 70 ce 2b 3e
       0.051677726 -0.090249315 0.047331385 0.16777968

out.linear.layers.2.weight f4 [32, 32]
000000 5b 00 10 3e 60 20 9e bf 87 68 00 bf f6 80 18 be
       0.14062636 -1.235363 -0.50159496 -0.14892945
000010 fc 32 4f bf 77 86 57 bd d9 a8 c2 be f8 fc 1b 3e
       -0.8093717 -0.05261847 -0.38019446 0.15233219
000020 2e 93 50 bd 8f 0c 6d 3e 3d e3 8b be 65 3d 13 bf
       -0.05092161 0.23149322 -0.27321807 -0.57515556
000030 1a 3f 5f 3e 65 92 41 be 1e a3 91 bf bb 1b 0b bf
       0.21801415 -0.18903501 -1.1377904 -0.5433919
000040 30 73 38 3e 32 26 8d 3d 00 ce 0e 3f 00 3d 09 bf
       0.1801269 0.06892051 0.5578308 -0.53608704
000050 d1 03 03 3e 0a 86 90 bd 04 b1 85 be ef cb 9d bd
       0.12794425 -0.07056816 -0.26111615 -0.07704913
000060 b9 44 f9 bd 76 45 ab bf 29 14 30 3e e9 14 9d 3d
       -0.12171311 -1.3380573 0.1719519 0.07670004
000070 d1 54 dc bc 3c 59 08 3e 8d ce 07 be 73 ba 70 bd
       -0.026895912 0.1331529 -0.13262387 -0.05877156
000080 06 54 27 3e f2 79 b6 bc 0d 02 9a be 37 f7 3c be
       0.16340646 -0.022274945 -0.3007969 -0.1845368
000090 9f fa ea bd 85 dd af bb e1 fa 87 bd ad 54 88 bd
       -0.114735834 -0.0053669834 -0.06639648 -0.066567756
0000a0 3f df 8a bd e8 f9 d0 3d bd 49 09 bf e2 9f c3 3d
       -0.06780862 0.10203916 -0.5362814 0.095519796
0000b0 b0 63 4b 3e 2a b8 ce bc 71 b1 e5 be ce ac af 3c
       0.19862247 -0.0252343 -0.4486194 0.021444704
0000c0 de 35 19 3e c7 78 72 3e e0 a6 69 be 9c a6 05 bf
       0.14961955 0.23678885 -0.22817564 -0.5220735
0000d0 74 13 ab 3e b0 1f 37 3d 42 14 71 3d 5d 58 9b be
       0.3341328 0.044707954 0.05885721 -0.30340853
0000e0 3d 7e dd bd 44 8a f8 be ce 9e 0c 3e 3f 9f f9 bd
       -0.10815094 -0.48542988 0.13732454 -0.12188577
0000f0 a4 41 56 3d ce 14 95 3d 93 c5 22 be c1 cd 27 bd
       0.052308694 0.07279359 -0.15895681 -0.040967707
000100 81 53 35 bd 22 f6 41 3e 96 a6 32 3d f6 2e e2 be
       -0.04426909 0.18941548 0.0436159 -0.44176453
000110 b1 4f 95 be e0 40 27 be 31 d1 97 3d af 75 09 bd
       -0.29162362 -0.16333342 0.07412947 -0.033559497
000120 eb fb e6 3d da 3f bd 3c 16 19 b6 3d 32 88 32 3e
       0.11278518 0.023101736 0.088915035 0.17434767
000130 dc a8 37 3d c4 f7 b0 3d 5a 73 28 3e f9 21 1e bc
       0.04483877 0.086410075 0.16450253 -0.009651654
000140 56 1b 5e 3e 70 2d 11 be 49 67 1c bd 30 fd 80 3e
       0.21690115 -0.1417749 -0.038184438 0.25193167
000150 32 10 4f 3e ea 42 a1 bd 44 f8 b4 bc ce 91 e0 bd
       0.20221022 -0.07874091 -0.022091039 -0.1096531
000160 49 1e d2 be 88 4e 31 3d 02 df a0 bc bd 2a 37 be
       -0.4103873 0.043287784 -0.019637588 -0.17887397
000170 f9 1f 1f be e7 bf 5c 3e 15 a5 64 be 3c 95 b5 bd
       -0.1553954 0.2155758 -0.22328599 -0.08866355
000180 9c 33 18 bf 54 ac c0 be 4a a3 49 be be 82 88 3d
       -0.5945375 -0.37631476 -0.19691196 0.06665562
000190 db 30 5e 3f 62 5b 0d bf f7 67 40 be 56 12 16 bf
       0.867933 -0.55217564 -0.1878966 -0.5862173
0001a0 19 d9 7b 3e 83 3d 6d 3c e6 8c ec 3d de 4f 15 bf
       0.24594535 0.014479998 0.11550312 -0.5832499
0001b0 62 f6 08 bf 2f a7 1d bd b6 46 07 3d fc f9 12 3f
       -0.5350095 -0.038489517 0.03302642 0.57412696
0001c0 8e a3 de be 9f 73 c6 3c ad 05 a3 3e d1 49 bb 3e
       -0.43484157 0.024225054 0.31840268 0.36579755
0001d0 f7 53 00 bf de a3 1c be 84 25 ed be 3c 66 ea 3e
       -0.5012812 -0.15296885 -0.46317685 0.45781124
0001e0 72 3b a7 3d 21 7b 29 3e ca 78 12 bd f0 b7 8d 3d
       0.08165635 0.16550876 -0.035759725 0.06919849
0001f0 54 80 0d 3c 2b 6a 83 bf 2c dc e2 3d 7d 36 be 3c
       0.008636553 -1.0266775 0.11077151 0.023219341
000200 c8 73 36 bd fc fa b5 3d 30 d7 23 bc 5c 3b 64 bb
       -0.04454401 0.08885762 -0.010000035 -0.003482542
000210 74 a0 ff bd dc 52 6b be fe 33 04 3e 04 ca 84 bd
       -0.12481776 -0.22980827 0.12910458 -0.06483844
000220 07 92 d3 3c 5b d2 75 be bf 8c 1e 3d 03 ea c2 3c
       0.025826467 -0.24006025 0.038708445 0.023793226
000230 08 ea 28 3e 38 7f 0d be 32 46 15 3d e0 6b 5c bd
       0.16495526 -0.13818061 0.036443897 -0.053813815
000240 8f d7 2e 3e f4 84 71 be de 9c 5f 3e 1c 3d 99 3e
       0.17074417 -0.23585874 0.21837184 0.29929435
000250 dc 82 69 3e 50 99 8b 3d 46 23 8f be dd 17 b0 bd
       0.22803825 0.068163514 -0.279566 -0.085983016
000260 fd 5b bf 3d 01 5d 15 3e d2 bb 07 3e 52 6b dc 3d
       0.09343717 0.1458626 0.13255242 0.10762657
000270 e5 c1 d1 bd 1b 14 0c bf c3 30 54 be c2 68 c3 3d
       -0.102420606 -0.5471818 -0.20721726 0.09541465
000280 8b fb a0 3e 07 f2 1d be d7 01 2b be 34 52 2a be
       0.31441912 -0.15424357 -0.1669992 -0.1663292
000290 b4 fa 21 be 58 24 b1 be 25 2b 6c 3d 25 5f ad bd
       -0.15818292 -0.3459804 0.057658333 -0.08465413
0002a0 df 3d 1e be 35 e1 94 be 0b d9 e6 bd bb 8e 8b be
       -0.1545329 -0.2907807 -0.112718664 -0.27257332
0002b0 9e 4b 9a 3d 16 b8 13 be 00 05 9a be 70 a9 8c 3e
       0.07533954 -0.14425692 -0.3008194 0.2747302
0002c0 2e b4 d4 bd cf ab d2 3d 08 9d ba be 1f 8b a8 be
       -0.10385929 0.10286676 -0.3644793 -0.3291864
0002d0 a9 5f a6 3e a8 c6 42 3e ac a0 cf be 2a b6 6e be
       0.32494858 0.19021094 -0.4055227 -0.23311678
0002e0 4d c2 66 3d 52 4c 19 be eb bd f3 be 40 a3 36 be
       0.056337643 -0.1497052 -0.47605833 -0.17835712
0002f0 67 00 d4 bd 5f 16 28 3d c8 9c 7c 3e d0 f5 25 3e
       -0.10351639 0.04103696 0.24669182 0.16207051
000300 a3 69 2d 3d ff 53 02 3e f1 d8 2e 3e d4 18 cb bd
       0.04233707 0.12727354 0.17074944 -0.09916845
000310 dd 7e 33 bd 1b 14 6d be f0 3f 80 bd 1b 35 29 3d
       -0.043822158 -0.23152201 -0.06262195 0.04131041
000320 c6 37 bc bd 58 de 53 be e3 5c 69 bd ea 3f 59 bd
       -0.091903254 -0.20690286 -0.05697335 -0.05303947
000330 0c 66 83 bd d0 ca c8 3d c5 cc 5d 3d 2c 09 ca be
       -0.06415948 0.098043084 0.05415036 -0.39460123
000340 f9 c6 15 be fc b0 fb bd 73 5b 62 3e da 03 41 be
       -0.14626683 -0.122896165 0.22105198 -0.18849126
000350 ae d2 72 bd 50 3f a9 3d c5 79 39 3d e6 23 c0 bd
       -0.05928295 0.08264029 0.045282144 -0.09381847
000360 99 ae 4f 3e 6b d3 1d 3d 40 0a ad 3d a9 52 9f bd
       0.20281447 0.038531702 0.08449221 -0.07779438
000370 14 73 83 be 70 09 76 be e6 66 4b 3e a0 b2 b0 3d
       -0.25673735 -0.24027038 0.19863471 0.0862782
000380 1e d7 4a bd 6d 45 52 3e f8 e8 43 bc 23 91 aa be
       -0.049521558 0.20534296 -0.0119574 -0.33313856
000390 7d 38 e0 be c6 e8 aa bd 7f c6 92 3c 97 1c 41 be
       -0.43793097 -0.08345179 0.017916916 -0.18858562
0003a0 bc 05 59 bd 3e 82 b6 3d 9c 3b 56 3e 13 45 c9 bd
       -0.052983984 0.089115605 0.20921177 -0.09827628
0003b0 4c 34 33 3c 59 51 c7 3d df e6 76 3e 16 23 25 3e
       0.0109377615 0.09732313 0.24111508 0.16126665
0003c0 19 a1 7c 3c b5 d4 e0 be ca 39 1d 3e 62 59 c3 3e
       0.015419268 -0.43912283 0.15354076 0.3815413
0003d0 11 05 20 3e fc 66 ac be 25 aa 37 be 32 05 2b 3e
       0.15626933 -0.3367232 -0.17935999 0.167012
0003e0 33 64 3c be 5e 50 4f 3e a8 05 b2 be b3 88 b6 3e
       -0.18397598 0.20245501 -0.3476994 0.35651168
0003f0 32 37 c6 be 47 2d 94 3e 9b 63 fc bc 18 c5 85 bd
       -0.38713986 0.28940794 -0.030809214 -0.06531733

out.linear.layers.2.bias f4 [32]
000000 9b ae 82 be e0 78 23 3e 95 99 74 3e 71 2e 82 bd
       -0.25523838 0.15964079 0.23886712 -0.06356514
000010 27 0c 93 3e 8f 33 b8 3e 64 ac 9a 3e c9 f0 34 be
       0.2872021 0.35976836 0.3020965 -0.17669977
000020 dc e6 ce bd a5 13 ab 3d 9c 8f 43 3e 1b 73 21 bd
       -0.10102627 0.08353356 0.19097751 -0.039416414
000030 56 d6 68 bc 64 5b f0 3d 2b 60 88 3b a4 eb 1d 3e
       -0.014211258 0.117361814 0.0041618547 0.15421921
000040 b7 4d a7 bd 2d 94 0b be 09 95 b9 3d ad a0 9f bd
       -0.0816912 -0.13630743 0.09061629 -0.07794318
000050 84 01 dc bd e7 f5 17 be 2c 35 98 be a0 83 09 3e
       -0.107424766 -0.14839898 -0.29728067 0.13429117
000060 0f 68 6b 3e 60 6c 80 3c b5 5f a2 bd 84 39 8a 3c
       0.22988914 0.015676677 -0.07928411 0.016873129
000070 9a 04 07 bd b7 4a 61 bd 42 e6 17 3d 3d 7a 34 3d
       -0.032963373 -0.055002894 0.037084825 0.044061888

out.linear.layers.4.weight f4 [32, 32]
000000 85 9b a4 3e eb 0c 92 3e ae c7 54 bd d6 04 f5 be
       0.32149902 0.2852548 -0.051948242 -0.47855252
000010 4b 61 02 3e b2 a1 af be c8 45 70 be e8 f6 51 bd
       0.12732427 -0.3430305 -0.2346412 -0.05126086
000020 97 8c 9f 3e 91 54 9e 3d 07 c0 2e 3e 00 17 b9 bd
       0.3116195 0.077309735 0.1706544 -0.0903759
000030 15 91 dd 3e 0c a0 10 be 52 ea 5c be 29 e7 35 3e
       0.4327475 -0.14123553 -0.21573761 0.17763962
000040 82 73 98 3d 56 c0 60 3d d7 89 a0 be 2e fe 2b bd
       0.07443906 0.054870926 -0.31355163 -0.04199045
000050 0a 02 52 3e ff 0c c3 be 1a 85 90 be 68 cc 42 3e
       0.2050859 -0.38095853 -0.28226548 0.19023287
000060 24 62 31 3e 93 4f 93 3d e4 e0 3e bf bb c8 bd 3d
       0.17322594 0.07192912 -0.74561906 0.09266802
000070 67 17 32 be 3c 73 75 3e 4d f0 3f 3e be dc f5 be
       -0.1739174 0.2396974 0.18744011 -0.48019975
000080 49 ba a9 be dd 54 67 bd 19 72 6b 3d 7e 07 7a 3e
       -0.33149937 -0.056477416 0.05748186 0.2441692
000090 76 54 84 3d 2c 4f 34 bf 0e 98 27 bd 49 e9 93 3d
       0.06461422 -0.70433307 -0.040916495 0.0722223
0000a0 03 84 52 3e 8f 0e fc 3d 27 b7 c1 bc a0 72 84 bc
       0.20558171 0.12307464 -0.023646904 -0.016167939
0000b0 2f 68 c8 3e f0 04 36 bc 30 20 68 be 08 94 bd 3e
       0.39141986 -0.011109576 -0.22668529 0.37027
0000c0 df 1f e1 bc d5 0c 3b be 82 25 5f bc 18 af a4 3d
       -0.027481018 -0.18266614 -0.013619782 0.08041209
0000d0 72 42 12 3c d1 96 be bd a2 b7 6a 3e 3e 47 18 3e
       0.008926975 -0.0930611 0.22921613 0.14870927
0000e0 40 20 d2 3e 53 6c 59 bd e9 34 74 bf 85 f6 cc 3d
       0.4104023 -0.05308182 -0.95393234 0.10007957
0000f0 1d 52 fe be 79 10 b3 3d 1d 60 6b 3d 87 6a eb bd
       -0.49672022 0.08743376 0.057464708 -0.11494928
000100 dc 48 99 3e bb d6 40 be ae 61 31 3e d1 3c 8c 3e
       0.299384 -0.18831913 0.17322418 0.2739015
000110 c8 24 59 3e de 7a 81 bf da 08 1b bd 5f 7a 6b be
       0.21205437 -1.0115621 -0.03785024 -0.229959
000120 53 1f b6 3d 14 ed ac ba 95 89 35 3e 45 a6 fd 3d
       0.08892693 -0.0013193213 0.17728265 0.12385229
000130 8f 27 93 be 5b 4c 03 3d 48 96 b1 be 92 7c bf be
       -0.28741118 0.03205524 -0.34684968 -0.37399727
000140 13 6b 47 3e 90 b9 ab be e1 41 3c be 56 c1 ad 3e
       0.1947444 -0.3354001 -0.18384506 0.33936566
000150 36 8e f8 bb 2d e7 db 3d a5 06 50 3e d7 85 ad 3d
       -0.0075853122 0.10737453 0.20315035 0.084727935
000160 f3 56 25 be a6 93 25 3e 37 06 1d bf a6 3a 91 bd
       -0.1614645 0.16169605 -0.6133761 -0.070912644
000170 fb 43 9d 3a 4a ad 6f be 6e 4a ee bd 38 cd b7 3d
       0.0011998409 -0.23405948 -0.1163529 0.08974689
000180 1d 33 ef 3d 11 63 f9 3d bf b4 f3 bc cc 1d e8 be
       0.11679671 0.121770985 -0.029749272 -0.45335233
000190 cf f8 34 3a 1d 3a d1 bd f3 2e 9d bd db fd 5d 3e
       0.00069035304 -0.10216162 -0.076749705 0.2167887
0001a0 1b d0 1f be c9 8b a6 bc e0 3c b5 3d 2a f6 a3 be
       -0.1560673 -0.020330327 0.088495016 -0.32023746
0001b0 de 7f aa 3e f6 58 25 be a5 c7 02 3e 2e f2 09 bf
       0.3330068 -0.16147217 0.12771471 -0.5388516
0001c0 e8 27 e1 be 69 29 e3 be 7a be 3a 3e d7 a6 ac be
       -0.4397576 -0.4436753 0.18236724 -0.3372104
0001d0 52 7a ad be 15 db 61 3e 37 3f 6e be 48 99 95 be
       -0.33882385 0.2205623 -0.23266302 -0.29218507
0001e0 2e 44 b9 3e 9a 34 00 3d 7e 8b 66 be 73 3e 9d 3d
       0.3618483 0.031300165 -0.2251415 0.07677927
0001f0 96 28 7b bc 5a ee 72 3e ae 36 0d bf af 18 b0 3e
       -0.015329501 0.23723736 -0.5516156 0.34393832
000200 a2 fb cc be 98 7c de bd 8a 75 89 3d aa f4 62 3e
       -0.4003573 -0.10863608 0.06711872 0.22163644
000210 6e de 07 be 19 dd 77 bd c3 1a 07 bd 2c 8e 48 3e
       -0.13268444 -0.06051359 -0.032984506 0.19585484
000220 37 03 48 3e 64 c3 24 3e 60 0e 99 bd 36 88 ee be
       0.19532476 0.1609016 -0.07473445 -0.46588296
000230 3b 54 58 3e 8d 08 b4 bd 8f 80 3c 3c aa 5f da 3d
       0.21125881 -0.087906934 0.01150526 0.10662778
000240 a2 d0 04 3d ee 8d ad 3d 4e f5 2a 3e bc e7 0a 3e
       0.03242553 0.084743366 0.16695139 0.13564962
000250 1e fa c6 bc 58 6e 88 bd c0 15 87 be 19 26 a7 bd
       -0.024289187 -0.066616714 -0.2638378 -0.081615634
000260 02 e4 11 3e aa 1a 59 be 49 9a d1 bd e1 89 6c be
       0.14247134 -0.21201578 -0.10234506 -0.23099472
000270 91 42 f7 3c 53 c4 01 bf 31 3a ed 3d a5 83 66 3e
       0.030183109 -0.5069019 0.11583365 0.22511156
000280 6b 30 91 be 00 d3 69 3d dd 2e d3 3d 03 f4 a2 be
       -0.28357252 0.05708599 0.10311673 -0.3182679
000290 b6 80 c9 3c 52 e1 f1 3c 97 72 92 bd 15 8f 73 3d
       0.024597507 0.029526386 -0.071507625 0.059462626
0002a0 63 36 1f 3c 76 85 91 3d 19 da a9 bd 3a cd aa bd
       0.009717557 0.07105534 -0.08293552 -0.08339925
0002b0 d8 6e 57 be 6a 07 e9 3d ee da 2c bd 6e 45 b2 3e
       -0.21038377 0.11378367 -0.042200975 0.34818596
0002c0 02 79 9f be 1c dd 02 3e 36 1d ce bd 0a fb a3 bd
       -0.3114701 0.12779659 -0.10064165 -0.08006866
0002d0 bf 28 88 bc 6a 3a 52 3d 80 ce ab be 3a 3d c9 bd
       -0.016620992 0.05132524 -0.33555984 -0.09826131
0002e0 24 e6 22 3e c2 56 2d bd 8d 09 96 be 5e ae 26 be
       0.15908104 -0.042319067 -0.29304162 -0.16277453
0002f0 a9 5c 08 3d b8 51 aa 3c 2f 30 47 3e dc 1b 77 bd
       0.033291493 0.02079092 0.19451974 -0.060329303
000300 c5 5d 0d be c4 f4 a3 bd 71 4d de be 26 58 16 3e
       -0.13805301 -0.0800567 -0.43418458 0.14682063
000310 e4 f8 87 bd 36 e0 fc bd ee 62 ee bd 16 59 dc be
       -0.06639269 -0.12347452 -0.11639963 -0.43036717
000320 1e e7 f4 3d f3 db 2f 3d af 76 d1 3d d5 3c 78 bd
       0.119581446 0.04293437 0.10227715 -0.06060489
000330 5f e9 66 be 96 a6 31 3e 7c 06 82 be ad c8 b7 3e
       -0.22549962 0.17348704 -0.25395572 0.3589529
000340 39 02 c4 3c fb 92 68 3e 67 24 18 bd 98 f4 13 be
       0.023926841 0.22712319 -0.03714409 -0.14448774
000350 5c b2 27 3d 29 ea eb be d2 69 83 bc 37 3d 01 be
       0.04094158 -0.46077088 -0.01604167 -0.12621008
000360 34 25 aa 3d 4d f2 85 3d b7 49 50 be 81 45 0a bd
       0.08307877 0.06540356 -0.2034062 -0.03375769
000370 6a 03 b6 3d 86 f4 84 be 35 59 9a be 84 33 5e bd
       0.0888737 -0.25967807 -0.30146185 -0.054248348
000380 6f ca fa be 1f e5 df bd 16 34 fa be 3d e0 ed 3d
       -0.4898257 -0.10932373 -0.48867863 0.11615036
000390 3d 22 46 3d 2e 7d 07 3e 07 0b 3f 3e 33 2f 55 bf
       0.048372496 0.13231346 0.1865655 -0.83275145
0003a0 b6 eb 3c 3e b1 16 c0 3d 55 61 f6 be 47 b8 06 bf
       0.18449292 0.09379328 -0.48121133 -0.52624935
0003b0 30 96 bf be 83 30 06 3e 80 72 14 3d 3d 1f ee 3d
       -0.3741927 0.13104443 0.03624201 0.11627052
0003c0 de ac fb be 80 79 52 3d d6 b9 18 3e 31 82 f9 bd
       -0.49155325 0.051385403 0.14914641 -0.12183035
0003d0 78 71 a9 bd 4a ec 45 bd 03 ab 9d 3e a3 98 f9 be
       -0.082735956 -0.048321046 0.30794534 -0.48749265
0003e0 cc 13 41 3a 3b b2 09 3d ae db 4d be 3b a5 bd bd
       0.00073653157 0.03361724 -0.20103332 -0.09260031
0003f0 57 36 4c 3e 70 2c ba be df 2e 95 bb 5e b0 97 bd
       0.19942604 -0.36362028 -0.0045527066 -0.07406686

out.linear.layers.4.bias f4 [32]
000000 26 6c 82 3e ec ca 1c 3d 4e d1 ad bd 54 48 b2 3e
       0.25473136 0.03827946 -0.08487187 0.34820807
000010 ef 56 a0 3e 78 81 7a 3e 5e 49 04 3e 9f 66 a4 3e
       0.31316325 0.24463451 0.12918612 0.32109544
000020 ad 98 8f 3e 8b a4 46 bd 2a 30 35 be f8 ce 54 3e
       0.2804617 -0.048496764 -0.17694154 0.20782077
000030 88 9f ca 3d 30 a1 44 bd 01 2d 90 bc 73 61 d7 3e
       0.098937094 -0.048005283 -0.017599585 0.42066535
000040 76 bd 73 3e da 34 21 3d 8a b8 c8 3d 2a ad 5a 3e
       0.23802742 0.039357044 0.09800823 0.2135512
000050 3b 72 83 3d c4 20 25 be 11 b6 e4 3b 15 58 9a 3e
       0.06418272 -0.1612578 0.006979712 0.30145326
000060 5f de a6 3d 77 1d 55 3d 41 87 23 3e 03 a5 20 bf
       0.08147883 0.052030053 0.15969564 -0.6275179
000070 7d 88 22 3e 76 c6 18 be 6e e5 d4 3c ad 7b 25 be
       0.15872379 -0.14919457 0.025988307 -0.1616046

out.linear.layers.6.weight f4 [9, 32]
000000 52 31 57 be 53 e0 08 3e 5e 71 e5 bd 37 39 7d 3d
       -0.21014908 0.13366823 -0.11203264 0.061822142
000010 95 db 9a 3e ba dc 9a 3b 26 dc 60 3d 7a 69 42 3e
       0.30245653 0.0047260197 0.05489745 0.18985549
000020 a5 30 68 be e0 07 57 be ba 85 44 bd 60 8a e5 bd
       -0.22674806 -0.20999098 -0.047979094 -0.112080336
000030 e4 24 2c 3b 33 92 2b 3d 1d 78 48 bd 78 31 ed bd
       0.0026267106 0.041887473 -0.048942674 -0.11581701
000040 f4 86 0c bd 63 1a a9 bd 9a 12 01 be 51 ce 33 3e
       -0.03430839 -0.08256986 -0.12604752 0.17559172
000050 42 30 00 be 58 2a d6 3d 7b 67 9c be 38 2e 78 bd
       -0.12518409 0.10457295 -0.305477 -0.060590953
000060 b1 e7 01 be 25 ba 65 be 2d a2 9b 3e be 10 a6 3d
       -0.1268604 -0.2243429 0.30397168 0.08108662
000070 88 91 83 bd 46 b4 e4 be e2 28 3f 3d b9 55 4f 3d
       -0.06424242 -0.44668788 0.04666985 0.05061886
000080 18 2d 32 be fa 5d e7 bd c0 b0 e1 bd 9d 98 94 3d
       -0.17400014 -0.112972215 -0.110200405 0.07255671
000090 11 fd b0 3d 58 bb b2 3d 2e 4c 62 3e c9 db 7a 3e
       0.086420186 0.08727139 0.22099373 0.24497904
0000a0 6f 9d 9c be 68 4f b0 bd 1d 72 a4 bd 14 4f 45 3e
       -0.30588862 -0.086088955 -0.08029578 0.19268447
0000b0 05 73 e5 3c d1 43 b5 3d a6 cf 37 be 71 a2 26 bc
       0.028008947 0.088508256 -0.17950305 -0.010170565
0000c0 c2 b6 0a be 30 cb 27 be 18 22 95 3d 70 70 12 3e
       -0.13546279 -0.16386104 0.072818935 0.14300704
0000d0 87 23 1b be 74 cc 2c 3e 33 bd a2 be f5 0c 56 3c
       -0.15150271 0.16874868 -0.31784973 0.013064613
0000e0 1b 1c 50 be c6 36 21 bd 51 cb fd 39 47 45 72 3e
       -0.20323221 -0.039358877 0.00048407403 0.2365924
0000f0 fa 38 d4 bd 82 b5 a3 be 76 66 7d 3e fe e6 2d 3d
       -0.1036243 -0.31974417 0.24746117 0.04245662
000100 fd 74 47 bd 64 23 a3 bd 7f 5f 11 be 2c 81 4c be
       -0.048695553 -0.079657346 -0.14196585 -0.1997115
000110 6f 29 06 3d a0 ad 02 3d ab 82 71 3c 85 42 84 3e
       0.032754358 0.031903863 0.014740626 0.25832
000120 f2 6b 17 be 6f 69 00 bd 17 3c 80 bd 2f 6f e4 3d
       -0.14787272 -0.03135055 -0.06261461 0.11154019
000130 cd 31 05 3e 25 70 cd 3d e3 32 a7 be 66 7f 4a be
       0.13007279 0.100311555 -0.3265601 -0.19775161
000140 e3 0d 00 3d b7 02 d5 3c 37 6f 3b bd 5d 53 74 3e
       0.031263243 0.026002271 -0.04576036 0.23859926
000150 ea 23 e2 bd ab 90 10 bd 85 14 5d be 0a ea 05 be
       -0.11042006 -0.035294216 -0.21589859 -0.1307756
000160 b3 63 0c be f4 ad 47 3e d5 42 b4 3d 79 d4 c6 3c
       -0.13709907 0.19499952 0.0880181 0.024271237
000170 c7 65 c7 3d 52 22 f1 be 86 bd 33 bc 0f 29 0c 3d
       0.09736209 -0.47096497 -0.010970479 0.034218844
000180 81 8e 8d bd 31 18 04 be af ab 35 be eb 2b ea bd
       -0.06911946 -0.12899853 -0.17741273 -0.11434158
000190 2d 9a 82 3d 08 6e 2d 3c 0e 89 32 bd 6c 1c 82 3e
       0.06377063 0.0105853155 -0.043587737 0.2541231
0001a0 75 7b 22 be 53 73 a6 bc 38 e6 2f be 13 9f 18 3e
       -0.15867408 -0.020318663 -0.17177665 0.14904432
0001b0 17 d4 61 3e a8 b6 89 3d bc 19 99 be 6b 04 2f be
       0.22053562 0.06724292 -0.29902446 -0.17091529
0001c0 8a eb ce bd 36 5a 9c bd a6 34 d2 bd cd 9c 62 3e
       -0.10103519 -0.07634394 -0.10263948 0.22130127
0001d0 c2 74 9e bd 02 9a 48 bd 41 d4 99 bd 89 fd a9 bd
       -0.077371135 -0.048975 -0.07511187 -0.08300311
0001e0 1d 04 e7 bd a1 7f 5b bd 5e ed 9f 3b d2 61 80 3d
       -0.112800814 -0.053588513 0.0048805913 0.06268658
0001f0 86 10 07 3e 4a ce d7 be 9b a5 0c 3e 27 92 e1 3d
       0.13189897 -0.42149574 0.13735048 0.110142045
000200 d3 d9 04 be 1c 9f a4 bd 38 e2 b6 3c 86 73 ed 3d
       -0.12973718 -0.0803816 0.022324666 0.115943
000210 8f 46 ca 3d 01 85 88 3c 31 16 50 3e c8 95 b9 3d
       0.09876739 0.016664984 0.20320965 0.09061772
000220 40 ef 16 be a9 ac a6 bd 6c bd 87 3d 33 99 54 3d
       -0.14739704 -0.08138401 0.06627926 0.051903915
000230 58 d3 67 3e 79 4d ed be 39 32 8c bd e1 4d 69 bd
       0.22639215 -0.4634817 -0.06845517 -0.056959037
000240 4c e1 82 bd de cf 6d 3e 61 23 bd 3d 50 2e 51 be
       -0.06390628 0.23223826 0.092352636 -0.20427823
000250 b4 01 d1 be f8 3d 7d be 76 cd 81 be 03 d5 08 bd
       -0.40821612 -0.2473067 -0.25352067 -0.03340627
000260 6f ad 34 be 41 b5 f2 bc 72 48 92 3e ab 5d b3 bd
       -0.17644285 -0.029627444 0.28570896 -0.087581
000270 30 37 98 3c 96 88 08 be 46 95 cc 3e 5d 9d 0f bf
       0.018581003 -0.13333353 0.39957637 -0.5609949
000280 85 a8 0c 3d 9f 5b 34 3b df a1 58 be d9 39 97 be
       0.0343404 0.002752043 -0.21155499 -0.29536322
000290 fe fb ad bc 09 c2 57 bc 78 90 00 3e 81 b8 29 3e
       -0.021238323 -0.01316882 0.1255511 0.16574289
0002a0 5b a4 a8 bd 68 ec 60 be b4 f8 26 3d 08 49 0f be
       -0.08234473 -0.21965182 0.040764526 -0.13992703
0002b0 cb 0a 03 3e 8e 81 a9 3d 14 3f d0 be 82 06 68 be
       0.12797086 0.08276664 -0.40673125 -0.22658733
0002c0 72 c3 0d be 78 89 27 3c fc 00 0d be 8c 40 82 3e
       -0.13844088 0.010225646 -0.13769907 0.2543987
0002d0 98 86 ee 3c f2 1f 30 bd 35 49 da 3d f6 81 2f 3d
       0.029116914 -0.042999215 0.106584944 0.04284855
0002e0 00 d8 36 be df d0 11 3e 32 d1 da 3d f4 39 5a 3d
       -0.17855835 0.14239834 0.10684432 0.053277925
0002f0 c2 f5 6c 3e 14 da 02 bf cf 1d 91 3d 58 c6 9d bd
       0.23140624 -0.5111401 0.07085764 -0.07703847
000300 3f 4d cf 3d fe b4 32 bc 6c 2b 8f be 0e a2 97 be
       0.101221554 -0.01090741 -0.27962816 -0.29615825
000310 88 78 6b bc 64 2c 8e bb 4d 11 0e 3e 0f 65 1d 3e
       -0.014371999 -0.004338788 0.13873787 0.15370582
000320 ad c6 35 bc 36 80 57 bd ac 23 d5 3d cb 3c 81 be
       -0.011094731 -0.052612506 0.104071945 -0.25241694
000330 5e fb 14 3e 29 33 2f 3d fc 17 c0 be 69 f5 3e be
       0.14549014 0.0427734 -0.375183 -0.18648304
000340 e7 19 00 be fd 2e 21 bd ba b7 94 be 28 d1 88 3e
       -0.12509881 -0.039351452 -0.29046422 0.26722074
000350 25 1d bf 3c 98 16 26 be a8 43 16 3e c4 db 5b bd
       0.023329327 -0.16219556 0.14674246 -0.05367638
000360 b6 ba 7c be 41 fe 34 bd 42 b2 80 3e 1c 5d ee 3d
       -0.246806 -0.044187788 0.25136 0.11638853
000370 d3 48 45 3e 02 05 00 bf af 07 9d 3d 22 af 64 3d
       0.19266061 -0.5000764 0.07667481 0.055831082
000380 fb f0 56 be 3c 75 b6 bd 0c 26 cc bd d9 36 1f bd
       -0.20990364 -0.089090794 -0.09968194 -0.038870666
000390 60 28 18 3e dd 17 57 3e 2a c8 56 3e 2a 5d 61 3d
       0.14859152 0.21005197 0.20974794 0.05502049
0003a0 bb 71 4d 3d ae 76 95 bd 15 40 cd 3d 20 e6 65 3e
       0.05015729 -0.07298027 0.10021988 0.22451067
0003b0 e4 03 c7 3d 47 b7 8c 3c d5 e8 83 be 1a d5 70 be
       0.09717539 0.017177237 -0.25763574 -0.23518792
0003c0 70 7b aa bd 38 f2 da 3d 1e 75 95 be 11 a0 1f bd
       -0.08324325 0.10690731 -0.29190916 -0.03897101
0003d0 91 a9 a5 3d 45 50 85 3c 37 49 31 be 52 be 4c be
       0.08088983 0.016273627 -0.17313085 -0.19994476
0003e0 00 a4 88 39 43 27 64 3c a5 dd 1f 3e 79 7f 6c be
       0.0002606213 0.013925376 0.15611894 -0.23095502
0003f0 2e 6a 08 3e 0a d8 fd be 6b a3 58 3b a2 54 e9 bb
       0.13321754 -0.49578887 0.003305639 -0.0071206847

out.linear.layers.6.bias f4 [9]
000000 7d b6 47 3b f1 97 a8 3d f7 de 47 3d 5f cd 6c 3d
       0.0030473762 0.082321055 0.04879662 0.057813045
000010 65 02 0a bd 25 e8 6d 3d f2 7a 41 3d 63 91 02 3d
       -0.03369369 0.05808272 0.04723639 0.031876933
000020 52 cc fb 3c
       0.030737076

backbone.backbone.0.blocks.0.conv1.weight f4 [32, 32, 1, 3]
000000 1b 25 80 be 37 df 6d be e3 5b 48 be 35 1d 48 be
       -0.2502831 -0.23229681 -0.19566302 -0.19542392
000010 ab 81 d3 bd ec b6 02 bd df a0 1d be 55 d3 58 bc
       -0.103274666 -0.03191273 -0.15393399 -0.013233979
000020 5f 2d 08 be 53 db 5b be b6 3b be bd be 69 98 bd
       -0.13298558 -0.21470384 -0.09288733 -0.07442044
000030 08 2e 81 3c d2 71 6d 3d de 6d d0 3d c8 eb 72 be
       0.01576902 0.057969876 0.101772055 -0.23722756
000040 d7 77 e0 bd d3 a0 20 bd 90 a8 43 3e 5e de 37 3e
       -0.10960358 -0.039215874 0.1910727 0.1795592
000050 4b 69 32 3c 65 a5 16 be cc cd 0a bd d9 32 f9 bd
       0.010889362 -0.1471153 -0.03388767 -0.121679015
000060 75 b5 eb bc de a6 48 bb ab 2d 94 bd 8b 1d bb bd
       -0.028773049 -0.0030617039 -0.07235273 -0.09136494
000070 e3 67 ed bd a3 bc 03 be 84 c1 44 3d 4b a1 de 3d
       -0.115920804 -0.12864928 0.048036113 0.10870608
000080 25 7d fb bc 53 6f b6 3d 1d bd 18 bd df 6c d3 bb
       -0.030699322 0.08907952 -0.037289727 -0.0064521874
000090 58 ca d4 bc b3 16 d8 bc 30 85 bd bd b7 4f 72 bd
       -0.025975391 -0.026378011 -0.09253919 -0.059158053
0000a0 dd 04 da bc e3 1c 34 be 90 34 58 bd f3 e4 9a 3d
       -0.026613647 -0.17589144 -0.052784503 0.075632
0000b0 d4 36 13 3c c1 0f 11 be 20 a4 5e 3d af e4 8e bd
       0.00898524 -0.14166166 0.05435574 -0.06977212
0000c0 50 d9 8a 3d 0b 9f bb bd 3d 82 85 3d b9 91 35 3d
       0.0677973 -0.091611944 0.065189816 0.044328425
0000d0 8b b1 f1 3c 63 cf 5c bc 5c a1 74 3e dd d3 7d 3d
       0.029503604 -0.013477179 0.23889679 0.061969627
0000e0 48 63 25 3e 84 48 a3 bd 37 72 13 be 6c d4 68 bd
       0.16151154 -0.07972816 -0.14399038 -0.056843206
0000f0 2c fa 90 3c 67 d9 c5 bd 65 f9 1d bd 5a 0c b9 bd
       0.017697416 -0.09660607 -0.03856792 -0.09035559
000100 b8 40 a7 bd ae bb 5a 3d 47 39 62 bd b3 f3 4d 3d
       -0.08166641 0.05340164 -0.055230405 0.050281238
000110 b4 aa ad bd 4d 5b 89 bd 28 45 16 be 95 fe 1f be
       -0.08479825 -0.06706867 -0.14674819 -0.15624459
000120 fb 65 b4 bd 26 6a a1 3d ff d8 75 3d d3 c9 c1 3d
       -0.08808514 0.07881574 0.060021397 0.09462323
000130 f0 fd 05 3e 33 93 aa 3c bf ab 03 3e 42 18 6a 3d
       0.1308515 0.020822143 0.12858485 0.05715204
000140 60 7f 2d bd 37 8e 08 bd dd ff 4e 3c 9e d3 65 bd
       -0.042357802 -0.03333875 0.012634245 -0.056110017
000150 3a 27 f0 bc 08 fb 85 3d 96 49 a2 bd d1 9a 3d be
       -0.02931558 0.06542021 -0.07924192 -0.18516089
000160 24 84 12 be fd 63 04 be f0 34 18 be a6 20 00 be
       -0.1430822 -0.12928768 -0.14863944 -0.12512454
000170 9a 01 95 bd ae 69 eb 3d a1 31 ac bd 6e 4d 2b ba
       -0.07275696 0.11494766 -0.084079035 -0.000653467
000180 4e d3 52 bd 3c bb 25 bc 4a a8 55 bd 65 26 04 3d
       -0.051471047 -0.010115441 -0.052162446 0.03226318
000190 b2 8a 35 3d 5a 26 06 3d 5d 3e 2b 3c ba b0 d7 3c
       0.044321723 0.03275142 0.01045188 0.026329387
0001a0 1e 16 a7 3d 97 50 39 3e a9 bc df 3b 06 87 3e 3e
       0.081585154 0.18097149 0.00682791 0.18606195
0001b0 94 f7 0c 3e ad 4a 6d 3e 9d 16 31 3e b8 ed bc bd
       0.13766319 0.23173018 0.17293783 -0.09225029
0001c0 34 f9 f8 3c 99 8a 71 3d 7d d0 d4 bd 17 e9 0c bd
       0.030392267 0.058970068 -0.103913285 -0.03440198
0001d0 04 03 4f bd a7 e4 0d 3d 8d 9b d8 3d 14 bd 2c 3e
       -0.050539985 0.034641888 0.10576544 0.16869003
0001e0 d3 34 ee 3c b0 4e 3e bc 83 78 48 3d 6c 34 33 3e
       0.029077923 -0.01161544 0.048943054 0.17500466
0001f0 2d c1 28 3e 65 d4 01 3d 12 23 a4 bd 62 62 a0 bd
       0.1647994 0.031696696 -0.08014502 -0.07831265
000200 77 48 e9 bc 9d 56 15 bf 2d 48 01 bf a9 c4 d1 be
       -0.028476937 -0.58335286 -0.50500757 -0.40970352
000210 9b 31 c6 3d 1d 59 28 bd ac d9 41 bd 67 7e 13 3d
       0.0967743 -0.04110061 -0.04732673 0.03600922
000220 1c fa 49 3c 94 39 ba 3d 79 f4 c9 be 24 72 c1 be
       0.012327697 0.090930134 -0.3944433 -0.37782395
000230 2d 88 bb be 12 71 a4 bd 4c 6c b4 bc e0 b8 d6 bd
       -0.3662733 -0.08029379 -0.022024296 -0.10484481
000240 5e 5c 87 3e ba 94 57 3e 58 d1 94 3e fe da 51 3e
       0.26437658 0.21052828 0.29065967 0.20493695
000250 b3 4a 86 3e bd 51 37 3e 84 c7 95 bc 6e ed e2 3c
       0.26228866 0.17902274 -0.018283613 0.027701106
000260 d0 1c ad bd 9f e8 22 3e 16 d8 31 3e 48 53 3d 3d
       -0.08452761 0.1590905 0.17367586 0.046222
000270 b6 43 0a bf 15 a3 d6 be de 2d d0 be 0d d9 aa 3e
       -0.5400957 -0.41921297 -0.40659994 0.33368722
000280 49 9f 96 3e 9d 7b af 3e 47 ae a7 3e 6b a4 93 3e
       0.294184 0.34273997 0.3275015 0.28836378
000290 d4 ff 37 3e c6 3d 06 3e 99 a2 c7 3d 7b bf 4a 3e
       0.17968684 0.13109502 0.0974781 0.19799607
0002a0 1a d8 8a be d5 a8 5f be 35 aa 79 be 7d 49 34 bc
       -0.27117997 -0.21841748 -0.24381335 -0.011003849
0002b0 26 e3 a8 bd f6 95 03 be a2 f4 e3 3d 3d 75 d4 3d
       -0.0824645 -0.12850174 0.111306444 0.10373924
0002c0 d0 e9 13 3e 40 44 b4 be 00 dc a8 be 3a a3 bd be
       0.14444661 -0.3520832 -0.32980347 -0.37038594
0002d0 90 99 c0 3e 50 65 c7 3e 1f 69 86 3e 02 0d 6b 3d
       0.3761716 0.38944483 0.26252076 0.057385452
0002e0 8e c2 1a 3e 96 25 9c 3d 66 e4 9a bc 60 5e 3b 3e
       0.15113279 0.076243564 -0.018907737 0.1829772
0002f0 0c 70 09 3e e6 ad a5 be 65 b3 f2 be 0b 30 d5 be
       0.13421649 -0.32359236 -0.47402492 -0.41638216
000300 5e 67 ff bd e5 53 25 3c 91 df 19 3d b1 be 11 be
       -0.124708876 0.010090803 0.037566725 -0.14232899
000310 e9 33 07 be e0 b8 f4 bd 30 c0 4f be 10 b6 3f be
       -0.13203396 -0.119493246 -0.20288157 -0.18721795
000320 e2 0e 1d be 43 ba ec bd 8f 6e 1c be 26 8b e6 bd
       -0.15337709 -0.11558964 -0.1527655 -0.11257009
000330 8c fe 30 be 50 a1 71 be 25 af 92 bd e0 0f 07 bd
       -0.17284602 -0.23596692 -0.071623124 -0.032974124
000340 90 d6 f8 bd 54 5f f5 bd 96 ef ba 3d 7c 7b 8d 3c
       -0.121502995 -0.11981073 0.09127729 0.017270796
000350 99 a3 d9 3d c1 3d 24 be 8d ea 51 be 91 f1 0e be
       0.10626907 -0.16039182 -0.2049963 -0.13959338
000360 f4 a7 43 bc 2f 52 7e bc 03 02 ee bc 5d a4 00 bd
       -0.011941899 -0.015522524 -0.029053694 -0.03140675
000370 87 a2 09 bd 82 d8 57 bd 33 ec 64 3d f8 56 9d bd
       -0.033602264 -0.052696712 0.05588932 -0.076826036
000380 16 ab 2c bd fb d7 04 3f 21 83 41 3f f2 87 d4 3e
       -0.042155348 0.5189206 0.7559071 0.41509968
000390 79 12 9a bd 9b 77 e1 bd 6f 9e 17 be 03 29 d1 bd
       -0.07523055 -0.11009141 -0.14806531 -0.102129005
0003a0 b9 f4 57 bd 05 71 99 bd e1 88 00 3f 74 a6 29 3f
       -0.05272362 -0.0749226 0.5020886 0.6626961
0003b0 8c 46 8a 3e 78 3d 06 bd 73 e1 9f bd 40 d3 ce 3d
       0.27006948 -0.032773465 -0.07806673 0.100988865
0003c0 51 1b af be 2a a9 ad be 01 b2 97 be ca 5d 4c be
       -0.34200528 -0.33918124 -0.29627994 -0.19957653
0003d0 34 ee 55 be 2d f2 66 be 42 da 16 3e 31 91 76 bc
       -0.20891649 -0.2255332 0.14731696 -0.015049265
0003e0 29 c6 07 bd f8 3e 10 be 61 8c 04 be 6b 34 84 bd
       -0.033147965 -0.1408652 -0.12944175 -0.064553104
0003f0 0c 17 13 3f 51 34 24 3f 98 12 e3 3e 04 73 88 be
       0.5745704 0.6414233 0.44350123 -0.2665025

backbone.backbone.0.blocks.0.conv1.bias f4 [32]
000000 39 2d 87 bb d9 cb 67 3e 0c fd 64 be c0 2f fb bd
       -0.004125264 0.22636355 -0.22362155 -0.12264967
000010 1e 9a 78 bd 4e d7 7d bd f4 23 c0 bd a3 00 4c 3d
       -0.060693853 -0.06197291 -0.093818575 0.049805295
000020 d5 33 b4 3d 8f 06 98 bd 8f a6 76 3d c6 09 2d 3d
       0.08798949 -0.07423126 0.060217436 0.04224565
000030 55 fb 8f bd f7 3d aa bc 7c df f9 3b 3b b0 50 3d
       -0.0703036 -0.0207815 0.0076255184 0.050949316
000040 f1 6a 91 3b 08 18 6a 3d 06 31 f2 bb 92 b3 16 be
       0.0044377972 0.057151824 -0.007391098 -0.14716938
000050 cc 31 5e bd a6 e5 25 3d cc 61 dd bd aa 38 7a bd
       -0.05424671 0.040502213 -0.10809669 -0.061089195
000060 96 aa c4 3d 55 99 d2 bd 45 f0 59 3d db 74 c5 3d
       0.09602849 -0.10283152 0.053207655 0.09641429
000070 ce 04 00 be df db 84 bd 73 5b 94 bd af 90 35 3d
       -0.12501833 -0.064872496 -0.07244005 0.044327434

backbone.backbone.0.blocks.0.conv2.weight f4 [32, 32, 1, 3]
000000 01 1f ad 3c a5 c5 46 3e bb 71 0d 3d a7 0b 7b 3d
       0.021132948 0.19411333 0.03453229 0.06129041
000010 f6 91 f5 3d 49 df 96 bd 5a 89 a5 3b ca c1 8a bd
       0.119907305 -0.07366807 0.005051774 -0.067752436
000020 8f 30 8c bd 4d c3 0b bd ea 7f 8b 3d 3d 13 f9 bd
       -0.06845199 -0.0341218 0.06811507 -0.121618725
000030 e1 12 c3 3d 57 65 8e be a3 3d 45 be bc 0a 89 3d
       0.09525085 -0.2781169 -0.19261794 0.066915005
000040 a4 78 14 3e cc c8 36 3d aa 66 81 3d be 9b 6c 3d
       0.14499146 0.04462509 0.0631841 0.057765715
000050 2a fc 8c 3d ca a4 52 3d 45 fa df bd 26 83 e1 bd
       0.06884034 0.051426686 -0.10936407 -0.11011343
000060 8c ae a1 bc aa 4a 95 3e 26 e6 15 3e f4 90 31 bc
       -0.01973655 0.29158527 0.14638576 -0.010837782
000070 c6 dd 81 bd 9b 93 83 bd 43 af 1d bd ee 6f 10 be
       -0.06341128 -0.06424638 -0.03849722 -0.14105198
000080 1c 4d 04 bd 48 f5 78 bc 22 d9 67 3e c5 20 44 3e
       -0.0323001 -0.015195198 0.22641423 0.19153126
000090 fd a5 af bc 54 1a 26 3e 5c 3d 7a bc 5d 75 9f bc
       -0.021441454 0.16220981 -0.015273418 -0.019465143
0000a0 db e3 ce bc 87 48 19 bd 17 f4 c7 bd ad 54 55 3e
       -0.025255134 -0.037422683 -0.09763353 0.20833082
0000b0 aa 03 41 3e 73 64 5d 3c a9 86 48 3e 8a 1e a8 37
       0.18849054 0.0135127185 0.19582619 2.0041382e-05
0000c0 ec be 9b 3e b2 50 c8 be 36 f5 3e be 3a ff 85 3e
       0.304191 -0.39124066 -0.18648228 0.26171285
0000d0 20 4f f4 be bb 18 04 be 45 6d ce 3b b0 cd ba bd
       -0.47716618 -0.12900059 0.006299647 -0.09121263
0000e0 7f 46 c4 3d b0 bf c6 bb ce f8 25 3e c6 ed 86 3d
       0.095837586 -0.0060653314 0.16208193 0.065883204
0000f0 05 c2 b8 bc bc 90 aa 3e 92 a9 52 3e fd 57 91 3c
       -0.022553453 0.3331355 0.20572498 0.017742151
000100 cb 06 40 be 00 bd 13 be 53 1b ec 3d 6a 47 0a bf
       -0.18752591 -0.14427567 0.11528649 -0.5401522
000110 5c 50 5f be d1 a3 cb bc 75 5e 03 3d 46 3b 95 3d
       -0.21807998 -0.024858387 0.032072503 0.07286696
000120 f3 4e 81 be 2f 9e cf 3e f7 ca 46 3e 12 ae 03 3d
       -0.25255546 0.40550372 0.19413362 0.03214843
000130 7e 17 42 be a9 52 bb 3d f1 a3 1f 3d 23 2d 5f be
       -0.18954274 0.091466255 0.038974706 -0.21794562
000140 72 57 42 bc 11 78 86 bd df 39 12 3e 9a 22 29 3d
       -0.011861669 -0.065658696 0.14279889 0.041292764
000150 b1 13 1a 3e 3b 4e 67 be d2 04 47 bd b8 de a9 3d
       0.15046574 -0.22588436 -0.04858858 0.08294433
000160 aa 77 ef bb 4e b2 18 bd f4 90 7b b9 a1 0f ef 3d
       -0.0073079662 -0.03727942 -0.00023991225 0.11672903
000170 79 d6 1a bc 1f 9a 44 be 59 a7 5f 3e 50 d1 c3 3d
       -0.009450548 -0.19199418 0.21841182 0.095614076
000180 ef 14 3e 3e 82 c2 03 3e dc 13 91 3d 0e ea 99 bd
       0.18562673 0.12867168 0.07083866 -0.075153455
000190 92 2d 81 bd e7 3e 0d be bd e0 f1 bc ac c2 d2 bd
       -0.0630752 -0.13793527 -0.029526109 -0.10291037
0001a0 41 4c ae bd 33 87 8e bd 17 95 a1 bd d8 7c cd bd
       -0.08510638 -0.06959381 -0.07889765 -0.10033578
0001b0 0e 2b 80 be bd 4d 33 be 6e e8 9f bd cd d6 89 3d
       -0.25032848 -0.17510124 -0.07808004 0.06730423
0001c0 dd 65 ad 3d 70 0a 03 3e be c2 3c 3e a6 93 43 3d
       0.084666945 0.1279695 0.18433663 0.04774823
0001d0 d3 1d d6 3c a3 f1 4b be 4d dd 1f be b2 05 93 bd
       0.026137268 -0.19916396 -0.15611763 -0.07178821
0001e0 e2 3c 90 3e 9e 80 b4 3e 27 44 1d 3e 55 b4 7b bd
       0.2817145 0.35254377 0.1535803 -0.061451275
0001f0 d3 a5 06 be 42 c4 ca bc b5 ff 9c be 6a 6c 3f be
       -0.13149194 -0.024751786 -0.3066384 -0.186937
000200 ca 61 67 bd 64 40 ce 3e f4 89 c4 3e e6 46 21 3e
       -0.056489743 0.402835 0.383865 0.15749702
000210 fb 4a 44 3d 2a 9e 55 3e 85 83 af 3d 1f 3b 3c be
       0.04792307 0.20861116 0.08570007 -0.18381928
000220 b9 1f 07 be 77 5f 86 3c b3 b0 be 3e 50 bc ca 3e
       -0.13195695 0.016402943 0.37244186 0.39596796
000230 87 ad 05 3e 55 97 ac 3e 27 9b b0 3e ea 9c 36 3e
       0.13054477 0.33709207 0.34493372 0.17833295
000240 97 10 a4 be 4e 9c e5 be ab 06 17 be 89 4f 02 bf
       -0.32043907 -0.44845814 -0.14748637 -0.5090261
000250 63 54 0e bf c2 e4 a0 be 54 b7 0e be 2c ff fe bc
       -0.55597514 -0.31424528 -0.13937122 -0.031127535
000260 9a ed 98 39 69 9f 8d bd 6e 16 b7 3c 90 92 59 bd
       0.00029168726 -0.06915171 0.022349562 -0.05311829
000270 93 b5 bd 3e f5 68 cb 3e 31 c5 2f 3e 11 83 11 be
       0.37052593 0.39728513 0.17165066 -0.14210154
000280 4f ad ab be 3c a3 18 be 0a 15 e6 be 86 77 bb be
       -0.3353066 -0.14906019 -0.44937927 -0.36614627
000290 99 4e 6c be e4 dc 47 bd 24 8e 0c bd 78 f3 c3 bd
       -0.23076858 -0.048794642 -0.034315243 -0.09567922
0002a0 dc 82 98 3e aa 41 5c 3e 74 53 b9 3d 25 50 be bc
       0.29787338 0.21509424 0.090491205 -0.023231575
0002b0 d8 53 0c be f4 a4 11 be 8e 00 23 be 3a 19 e8 bd
       -0.13703859 -0.14223081 -0.1591818 -0.113329366
0002c0 48 cc 2d bd 7b c0 38 3e d0 11 7b 3e e6 ce fc 3d
       -0.042431146 0.18042175 0.24518514 0.1234415
0002d0 84 f6 3d be 1b 98 b5 be 52 52 3b be 5a ba f9 3b
       -0.1855107 -0.3546761 -0.18293121 0.007621092
0002e0 4f 1b 14 3d 75 49 04 3b f6 b2 7e bd 3a 1c a6 bb
       0.036158856 0.0020185385 -0.06218239 -0.005069283
0002f0 78 fb 3c be ba 05 53 3e b5 1c ca 3e 13 22 68 3e
       -0.18455303 0.20607653 0.39475027 0.22669248
000300 1a cf da 3d f1 a5 51 3e 79 cb 36 3e 20 3d 2e 3d
       0.10684033 0.20473458 0.17851056 0.042538762
000310 b4 f2 67 3e 90 47 3d 3e 7d 6c 13 bd 7a fe 88 3d
       0.22651178 0.1848433 -0.035992134 0.066891626
000320 e7 e9 f4 3d 5c c5 0a 3e 7c 6f 57 3e 47 83 59 3e
       0.11958676 0.13551849 0.21038622 0.21241485
000330 58 39 10 be 13 f7 84 bd 6f 8a 30 bd 79 ef 8c 3d
       -0.14084375 -0.06492438 -0.04310077 0.06881613
000340 a2 56 97 3e a8 b6 5f 3e 4f 56 f4 bd 42 15 38 be
       0.29558283 0.21847022 -0.119305246 -0.17976859
000350 7d af a7 bc 52 4a 64 bd 87 71 18 3e 9d ec 5a bd
       -0.020469422 -0.05573494 0.14887057 -0.05344831
000360 3d e6 86 3d 3a 59 c5 3c dd 1e 19 3d 81 14 13 3e
       0.06586883 0.024090398 0.03738295 0.1436329
000370 21 cf 54 3e d0 db 3e 3e 43 c7 91 bc 38 fe 38 3d
       0.20782138 0.1863854 -0.01779521 0.045164317
000380 17 9f b0 bc 50 f0 ed bc d8 32 15 3d d5 52 c2 bc
       -0.021560235 -0.029045254 0.03642544 -0.023721138
000390 a5 2b 50 3d d8 b8 03 3e b5 b5 78 3d f1 85 9a 3d
       0.050822873 0.12863481 0.060720164 0.075450785
0003a0 37 7c c4 3d a9 3f 66 3d 33 7d 64 3d 06 ad 88 3b
       0.095940046 0.056213055 0.05578346 0.0041710166
0003b0 63 66 89 ba d2 04 81 3c 9b ca 81 3d ad 43 b7 bc
       -0.0010482784 0.015749369 0.06337472 -0.022371138
0003c0 b2 67 03 be 7b 6b 43 3c 13 4b e8 bc a5 aa 59 bd
       -0.12832525 0.011927481 -0.02835611 -0.053141255
0003d0 f3 fc 98 bd dd 39 91 bd 67 f8 5b be 3d ac 33 be
       -0.07470121 -0.07091115 -0.21481477 -0.17546172
0003e0 ea 2e 46 be 64 e5 b0 bc 04 1b 49 3e cc 95 1b 3e
       -0.19353834 -0.021593757 0.19639212 0.15193862
0003f0 78 a1 19 3e 41 3d a2 3d 59 35 cb bc 60 5c 29 3b
       0.15003002 0.079218395 -0.024805712 0.0025842413

backbone.backbone.0.blocks.0.conv2.bias f4 [32]
000000 cb a0 ae 3d 68 85 a9 bd 0e 06 a2 3d 1d af cb bd
       0.085267626 -0.08277398 0.07911311 -0.099455096
000010 80 52 d9 bc 9e 39 00 be f5 1c 64 be 49 f3 b8 bd
       -0.026528597 -0.12521979 -0.22276671 -0.09030778
000020 9d ff 20 be 33 a9 ad 3d 92 d3 d1 bd 9b bd 1a be
       -0.15722509 0.08479538 -0.10245432 -0.15111391
000030 9d 04 41 3d 45 6a ed bd 57 f1 0a be c3 cf 53 be
       0.04712354 -0.11592535 -0.13568626 -0.20684724
000040 99 3c 13 be 31 9c 6d 3b 60 23 81 3b ac 9a 9f bd
       -0.14378585 0.0036256427 0.0039409846 -0.07793173
000050 be cc 0c bd 58 fd 36 3d 80 8b 94 bc fa 0f a0 bd
       -0.034374945 0.0446752 -0.018132925 -0.07815547
000060 8e 3f 50 bd fc 22 2b be 28 2e a2 bd 74 4f 0c 3d
       -0.05084186 -0.16712564 -0.0791896 0.03425546
000070 98 43 8d bc a1 57 f2 bd 06 15 97 3d 7b 1b 3e 3d
       -0.017244145 -0.1183312 0.07377057 0.046412926

backbone.backbone.0.blocks.0.skip_conv.bias f4 [32]
000000 b2 ba 00 3e 0f 7f 00 bd f5 3c 37 3e 46 8e 56 bc
       0.12571219 -0.031371173 0.17894347 -0.013095444
000010 f2 14 0f be 99 33 8f bb 89 69 06 bd 81 8a 04 3c
       -0.13972834 -0.0043701646 -0.03281549 0.0080896625
000020 73 fb 0f 3e df e7 92 3e 76 6b 64 3e 1e cd 1f 3c
       0.14060764 0.2869253 0.22306618 0.009753494
000030 93 75 50 bd 06 ac fc bc 22 aa 1d 3d 1e 88 f6 bc
       -0.050893378 -0.030843746 0.03849233 -0.030094203
000040 61 45 83 3d 2d 40 1e bd a3 ce 1d 3e cd 18 5a 3c
       0.06409717 -0.03863542 0.15410857 0.013311577
000050 10 86 36 3e 70 f7 26 be f8 35 6d bd 94 5b 76 bd
       0.17824578 -0.16305327 -0.057912797 -0.06014593
000060 94 e1 86 3d a8 2e 05 3d 95 bc 1d be 1e ce ff bc
       0.06585994 0.032515198 -0.1540397 -0.031226214
000070 25 f4 57 3e f3 c3 1f be c8 34 fd 3d b9 6c 16 3e
       0.21089227 -0.15602092 0.12363583 0.14689912
