model_parameter/tbc/GAT_final.pth (torch, 87172 bytes, 66 tensors)

embedding.vehicle_embedding.weight f4 [32, 4]
000000 92 d7 8e bc ec 66 97 bb 87 f9 0b bb 87 7c 94 bc
       -0.017436776 -0.0046204235 -0.0021358447 -0.018125786
000010 0d 4e 2b 3c 0a 6f 26 3c ec 28 91 ba 46 29 7a bc
       0.0104556205 0.01015831 -0.0011074818 -0.015268629
000020 ac 77 68 3c 3d 19 06 3c d5 7f 31 3c 12 d5 cd 3b
       0.014188688 0.008184728 0.0108337 0.0062815035
000030 a8 53 70 ba 58 4e 8f 3b 84 dd 9e 3b 29 b0 d8 bc
       -0.0009167739 0.004373353 0.004848184 -0.026451187
000040 78 fd 24 bd 7a 5e c6 bd d3 29 99 3d df 06 10 3d
       -0.04028079 -0.09685989 0.074786805 0.035162803
000050 70 93 21 3e cb b2 f1 bd 7a d5 41 3e 58 3b d4 bd
       0.15778899 -0.1180168 0.18929091 -0.103628814
000060 b0 71 08 3f 3b 5a 90 be 85 c0 9b 3b 67 f8 1b bf
       0.53298473 -0.2819384 0.0047531747 -0.60925907
000070 53 3f 0e 3f 61 c2 ac 3e 5b a5 6f 3d 3e 45 15 3e
       0.55565375 0.3374205 0.058507305 0.14577195
000080 7f f7 a7 3e dd 96 15 3f a7 a6 7b 3f 96 51 20 3f
       0.32806012 0.58433324 0.98301166 0.6262449
000090 78 8d 95 3e f0 fc f3 3e 01 b5 51 3f 1b 48 bd 3e
       0.29209495 0.47653913 0.81916815 0.36969075
0000a0 13 7e e1 3e 2f 10 33 be d5 28 73 3e 50 7a a9 bf
       0.440415 -0.17486642 0.23746045 -1.3240452
0000b0 cd 93 07 be 16 19 a0 3e ff 48 92 be 83 8f 83 3d
       -0.13239975 0.3126914 -0.28571317 0.06423857
0000c0 bd 26 40 3f 2a 6e 42 3f 4c 35 27 bf 39 53 07 3e
       0.7505911 0.75949347 -0.653157 0.1321534
0000d0 da b6 c6 be 0c b8 72 3e ed 55 2a be 82 87 02 bf
       -0.3881138 0.23703021 -0.1663434 -0.5098802
0000e0 73 52 31 3f d1 da 22 bf 11 52 29 3f 3f 20 87 3e
       0.6926643 -0.6361514 0.6614085 0.2639179
0000f0 50 67 c1 3e ce 08 80 3e bc bd 1e bf b5 b3 4d bf
       0.37774134 0.25006717 -0.6200826 -0.80352336
000100 58 50 e1 3e 52 d7 53 bf 9e 98 b8 be c8 cb fe 3e
       0.4400661 -0.8275043 -0.36053938 0.49764848
000110 2a c3 3b be 84 b7 43 bf e8 14 2b bd bf f8 86 3e
       -0.18336168 -0.764519 -0.041767985 0.26361653
000120 8f 93 40 bf 77 e2 a1 3e fd 74 e8 be 3b c5 34 bf
       -0.75225157 0.3161809 -0.45401755 -0.7061345
000130 a2 c8 c6 be 6b 1c 15 bf 7b 25 7b bf 56 e0 16 3e
       -0.38824946 -0.5824649 -0.98104066 0.14734015
000140 2b 4c 1f 3f bd 9a d7 3c db da 04 be f5 d1 07 3f
       0.622256 0.026318902 -0.12974112 0.53054744
000150 06 69 20 3f d2 2c ff 3e 42 1a 12 3f 22 f0 21 bf
       0.62660253 0.49838883 0.57071316 -0.6325704
000160 8d e5 66 3e df 27 86 bc fc fe 84 3f e4 82 16 3f
       0.22548504 -0.016376434 1.0390315 0.58793473
000170 e6 79 3f 3e 9f 55 73 bf f3 e2 49 bc 55 a2 6f be
       0.18698844 -0.9505252 -0.012322175 -0.23401769
000180 b1 b4 d3 be 29 57 34 bf 34 9e 35 3f e4 03 c5 3e
       -0.41348794 -0.70445496 0.70944524 0.3847953
000190 2b a1 2f bf b8 bd 6c be 3b be 51 be f7 4e 7d 3f
       -0.686053 -0.23119247 -0.20482723 0.98948616
0001a0 25 ca 58 bd 00 73 2b 3f 32 8a 50 3f ac b2 6e bf
       -0.052927155 0.6697235 0.8146087 -0.9324138
0001b0 ed 6e 6f 3e 76 c8 b2 be bd a4 f0 3e 8d c2 da bd
       0.23382159 -0.34918565 0.47000685 -0.10681639
0001c0 07 a2 e4 3c ba f1 f5 be f6 e2 8e 3f c7 c4 43 bf
       0.027909292 -0.48035985 1.1163013 -0.76472133
0001d0 15 9a b0 3e 17 81 61 bd 24 09 7a 3f e1 b4 a5 3e
       0.34492555 -0.05505475 0.976702 0.32364562
0001e0 b9 0a 5a 3e 53 a1 7a bf 7b 26 ba 3e 58 62 5a bf
       0.21293153 -0.9790241 0.36357483 -0.8530631
0001f0 3e a2 2c 3f 16 bb b5 3e 80 c0 8f 3e 45 b8 8f bd
       0.6743506 0.35494298 0.28076553 -0.070175685

embedding.vehicle_embedding.bias f4 [32]
000000 f4 e8 16 bd 30 00 a7 3c 3f 2d 61 3c e0 2d 8b bd
       -0.036843255 0.020385832 0.013743698 -0.06795859
000010 c2 31 30 3d 0e 3b e8 bd 23 06 ab bd df 9f ee 3d
       0.043016203 -0.11339389 -0.0835078 0.11651587
000020 c0 98 ae be d9 38 46 bf e0 be 5d bf a6 ee e1 be
       -0.34100914 -0.7743049 -0.8661938 -0.44127387
000030 6a a3 8c 3e 16 f4 30 bf 7a f3 e2 3e e4 47 2c 3f
       0.27468425 -0.69122446 0.44326383 0.67297196
000040 a3 6d 24 3f fa d1 52 3f 99 01 48 3f 72 7d e5 be
       0.6422979 0.8235165 0.7812744 -0.4482227
000050 c6 04 e5 be 63 51 ad 3d 76 3f eb 3c 98 e0 9a 3e
       -0.44730204 0.08462789 0.028716784 0.30249476
000060 42 9d 30 bf 61 31 2a 3e eb 66 40 be fe 23 06 bf
       -0.68989956 0.16620399 -0.1878926 -0.5239867
000070 c7 d8 2d 3d 3e 5c bb be 2b 88 2c 3e 83 f6 15 bf
       0.042443063 -0.36593813 0.16848819 -0.5857927

embedding.bridge_embedding.weight f4 [32, 6]
000000 6c 76 ad 3d ec 6f d6 bd 9e ed 9f be 39 0b cc be
       0.08469853 -0.10470566 -0.31235975 -0.39852312
000010 cc 11 af be 00 44 bf 3c 26 28 b3 3e 7f 6f 39 be
       -0.34193265 0.023347855 0.34991568 -0.18108939
000020 4a 2d 1c be f6 de b3 3e c0 34 98 bd 8e 64 98 3e
       -0.15251651 0.35131043 -0.07431936 0.29764217
000030 60 4a 5e 3c 53 2e 7f be d4 ce 8d 3e ed f4 96 be
       0.013567537 -0.24920015 0.2769686 -0.2948374
000040 f6 b5 77 be 60 d0 07 be d8 1f d3 bd f6 89 90 3e
       -0.24190506 -0.13263083 -0.10308808 0.28230256
000050 d8 4f ee 3d 31 ad bb be 54 8b 95 3e 38 c7 26 be
       0.11636323 -0.36655572 0.2920786 -0.16286933
000060 bb ac 9e be 30 e3 b3 3e d4 b7 4c 3e 59 4e bc be
       -0.30991158 0.35134268 0.19992 -0.36778525
000070 62 3a b5 be ca 17 c0 3e 8e 98 a4 3e 78 99 a9 bd
       -0.35396105 0.3751815 0.3214764 -0.08281225
000080 40 51 b2 3e e8 a5 4b bd c4 bd 06 be 1c ec c4 3e
       0.34827614 -0.049718767 -0.13158327 0.38461387
000090 14 b4 b8 3d 9d 23 67 be 30 01 25 3e e0 6f 8e 3e
       0.09018722 -0.22572179 0.16113734 0.2781973
0000a0 d4 e9 b8 3e 56 95 cd 3e 30 91 13 3e d2 61 0b be
       0.36115897 0.40152997 0.14410853 -0.13611534
0000b0 b4 dd ad 3d 74 b7 96 be aa a9 9b be 24 e9 b6 bd
       0.08489552 -0.2943684 -0.3040288 -0.08931187
0000c0 ec 60 2e 3e 5e 5f 8d be cc b4 bb bd 6b 26 95 be
       0.1702916 -0.27611822 -0.09165344 -0.29130873
0000d0 44 7b b5 3e a4 4e 90 3e f3 7a 9a be af b8 ad be
       0.35445607 0.28184998 -0.30171928 -0.33929965
0000e0 57 23 4d be f0 20 e8 bc e8 ea 07 3d 30 72 cc 3e
       -0.20033012 -0.028336018 0.03318301 0.39930868
0000f0 58 de 56 bd 34 c6 63 3e 88 94 5e be 88 77 82 bd
       -0.052458137 0.22243577 -0.21736348 -0.06370455
000100 70 33 ca bd 58 10 f6 3d c0 c8 0d bc f8 eb a0 3e
       -0.09873092 0.12014836 -0.00865382 0.3143003
000110 bc be 68 3e 38 b6 d9 3d 24 f0 b1 3d 06 7f 15 be
       0.2272901 0.106304586 0.08688381 -0.14599237
000120 f8 75 09 3e 5a 87 a9 3e d0 5e 32 3d cc 33 bf bd
       0.13423908 0.33111078 0.04354745 -0.09336051
000130 9d 47 b5 be 80 24 ca 3e 60 ca ea 3d da b4 a8 be
       -0.354062 0.39480972 0.11464381 -0.3295048
000140 68 b5 74 3e 9c 57 a6 3e 20 53 cc be 9c 64 4c 3e
       0.23897326 0.32488716 -0.3990717 0.19960254
000150 c2 de 05 be 4d 23 64 be 68 8a d3 3d 0e ca 77 be
       -0.13073257 -0.22279091 0.10329133 -0.24198171
000160 a3 52 43 be d0 05 6c 3e a0 36 78 bc 54 19 e8 bd
       -0.19074492 0.23049092 -0.015149742 -0.11332956
000170 04 b5 0f be 40 90 9d 3e 00 7d 00 be 25 ea 3a be
       -0.14033896 0.30774117 -0.12547684 -0.18253382
000180 3d 98 a2 be b4 a2 1c 3e c0 9d 28 3e a8 ef ee 3d
       -0.31756774 0.15296441 0.16466427 0.116668046
000190 b7 3c b8 be 44 52 89 3d 90 e4 cc 3d d1 62 a8 be
       -0.35983822 0.06705144 0.10004532 -0.3288789
0001a0 60 33 b5 be 80 dd 89 be dc 99 76 3e 50 03 95 3e
       -0.3539076 -0.26926804 0.2408213 0.2910409
0001b0 06 f8 93 3e c0 3c a1 bc bc 2d aa 3e b8 8b 06 3e
       0.28900164 -0.019682288 0.33238018 0.13139236
0001c0 be 84 9c be ec 28 a3 3e 80 da 2b bc 04 89 4f 3e
       -0.30570024 0.31867158 -0.010489106 0.20267111
0001d0 e4 58 1d 3e 25 10 c0 be b3 e9 4c be 98 4b 30 3d
       0.1536594 -0.37512317 -0.20011024 0.04304084
0001e0 8e ce bb 3e 20 52 01 bc 96 62 ab be fc c4 a9 3e
       0.36681026 -0.007893115 -0.33473653 0.331581
0001f0 c6 32 91 3e a2 5b 8b be da da ba 3e 10 f6 d3 3d
       0.2835905 -0.27218348 0.36495095 0.10349667
000200 a3 a6 c4 be 40 1d 6c bd ef 47 9b be b2 af a9 3e
       -0.38408384 -0.057645082 -0.30328318 0.33141857
000210 1e 58 ba 3e 38 b0 01 bd f0 d0 97 bd 96 a5 97 be
       0.36395353 -0.031662196 -0.074128985 -0.2961852
000220 12 ad c0 3e 43 a2 6a be b4 b4 4a 3e 7e 33 bc 3e
       0.37632042 -0.2291346 0.19795495 0.36758035
000230 e0 02 66 bd 3e 8b cf 3e f0 79 1c 3d 06 82 80 3e
       -0.056155086 0.4053592 0.038202226 0.250992
000240 f4 e8 87 be f4 82 0c be 90 8b 31 3d c1 62 73 be
       -0.26544917 -0.1372183 0.043345988 -0.2376814
000250 c0 3b f0 3c 56 8e cd 3e 52 b1 bd be f3 06 2f be
       0.029325366 0.40147656 -0.37049347 -0.17092495
000260 b0 f6 a3 3c 18 13 75 3d 9c 28 a6 3e de f3 56 be
       0.02001509 0.059832662 0.32452857 -0.20991465
000270 05 43 b3 be 6f 01 42 be b8 d6 15 3e 5c 4a 42 be
       -0.3501207 -0.1894586 0.1463269 -0.18973678
000280 f0 c8 ab 3e 70 c5 7c 3d 60 87 96 bc 16 ae 13 be
       0.3355174 0.06171173 -0.018375099 -0.14421877
000290 60 26 c0 3d 80 23 ca 3e 84 25 96 3e c0 36 8b 3c
       0.093823195 0.3948021 0.29325497 0.01699388
0002a0 f0 ca c1 3d e2 dd c8 be b8 38 c5 be 9c 23 e8 bd
       0.094625354 -0.39231783 -0.38519835 -0.11334917
0002b0 68 df 60 3e 58 1c 36 3e c8 20 81 3e 48 7f 73 bd
       0.21960223 0.1778425 0.25220323 -0.059447557
0002c0 c0 88 d0 be e9 da bb be b4 f3 70 3e 90 1a 61 3e
       -0.40729332 -0.36690453 0.23530465 0.21982789
0002d0 30 9f c5 3d 00 d8 f1 bd 88 5b 0b 3e 62 8d 85 3e
       0.09649503 -0.11808777 0.13609135 0.2608443
0002e0 fc a8 dd bd ca 1a ae 3e a8 08 62 bd 5c 41 cf 3e
       -0.10823247 0.34004813 -0.055184036 0.40479553
0002f0 98 80 75 bd 73 64 4b be 24 29 58 be 6e 21 b4 3e
       -0.05993709 -0.19862537 -0.21109444 0.35181755

embedding.bridge_embedding.bias f4 [32]
000000 60 07 72 bc ab c7 bf be f6 75 55 be 90 f9 84 3e
       -0.014772266 -0.37457022 -0.2084578 0.2597165
000010 38 09 a5 3e 30 9f 13 3e 50 8e 65 3e 2c 2b 3d 3e
       0.32233596 0.14416194 0.22417569 0.184735
000020 bc 81 36 3e 10 63 6f 3d 43 67 a9 be 5c 3c 4d be
       0.17822927 0.058444083 -0.33086595 -0.20042557
000030 4c 35 50 3e 36 f6 87 be 00 b7 0c bd 40 a3 9b be
       0.20332831 -0.26555032 -0.03435421 -0.30397987
000040 70 00 c6 3c 00 58 9a 3b f0 9b 98 bc 16 8a cd 3e
       0.02417013 0.0047101974 -0.018629044 0.40144414
000050 e8 39 22 3e 24 82 2c 3e 60 2a 68 bd 18 ff 8d be
       0.15842402 0.1684652 -0.056681037 -0.27733684
000060 60 2f 55 be ab 48 c6 be c8 8b 36 bd c0 f6 08 3e
       -0.20818853 -0.38727316 -0.0445669 0.13375378
000070 7c ab 04 3e 72 d6 a5 be 84 44 16 3e 44 a7 5b 3e
       0.12956041 -0.3239017 0.14674574 0.21450526

embedding.pier_embedding.weight f4 [32, 3]
000000 e5 1c 38 3c 46 55 87 3c 97 7d 38 bc 86 c6 88 3c
       0.011237358 0.016520154 -0.011260412 0.016696226
000010 67 08 c7 bb df b7 9b 3c 28 57 87 3d 2c a9 65 3d
       -0.0060739997 0.019008575 0.066084206 0.056069538
000020 5f ce 0d be fe 64 f8 3c 3f ed ae bd a7 22 a2 3d
       -0.13848256 0.030321594 -0.08541345 0.07916766
000030 7f 78 0b 3f a6 17 11 bf 02 fe f9 be dd 3a 13 3f
       0.5448074 -0.5667671 -0.48826605 0.57511693
000040 bd 3b cc 3d bf 94 23 3e ef 04 63 3e 8d 69 db be
       0.09972332 0.15974711 0.22169851 -0.42853966
000050 1b 1a 78 3f 9e 33 34 be da 0d 6e 3f 76 22 8c 3f
       0.96914834 -0.17597815 0.92989886 1.0948017
000060 80 fd 00 3f cb a3 58 be fa 14 c1 be a3 74 74 3f
       0.5038681 -0.21156232 -0.37711316 0.95490474
000070 06 30 2e bf 2f 46 ef 3d fd 7c ba be 43 5b a8 3f
       -0.6804203 0.11683308 -0.36423483 1.3152851
000080 69 64 ff be 19 dd 3c bf 33 78 59 bf e2 92 2d 3f
       -0.49881294 -0.7377487 -0.84949034 0.6780225
000090 90 79 b6 3f 14 f0 6c bf bc 63 79 3f 2f 2e 09 3f
       1.4255848 -0.9255383 0.9741781 0.53586096
0000a0 e7 59 db 3f f6 ca 01 be ad e9 af be 2e b3 19 3e
       1.7136811 -0.1267508 -0.34357968 0.15009758
0000b0 ae 06 9d 3f 5e 99 bb 3d df 7a 9c be 13 8b 7b bf
       1.2267663 0.09160112 -0.30562493 -0.98259085
0000c0 bd 26 da 3e 0d 72 00 3f 7e 88 88 3f b0 6e 37 3e
       0.4260768 0.5017403 1.0666654 0.17913318
0000d0 09 10 5b 3f cf 83 3c 3e 2a 58 2e 3e 1b 8b 2a bf
       0.8557134 0.18409656 0.1702582 -0.6661851
0000e0 fb ae 33 3e 76 fe 83 be 1d 00 b1 3e 00 92 b9 3d
       0.17547219 -0.25780076 0.345704 0.090610504
0000f0 50 13 71 3f 05 31 99 3e 2c f1 cf 3d 2a 3b 60 3f
       0.94170094 0.2992021 0.10153422 0.8759028
000100 ed 9f 23 3f 87 56 b8 be 04 9c 1d bd fd 81 21 3f
       0.639159 -0.36003515 -0.038478866 0.6308897
000110 64 87 80 bf 78 ca 7f be f3 76 0c 3f 39 db a1 bf
       -1.0041318 -0.2497958 0.54869 -1.2645026
000120 e0 79 37 be 30 61 06 bf 3b 0c 37 bf 79 07 e5 3d
       -0.17917585 -0.52492046 -0.7150304 0.11183066
000130 36 67 e6 3e 70 56 ba 3f bc f3 a0 3d 77 6a fb 3e
       0.4500062 1.4557629 0.07858989 0.49104664
000140 fa 5f 45 be 18 b3 94 3f d2 7d b4 3e 90 03 46 be
       -0.19274893 1.1617155 0.35252243 -0.19337296
000150 50 c5 d7 3e ca aa 39 bf 9c af c0 bd 0e 69 18 3e
       0.42142725 -0.7252623 -0.09408495 0.14883825
000160 ec fb c5 3e 89 76 09 be 70 4d de be c8 25 33 bf
       0.38668764 -0.13424124 -0.43418455 -0.69979525
000170 31 80 2c be ef 68 22 bf b0 fc de 3e 39 ae 2c 3f
       -0.16845776 -0.63441366 0.4355216 0.6745334

embedding.pier_embedding.bias f4 [32]
000000 a0 fe 85 bd 4f 4c 34 3d d7 77 64 bd 21 de 9b bd
       -0.065427065 0.044018086 -0.05577835 -0.07610727
000010 f9 f7 16 bf 9c 22 44 be 31 64 21 bf ee ef 46 3f
       -0.58972126 -0.19153827 -0.63043505 0.77709854
000020 78 9f da bd b4 a4 6f be 43 62 95 3e 59 6f 64 bf
       -0.106749475 -0.23402673 0.2917653 -0.89232403
000030 97 a3 46 3f 09 1a c4 be 96 ee 7c 3f 79 fb c2 be
       0.7759337 -0.38301113 0.98801553 -0.38082483
000040 bd 27 08 bf 61 a6 c6 be 0e 8b f4 be a2 a7 dc be
       -0.53185636 -0.38798812 -0.4776234 -0.43096644
000050 6b 47 73 bf 64 19 a6 3f f2 e0 52 bf 33 e2 17 bd
       -0.9503085 1.2976499 -0.8237449 -0.037080955
000060 f2 e0 bd 3e 01 75 54 bf b3 05 27 bf 80 ac 98 3f
       0.37085682 -0.82991034 -0.6524307 1.1927643
000070 bc 86 b5 be 6c 4b 8f bf 74 e1 27 bf 50 1d 9f bf
       -0.35454357 -1.1194892 -0.6557839 -1.243082

out.feature_out.layers.0.weight f4 [32, 32]
000000 29 51 29 be 8f b3 1c 3e b4 f8 ec 3e 3e 30 b6 3d
       -0.16534866 0.15302871 0.46283495 0.0889592
000010 c4 5c fc be a7 84 b1 bc 2f bd 1f bf 7e ec c4 3d
       -0.49289525 -0.021669699 -0.62398046 0.0961542
000020 c6 c7 26 3f 16 1f 75 3e e8 bc e2 3e 3e 4c 97 3d
       0.6514858 0.2393764 0.4428475 0.07387589
000030 da 99 b7 3c df 51 a7 3c 13 bc f8 3e 48 1c 34 bd
       0.02241223 0.020424781 0.4858099 -0.043972284
000040 6c da 6f 3e 87 0d b5 3d 5c f3 95 bf 8a 3a d9 3d
       0.23423165 0.08840471 -1.1714892 0.106068686
000050 8d fd ce bc e8 bd e9 bd b4 0f a4 be a1 2e 97 bd
       -0.025267387 -0.11413175 -0.3204323 -0.07381941
000060 9a 58 e2 be fe d4 aa 3d ae 2d 5a bf 17 9a 09 3e
       -0.44208223 0.08341406 -0.8522595 0.13437687
000070 ed 8b c4 bd 50 a6 2f 3e 36 6a 23 bf e8 90 83 3d
       -0.09597001 0.17153287 -0.6383394 0.06424123
000080 2b 4d 26 3f c8 d5 83 3e c2 25 87 bc 4e 19 d3 3d
       0.649615 0.2574904 -0.016497497 0.10307561
000090 d3 21 ec bd 7e e6 b4 bd b3 a6 a7 be 67 a9 1a 3e
       -0.11529889 -0.088330254 -0.3274437 0.15103684
0000a0 3f 5e bf 3d b5 14 e3 3d bd 39 28 3f 39 14 28 3e
       0.09344148 0.11087934 0.657131 0.16413964
0000b0 13 af 2b bf 85 df d3 3d a1 6c a9 3e 8a ab cb 3d
       -0.6706402 0.10345367 0.3309069 0.09944828
0000c0 7f c8 bb 3e 73 eb 9f 3b 9a 77 d5 3d d6 7f fb 3d
       0.36676404 0.0048803627 0.10423203 0.12280242
0000d0 d4 36 0a be 42 06 42 3e 63 af 5b 3f 50 6b 04 3c
       -0.13497478 0.189477 0.85814494 0.008082226
0000e0 ee a2 f8 be 2e f8 44 be fa 88 21 3e c8 e9 9d 3c
       -0.48561805 -0.19235298 0.15774909 0.019276515
0000f0 ad a5 aa bc a9 1b a6 bd 82 11 01 bf e7 ba 14 3e
       -0.020830953 -0.081107445 -0.5041734 0.14524423
000100 2a ed a1 3e d9 49 c1 bd 49 ba 9f 3f c7 9c 98 bd
       0.31626254 -0.094379134 1.2478725 -0.07451778
000110 34 b3 5f 3c cf 70 09 bd 2f be 46 3f 50 df 1d 3d
       0.013653565 -0.03355485 0.7763395 0.038543046
000120 bf 38 41 be a1 2d 44 be a6 e5 a6 3e 2c e3 80 3d
       -0.18869303 -0.19158031 0.32597083 0.062933296
000130 e3 5b f0 be ec af 09 bc dd da 54 bf 99 bb 15 3e
       -0.46945104 -0.008403759 -0.8314646 0.14622344
000140 ea 41 a0 3e 8d 8b 9b 3d 40 80 f5 3c 66 ab eb 3d
       0.31300288 0.075949766 0.02996838 0.11507301
000150 3c 96 c2 3e 63 44 ae 3d 84 8f 12 bf 48 4a d1 3c
       0.38005245 0.085091375 -0.5725024 0.025548115
000160 cd 9d 09 bf 60 62 b8 3d 35 e2 60 3f f8 50 94 3c
       -0.5375641 0.090031385 0.87845165 0.018105015
000170 84 e1 05 3e 04 d8 2c bd 3d 5d 00 3d 0a bf 0a be
       0.13074309 -0.042198196 0.03133892 -0.13549438
000180 91 a5 74 3e a4 8f 48 be c5 32 a8 3e ab ba 9d bd
       0.23891284 -0.19586045 0.32851234 -0.0770162
000190 48 91 9f be 51 f7 4b 3e 81 dc d6 be b0 27 04 be
       -0.31165528 0.19918562 -0.41965106 -0.12905765
0001a0 b2 b8 04 3e f3 48 1e be 6f 27 aa bf 4f 6e 25 be
       0.1296108 -0.15457515 -1.3293284 -0.1615536
0001b0 9d 2c 26 3f c5 5b 29 bd f1 8f 62 bd 7a f9 a9 3d
       0.64911824 -0.041347284 -0.055313054 0.08299537
0001c0 96 f7 97 be 14 ea b8 bd e1 b7 db bf 9e 57 ed bd
       -0.2968108 -0.09029022 -1.716549 -0.11588977
0001d0 d4 e1 cd be d9 6f 39 be 4c e2 ae bf 20 42 44 3c
       -0.40211356 -0.18109073 -1.366281 0.011978656
0001e0 a6 0b 39 be fc 1b 00 be dd 29 25 be 00 25 ad 3b
       -0.1807085 -0.12510675 -0.16129251 0.0052839518
0001f0 73 1f be be 72 e7 f0 3a 19 2c 9d 3f b6 08 cf 3d
       -0.3713337 0.0018379523 1.2279083 0.10109083
000200 c1 19 0b 3f 47 de a7 3d e1 ab 98 3d d0 a9 f7 bc
       0.5433617 0.08196693 0.07454658 -0.03023234
000210 e5 37 be bc e7 07 d6 3d df ca 19 3f da bf 27 be
       -0.023220012 0.10450726 0.6007518 -0.1638178
000220 0b 6b a8 3c e6 a7 0c 3e 3c fe 28 be b2 48 d5 bd
       0.020558855 0.13735923 -0.16503233 -0.10414256
000230 c0 6a 8b 3e 0f f6 d5 bd de 22 85 be 67 84 1d 3e
       0.2722988 -0.104473226 -0.26003164 0.15382539
000240 c4 74 5d bd 09 a1 ef bd 0e 82 2c be c6 d8 f8 bd
       -0.054066435 -0.11700637 -0.16846487 -0.12150721
000250 02 be 26 bf 4c 75 8c 3e ba ee ca bf 19 12 0b be
       -0.6513368 0.2743324 -1.5854104 -0.13581122
000260 54 c3 9f bf 88 36 bc 3d 6f 23 b1 3e 4a 0a d6 3d
       -1.2481484 0.091900885 0.34597346 0.10451181
000270 8a d3 81 3e f9 37 47 bd 42 2d 14 3e ee d7 f1 3d
       0.25356704 -0.048637364 0.1447039 0.118087634
000280 6f 47 77 3e 36 6c 1c 3e df 0e 85 bf ee 71 f7 3d
       0.24148344 0.15275654 -1.0395163 0.12082277
000290 09 52 83 bf 8a fd b4 bd 65 13 73 3f e9 10 8c bd
       -1.025941 -0.08837421 0.9495147 -0.06839163
0002a0 b5 19 aa be 2a ea 84 3d 3e 8d 3e 3f 7d 4e ce bd
       -0.33222738 0.06489976 0.7443427 -0.10073564
0002b0 a9 fe 89 3e 76 98 60 3d 82 d7 73 bf c4 4a 0a 3d
       0.26952103 0.054832898 -0.95250714 0.03376271
0002c0 fe a6 47 3e bb f8 bc bd 3c 2d 85 3e ac e6 a6 bd
       0.19497296 -0.09227129 0.26011074 -0.08149466
0002d0 0c da 73 bf 0e 71 14 3e f1 de 00 c0 34 f0 6a 3d
       -0.9525459 0.14496252 -2.0136073 0.05735798
0002e0 49 ba ea be bd 12 be bd 6a 47 99 bf 3b 04 35 be
       -0.4584525 -0.09280918 -1.1974919 -0.17677395
0002f0 4c f7 d7 3c b2 b3 12 3e 2e 7e 7b 3e 10 09 cb 3c
       0.026363038 0.14326361 0.24559852 0.024784595
000300 0a 5e 11 3f 3c 99 6a 3e 14 77 13 3f 00 b6 ae 3c
       0.5678412 0.22910017 0.57603574 0.021327019
000310 e1 12 42 bf 92 97 9c bd 10 bc a8 bf 20 3b 52 3c
       -0.75810057 -0.07646097 -1.3182392 0.012831479
000320 8f 95 2f be e8 fd cc bd 3a fd e2 3e 6e 01 c7 3d
       -0.17146896 -0.10009366 0.44333822 0.097170696
000330 f1 17 00 3e f0 d8 66 3b 4f bc 21 3e 24 69 0b bd
       0.12509133 0.003522452 0.1579449 -0.034035817
000340 75 90 60 3e b0 08 45 3e be 91 88 be 3b b6 32 3e
       0.21930106 0.19241595 -0.26673692 0.17452328
000350 17 a4 4f bf 40 cc 7f 3d b2 d9 bb bf 03 f7 2b 3e
       -0.81109756 0.062450647 -1.467581 0.16793446
000360 0e 1c 1a bf 73 e8 a0 bd 33 fe 85 bf 10 ee cc bc
       -0.6019906 -0.07856836 -1.04682 -0.02501586
000370 2c 08 1b 3e f3 96 0c be e8 f1 41 bd 38 c0 14 3d
       0.15139836 -0.13729458 -0.04734984 0.036316127
000380 e1 91 26 3c c9 f3 d5 3c cf 21 95 3f 0c 3a 1f 3d
       0.010166616 0.026117222 1.1650943 0.038873717
000390 d5 d7 33 be cf 72 d9 ba 98 73 73 bf 68 24 9a 3c
       -0.17562802 -0.0016590002 -0.9509826 0.018816188
0003a0 3f 4b 44 3e 13 a3 43 3e b2 5f b1 3e ef 9e 0d be
       0.19169329 0.19105177 0.34643322 -0.1383016
0003b0 67 61 b5 be e3 3b a5 3d a4 60 8e be cd 02 16 3e
       -0.35425875 0.08068063 -0.27808106 0.14649506
0003c0 b0 ae 96 bd 8f d4 00 3e 03 ec d0 3b 34 76 12 be
       -0.07357538 0.12581085 0.006375791 -0.14302903
0003d0 3e d6 84 3e 5d 0d a2 3e dc a2 32 3f 18 fd d7 3c
       0.25944704 0.3165082 0.69779754 0.026365802
0003e0 03 da 8c bf 10 0d 8a 3d 80 83 5e c0 39 43 80 bd
       -1.1004032 0.06740773 -3.4767761 -0.06262822
0003f0 58 a8 0a 3e bc f1 e3 bc 11 27 42 3d 22 7e d1 3d
       0.1354078 -0.027825229 0.047400538 0.10229136

out.feature_out.layers.0.bias f4 [32]
000000 7f b3 82 bd 61 84 74 bb c8 63 ce be c7 c6 10 3e
       -0.063818924 -0.003731035 -0.40310502 0.14138328
000010 6a 0e 01 be 1b e3 ba bd 90 75 db 3d f7 8e 09 3e
       -0.12603155 -0.09125348 0.10715783 0.13433443
000020 47 84 a7 3d ab 3f ed 3e ac 28 a7 be f0 2a a0 3d
       0.08179527 0.46337637 -0.32648218 0.0782069
000030 3e 3f 9c be ec 9f c2 be 6c 74 97 3e 28 62 cf 3e
       -0.30517 -0.38012636 0.2958101 0.40504575
000040 47 8a 66 be f4 62 82 3f ff 86 7e 3d da 7b a0 3c
       -0.22513686 1.0186448 0.06214046 0.019590307
000050 7d 2e d1 3d f9 82 f4 be 2d e7 29 bf f2 4a 1b 3e
       0.10213945 -0.47756174 -0.6636837 0.15165308
000060 91 f2 09 3e 6d 07 da bb 7a aa a1 bd eb 2b c8 be
       0.13471438 -0.0066537173 -0.07893844 -0.39096007
000070 1e 70 36 3e f9 c0 04 3f 03 4a 12 3e 0e 1e 00 bd
       0.17816207 0.5185695 0.14286046 -0.031278662

out.feature_out.layers.2.weight f4 [32, 32]
000000 23 49 e3 be a3 76 3f be 29 a0 4e 3e c1 b6 77 bf
       -0.44391736 -0.186976 0.20178284 -0.96763235
000010 8e 9c b4 bc 81 02 27 3e 23 f5 23 bf cf 80 a2 bf
       -0.022047307 0.16309549 -0.64045924 -1.2695559
000020 a4 07 8d 3c 5e bc 00 bf 25 6e 0b bd 70 d2 a2 be
       0.017215557 -0.50287426 -0.03404059 -0.31801176
000030 96 e0 10 bf ab 36 43 3f e2 18 a8 3d f9 47 d3 bf
       -0.5659269 0.7625529 0.08207871 -1.6506339
000040 32 ad 0a 3e 12 51 fd 3d b4 3e 9a bd c7 34 cb bd
       0.13542631 0.123689786 -0.07531491 -0.09922176
000050 7b de 79 bf df 92 12 be 33 f7 e4 3d 6e 6f b0 3e
       -0.97605103 -0.1431384 0.11179962 0.34460014
000060 07 89 88 3e 20 52 1a 3e 27 f5 89 be 3a e1 bb 3e
       0.26667044 0.1507039 -0.2694485 0.36695272
000070 3c 00 ed be a4 41 dc 3e 50 9b 7c 3e c7 d2 dc be
       -0.4628924 0.4301883 0.24668622 -0.4312956
000080 19 f9 50 be 13 a0 85 bd 5d 74 22 3f 3b a0 d8 3e
       -0.20407523 -0.06524672 0.63458806 0.42309746
000090 8a 67 16 bd 0f d9 55 3f ea a9 0f bc 55 70 a1 be
       -0.036719836 0.8353433 -0.008768538 -0.31531015
0000a0 9d 8b 9b 3c 91 1e f0 3e a0 3c b2 be 93 72 8c bf
       0.018987471 0.4689832 -0.34811878 -1.0972465
0000b0 87 cb c3 be b8 56 c2 3e 98 3c fd be ad 25 2f 3f
       -0.38241217 0.37956786 -0.49460292 0.68416864
0000c0 6f 87 8d be 7a 86 ca bc 4b 32 2f 3f 75 55 d9 3e
       -0.2764239 -0.024722327 0.68436116 0.4244801
0000d0 c9 98 8b bf eb 92 9b 3d 72 3a a0 be 7b bd c0 3e
       -1.0906001 0.07596382 -0.3129459 0.37644562
0000e0 68 b7 15 3f a1 5d 45 bf 9b cc dc bd 96 65 b4 be
       0.5848298 -0.7709599 -0.10781213 -0.35233754
0000f0 cb c3 a2 bc 84 af 7c bd a5 5f f6 bc 55 8c 00 bf
       -0.019868752 -0.061690822 -0.030074904 -0.5021413
000100 62 69 89 be 42 6a ac 3e 0b 26 86 be aa 60 59 3f
       -0.26838213 0.33674818 -0.262009 0.8491312
000110 f7 2b 57 be b0 c6 d3 3e 17 ed 8e bd 6b c5 44 be
       -0.21012865 0.41362524 -0.06978815 -0.19215934
000120 45 20 02 3e 9e f7 02 c0 63 d0 1b 3f 5d 71 11 3e
       0.12707622 -2.0463634 0.6086485 0.14203401
000130 88 f4 d0 be 11 e9 7f 3e bd 76 3f 3e bd 22 d4 be
       -0.40811563 0.24991252 0.18697639 -0.41432753
000140 86 3f 8d be 8b a3 62 3e b6 1f 80 be 1f c2 5a 3e
       -0.27587527 0.22132699 -0.25024194 0.21363114
000150 73 27 8f 3f e2 bc 53 be f5 b6 9f be 25 a6 de be
       1.1183914 -0.20677522 -0.31194273 -0.43486133
000160 9b 61 33 3f 48 71 cc be 64 d5 10 be ff 1d 2b bf
       0.7007081 -0.39930177 -0.14143902 -0.66842645
000170 38 97 ae 3e fa 28 31 bf 70 81 24 3e 72 73 2f bf
       0.34099746 -0.6920315 0.16065001 -0.6853553
000180 b4 54 f5 3d af a6 13 be bf 69 00 3e 24 54 07 be
       0.119790465 -0.14419053 0.12540339 -0.13215691
000190 8a 23 87 3e b1 fe 8c bf a4 ae dd be 95 01 53 be
       0.26394302 -1.1015226 -0.43297303 -0.20606072
0001a0 83 e9 96 be bf 69 b2 be 88 91 b7 bd 6f 3c 5a 3e
       -0.2947503 -0.34846303 -0.08963305 0.21312116
0001b0 bc d5 06 bf 98 b4 99 bf 21 11 be 3d af 6b bc be
       -0.5266988 -1.2008238 0.09280611 -0.36800906
0001c0 4f c5 fa be 0e 18 0f bf e0 26 f2 3e 8d 0d eb be
       -0.4897866 -0.5589608 0.47295284 -0.45908776
0001d0 de e2 ce 3e fe 39 6b bf b9 df 9c 3d 6f f7 da bd
       0.4040746 -0.91885364 0.07659859 -0.106917255
0001e0 93 18 36 3e 72 cf 0b 3f 29 10 f8 be 58 05 b8 3e
       0.17782812 0.5461341 -0.4844983 0.35941577
0001f0 67 5c a8 bc d5 c3 eb bd 38 6e 0a bf 7c 21 19 bf
       -0.020551873 -0.11511961 -0.5407443 -0.5981672
000200 cf ea bd be 72 f6 57 3d c6 56 92 be b4 8c 48 3e
       -0.37093207 0.052725263 -0.28581828 0.19584924
000210 a2 ef 03 3e 4a 3a c7 be b9 20 ac be f0 fd 22 bd
       0.12884381 -0.3891166 -0.33618715 -0.039792955
000220 dd 69 39 bf 65 87 43 bf 05 13 8a 3d 04 34 14 3f
       -0.7242716 -0.7637847 0.06741909 0.5789187
000230 66 99 90 3d 4c 60 82 be 9d c3 b2 3e d8 5d 8d 3e
       0.070605084 -0.25464094 0.34914866 0.2761066
000240 16 da c9 3e 9e f6 0d 3f f3 6f 44 bf 05 e1 13 bd
       0.394242 0.5545443 -0.7673332 -0.036103267
000250 7e 56 84 be 4c ea 20 3f 0f 0b 39 3e 66 0e 23 bf
       -0.25847238 0.6285751 0.18070625 -0.63693845
000260 54 e9 f5 3e 22 fa cc be 31 f5 99 3e 3a 94 ff be
       0.48029578 -0.40034586 0.3006988 -0.49917775
000270 83 5d d0 be c3 d6 f6 be c8 69 4c bd 05 65 a7 be
       -0.40696344 -0.48210725 -0.04990557 -0.3269426
000280 a6 2c 28 3f 4b 24 b3 bd 03 cc d5 3e 44 aa bd 3e
       0.6569313 -0.08747157 0.4175721 0.37043965
000290 c4 c6 92 bd e2 46 c6 be eb 26 93 bf 94 7d a2 3e
       -0.07166818 -0.38725954 -1.1496252 0.31736434
0002a0 c3 94 62 be 07 33 10 bf 26 15 67 3e 4d 14 41 3f
       -0.2212706 -0.5632786 0.22566661 0.754216
0002b0 85 a3 9c be 61 7d 35 be f0 ea 60 3e 9a 59 35 be
       -0.30593506 -0.1772361 0.21964622 -0.17709962
0002c0 21 4e 54 be 81 7f 08 3f e1 b5 e0 bb b5 37 ce 3d
       -0.20732929 0.53319556 -0.006857619 0.10069219
0002d0 5d fd 7e 3e 9c e8 41 3b 70 0c 82 3d f7 83 91 bd
       0.24901338 0.002958811 0.063500285 -0.071052484
0002e0 0c b4 84 3e f5 7e 04 bf 61 cd ae bd 8b f3 a9 bd
       0.25918615 -0.5175622 -0.08535267 -0.08298405
0002f0 6b f7 ec 3c 65 6d b1 bf 0d a0 2d be 74 f5 80 3f
       0.028926572 -1.386151 -0.16955586 1.0074906
000300 fa 9f 3b be d0 3b 78 bf 64 f6 1e bf 4b 25 e5 bd
       -0.18322745 -0.96966267 -0.6209471 -0.11188754
000310 84 29 85 be 87 6a 9a 3c 94 be 36 bf 0a 62 b4 3e
       -0.26008236 0.018849624 -0.7138455 0.35231048
000320 b5 6b fd bd e0 cb 93 bf 02 a9 f8 be 91 ea 9e be
       -0.12374059 -1.1546593 -0.48566443 -0.31038335
000330 53 a6 aa be 1b 19 c1 bf 82 63 7b bf 2c 4b dc bf
       -0.3333002 -1.5085787 -0.9819871 -1.7210441
000340 47 d1 05 be ea 3e f9 3e 72 95 8b 3e af 6c 97 3e
       -0.13068114 0.48680812 0.27262455 0.29575107
000350 fd fc 9c 3e 77 83 f0 3e cb fd f8 be b0 99 c3 3d
       0.30661765 0.469753 -0.4863113 0.09550798
000360 6e 41 93 be fc 5f 20 3e 9a ef 0b bf e8 40 31 be
       -0.28760856 0.15661615 -0.5466248 -0.17309916
000370 1b ab 26 3f 6e 17 6e 3e 5c cf 46 3d 50 c4 00 3f
       0.65104836 0.23251125 0.048537597 0.5029955
000380 cb 8c 3a bd 68 88 73 bf ae ff bc 3d 95 4b 1f 3e
       -0.045544427 -0.95130014 0.092284545 0.15556176
000390 48 4f 4f bf fd 9b 40 3f ad 7d 32 be a0 08 23 3f
       -0.8098035 0.7523802 -0.17430754 0.63685036
0003a0 3b e6 2a 3e 2a 73 3d 3f 5a fe ce 3d bd 94 19 bd
       0.16689388 0.7400385 0.101071075 -0.037495364
0003b0 ee fa 7c be d1 97 3d 3e 2e 17 87 bf 49 aa 00 3f
       -0.24705097 0.18514945 -1.0553949 0.50259835
0003c0 4d c2 71 3e 44 31 02 3f 8e 6e dd bd 67 e7 1d bf
       0.23609276 0.50856423 -0.10812102 -0.61681217
0003d0 6f fb 53 3f 1c d9 32 3d 65 c2 5d 3e 67 ec 4b 3e
       0.8280553 0.043664083 0.21656187 0.19914399
0003e0 75 8a 4a 3f f8 f4 19 3f f3 c2 d8 be 1d f8 a8 be
       0.7911752 0.6013942 -0.42336234 -0.33001795
0003f0 30 e5 86 3e 0b 9f d9 3e 63 74 b2 be d3 00 27 3f
       0.2634673 0.42504153 -0.3485442 0.6523563

out.feature_out.layers.2.bias f4 [32]
000000 fd 53 a1 3d b5 58 ac 3d ca 54 85 be ed ec 1b 3f
       0.078773476 0.08415357 -0.2604125 0.60908395
000010 2d 31 41 3d 0f 8d c1 3c 1b e2 52 3e b5 72 09 bf
       0.04716604 0.023626832 0.20594065 -0.53690654
000020 02 2c b5 be b0 b6 fc be 39 7e 1f 3d de c0 9e be
       -0.35385138 -0.4935813 0.038938735 -0.3100652
000030 dd 54 22 bf d9 05 90 be b1 fd 7a 3e 26 cc 10 bd
       -0.6341074 -0.2812946 0.24510838 -0.03535094
000040 a5 ff 6a be 3a ca 06 bf b4 5f b3 3d fc 74 cd be
       -0.22949083 -0.52652323 0.08758488 -0.40128314
000050 07 b8 4d 3e a8 f1 82 be 2d 6d a2 3e 47 3e 38 3e
       0.20089732 -0.25574994 0.3172392 0.17992507
000060 e9 2c be be 09 28 e1 be db 04 ea 3d 07 da 0e bd
       -0.3714364 -0.43975857 0.11426707 -0.034875896
000070 c1 f0 a5 be d0 d7 4c 3e 0b a2 80 bf 9e a3 08 bf
       -0.32410243 0.20004201 -1.0049452 -0.5337466

out.feature_out.layers.4.weight f4 [32, 32]
000000 7b 8f 12 3f 27 48 64 bf 4b 06 8f 3e ff 50 32 bf
       0.57250184 -0.89172596 0.2793449 -0.6965484
000010 1d 46 a0 3e 2b 1a 26 3e 1d 3e b7 be 92 f5 e8 bd
       0.31303492 0.1622092 -0.35789576 -0.11374964
000020 b8 28 f4 3c 66 52 2b 3f 93 dd 87 bd 48 92 f8 be
       0.029804572 0.66922605 -0.06634059 -0.48549104
000030 36 6c dc bf b8 52 be 3c 6e 6e b9 3e db b5 af bd
       -1.7220523 0.023232803 0.36217064 -0.08579608
000040 ec ae cf 3e 91 56 83 bf 90 62 96 3e 13 ad 3f bf
       0.40563142 -1.0260793 0.29372072 -0.74873465
000050 e7 be 80 bf 53 6f 56 be 8d 6e dc 3e af 53 69 bc
       -1.0058259 -0.20940904 0.43053094 -0.014241143
000060 56 10 ce bc 2d 8c bc 3d 5c 7d 13 bf 44 6a a5 be
       -0.025154274 0.09206424 -0.5761316 -0.32307637
000070 bd e0 83 bd f1 ef c3 be 37 2d cc be 31 1c ef be
       -0.0643935 -0.38268998 -0.39878246 -0.46701196
000080 ec e9 56 3e 92 bb f8 3d 75 09 15 3f 8d 85 ac 3e
       0.20987672 0.12145151 0.58217555 0.3369564
000090 0c c4 f0 3b 11 49 bd 3d 19 89 af bf 2c 55 de bd
       0.0073475894 0.09242452 -1.3713714 -0.10856089
0000a0 0a 24 3a 3e 75 24 05 3f 67 c1 72 3f 45 96 8c 3e
       0.1817781 0.52008754 0.9482636 0.27458397
0000b0 8a 74 2d 3f 64 39 60 be a1 c9 02 3f d2 76 12 3d
       0.6775595 -0.21896893 0.5108891 0.035757847
0000c0 9a 35 95 bf 60 c4 dc 3e 9e c8 1e 3e 7a 3e 71 bf
       -1.1656983 0.43118572 0.15506217 -0.94235957
0000d0 ea c6 12 3f 7e 10 f0 bd 14 08 3c be d7 f0 b9 bd
       0.5733477 -0.11721896 -0.18362457 -0.0907914
0000e0 33 e2 68 3e b6 d8 b0 3e d5 7a e5 be 19 0d 0d bc
       0.22742538 0.34540337 -0.44820276 -0.00860908
0000f0 19 46 df be 06 30 d7 be 5a de 04 bf 50 87 c4 be
       -0.43608168 -0.42028826 -0.5190178 -0.38384485
000100 0e 4a f4 bd f3 b8 dc 3b 52 cb cf bc bc db 10 3e
       -0.11928187 0.006735915 -0.025365505 0.14146322
000110 a9 62 1a 3f 9a 20 c9 bf 24 3d 9a be 51 92 6b be
       0.60306793 -1.5713074 -0.30124772 -0.23005034
000120 f9 64 39 3e c3 27 38 bc 25 09 11 3e 66 77 05 bf
       0.18104924 -0.011239949 0.14163645 -0.5213531
000130 c0 f2 a5 3d c7 12 0d 3d 49 3f 0a 3f 75 18 a7 bf
       0.081029415 0.034441736 0.54002815 -1.3054339
000140 96 3e 23 bd 24 96 94 be 22 49 18 3f 54 02 1e 3e
       -0.03985461 -0.29020798 0.5948659 0.15430576
000150 91 57 91 3d 22 6e d2 be a3 43 99 3e 2e b2 09 3e
       0.0709678 -0.4109965 0.29934415 0.13446876
000160 6e 37 30 be 8e 6a e2 3c 5a e5 0d 3d 02 1d 55 3e
       -0.17208645 0.0276387 0.034642555 0.20811847
000170 16 aa d7 bd 0c 33 12 3e 31 d8 9b be 7a f5 c9 3e
       -0.10530488 0.14277285 -0.30438378 0.39445096
000180 fb 1b 05 3f 41 5a 03 3d b0 89 9a be ea 8a 4d bf
       0.5199582 0.032068495 -0.30183172 -0.8029009
000190 5d c1 2c bf 0f 4e 02 bf 5e 25 1f bf 68 d9 77 be
       -0.6748255 -0.5090036 -0.6216639 -0.24204028
0001a0 65 73 1b 3d 5c 30 42 3e 10 17 3a 3f d1 1f 0c 3e
       0.037951846 0.1896376 0.7269144 0.13684012
0001b0 f8 dd 95 bd f7 6b 8c 3e ed 0e bc 3e 10 71 f8 3c
       -0.07317728 0.2742612 0.36730137 0.03032735
0001c0 c4 53 ea 3c cf 17 bb 3d 32 9b 9e bb 9d 04 95 3e
       0.028604396 0.091354005 -0.004840278 0.29105082
0001d0 e0 f3 f2 3e 25 96 32 3f 28 99 da bd 4f 8f a4 3d
       0.47451687 0.6976035 -0.106737435 0.080351464
0001e0 a4 31 d2 be 0d 3a c7 bf c4 f3 37 3f 18 fa 6c bf
       -0.41053498 -1.5564591 0.7185633 -0.9256911
0001f0 03 42 17 c0 12 43 a8 3d 62 36 00 bd 1c 3a 04 3e
       -2.363404 0.08215918 -0.031301863 0.12912792
000200 e1 41 46 be 17 87 97 3e be ff e7 be d9 5f f7 bd
       -0.19361068 0.29595253 -0.45312303 -0.12078828
000210 e2 c3 ee 3e 77 13 22 be 33 92 31 bd 0d 83 03 bf
       0.46633822 -0.15827738 -0.043352317 -0.5137184
000220 ca 55 d2 be fd 14 33 3c 10 f5 65 3c c3 76 11 3c
       -0.41081077 0.010930297 0.014035478 0.008878413
000230 0b 97 5b 3e 42 79 a2 3d 8d 67 fc bc 28 c0 10 be
       0.21444337 0.07933284 -0.030811096 -0.14135802
000240 cc 1f a4 be bb f1 e9 3d 0e 63 03 be 96 ad f9 bc
       -0.3205551 0.114230596 -0.12830755 -0.03047828
000250 3c 06 e0 3e a3 46 7e bf dd f8 0d bf 00 9b e4 bc
       0.43754756 -0.99326533 -0.5545786 -0.027905941
000260 d5 da fb be fb 46 02 3f 14 53 38 3e 17 2a 34 bf
       -0.49190393 0.5088956 0.18000442 -0.70376724
000270 9c 74 d7 be 18 7f c0 be 10 2c 8b be 51 0b 45 bf
       -0.42081153 -0.37596965 -0.27182055 -0.7697039
000280 98 23 11 be 08 13 1a bf c8 82 9f bf 2f 2c 29 3f
       -0.14173734 -0.6018529 -1.2461786 0.66083044
000290 ac 68 68 bf bc ec 91 be d5 ed 90 3e f8 e0 4c be
       -0.90784717 -0.28500926 0.2830645 -0.20007694
0002a0 5c 05 de bb 37 56 a6 3e 43 ae 15 3e 82 eb 60 bf
       -0.006775541 0.32487652 0.14617257 -0.87859356
0002b0 26 25 9e be 82 b3 a6 3e b6 ca 96 bf 14 a3 2e 3e
       -0.30887717 0.3255883 -1.1780612 0.17054397
0002c0 e2 2d bd b9 9e d3 1d be 3d 2d ae 3c 21 ba cc 3e
       -0.00036083075 -0.15412757 0.021261806 0.39985755
0002d0 b0 8d 9e be ba ec 9b 3e 65 78 02 3f 8e 6f a7 3e
       -0.30967474 0.30454046 0.5096496 0.32702297
0002e0 16 93 9b bf a7 61 15 be 7f 8e a2 3c 56 83 10 be
       -1.2154262 -0.14588033 0.019843338 -0.141126
0002f0 aa e3 9b 3e 0f 17 c8 be 78 39 cf be fd dd 3f bc
       0.3044713 -0.39080092 -0.40473533 -0.011710641
000300 0d a6 41 3e 7c b1 86 3d a6 84 0f 3e 1c 27 b0 3e
       0.18911 0.06576821 0.14015445 0.34404838
000310 b9 93 b7 bd 38 b8 19 3e 17 90 83 3e 32 21 f5 bd
       -0.08963723 0.1501168 0.2569587 -0.11969222
000320 08 38 1f be 3c b4 16 be ce 8a 9a 3e aa 5e 19 bf
       -0.15548718 -0.14717191 0.30184025 -0.5991007
000330 9e 29 02 be c5 56 e1 3d a9 22 7d 3f cc 16 ad 3e
       -0.12711188 0.11002878 0.9888101 0.33806455
000340 e7 85 83 be ef 45 44 3c 8a 10 98 3e 37 70 72 3c
       -0.25688097 0.011979564 0.29700118 0.014797262
000350 6f 77 7b bf d6 bc 28 be 55 62 07 3f 6f 9a 5c bf
       -0.98229116 -0.16478285 0.5288442 -0.86173147
000360 cb ab 85 be 44 29 dd 3e 81 1c af 3e b5 b6 43 3d
       -0.2610763 0.43195546 0.34201434 0.047781665
000370 c3 5b b7 be 88 28 b4 bd fb bb c0 be 52 72 6f bd
       -0.35812196 -0.08796793 -0.37643418 -0.058458634
000380 0f da 36 3c 9d 7b d0 be 1a ae 19 bf a4 e8 3f bf
       0.011160388 -0.4071931 -0.6003128 -0.74964356
000390 ce 88 3e bc 2b 13 da be 9d 3a 26 bf 22 aa 92 be
       -0.0116292965 -0.4259275 -0.64933187 -0.28645426
0003a0 a5 25 59 bc 3d 75 a5 3d 39 fe 98 bd 41 cf 67 bf
       -0.013253604 0.08079002 -0.07470364 -0.9055062
0003b0 23 bc 92 3e 3a a2 26 3e b8 34 54 bf 27 34 b5 bd
       0.28659162 0.16272822 -0.8289294 -0.08847838
0003c0 b2 6d b5 3e c0 d0 e9 bc 4f 37 06 be 39 59 51 3e
       0.35435253 -0.028541923 -0.13107036 0.20444192
0003d0 bf e7 2c c0 a5 66 ee be 21 61 5f be 94 ac c7 3d
       -2.7016447 -0.46562687 -0.21814395 0.097497135
0003e0 e1 ee 57 bd 0f 71 31 3e 25 32 fc bc 28 03 39 bf
       -0.052718047 0.17328285 -0.03078563 -0.7227044
0003f0 de c1 0e bf 7a 5f 03 3e d7 89 7d be 99 c7 6f 3e
       -0.5576457 0.1282939 -0.24759613 0.23415984

out.feature_out.layers.4.bias f4 [32]
000000 20 8f 8b 3d 80 82 fb bd 54 db ff 3c e4 f2 71 be
       0.06814408 -0.1228075 0.031232513 -0.23627812
000010 63 06 e3 3e a2 57 a0 be 59 5f 85 3e 3a d1 9e 3e
       0.4434081 -0.3131686 0.26049307 0.31019002
000020 7b e0 41 3e bc 3b bf 3e 76 a7 7c bd 2b 31 0e bd
       0.18933289 0.3735026 -0.06168314 -0.03471486
000030 89 9e d7 bb 17 a5 d7 bd 83 f7 e9 3e 91 d2 55 3e
       -0.006580178 -0.10529535 0.4569665 0.20881106
000040 2f c5 06 3e 22 47 a1 be 38 76 41 bf 2f cf 13 3e
       0.13161157 -0.31499583 -0.7557101 0.14434503
000050 49 db c4 bd 37 67 d6 bd bb fb bb be 0f fb 07 3d
       -0.09612138 -0.104689054 -0.36715493 0.033198413
000060 7f 67 eb 3d 67 20 ed bd 18 0d 9d be 7d 99 bf be
       0.1149435 -0.11578446 -0.30674052 -0.3742179
000070 c6 ea 8b bd 00 6b 9a 3d 44 0d 18 3d b5 31 40 3e
       -0.06831889 0.0753994 0.037122026 0.18768962

out.feature_out.layers.6.weight f4 [4, 32]
000000 65 08 43 bf ff 2b 1c 3e 6a 3e bb 3d 85 2e ef 3e
       -0.76184684 0.15251158 0.09142764 0.4671518
000010 9b 55 cf be b8 ee 5a be c3 3b 87 be 4e 99 ee be
       -0.40495 -0.21380126 -0.26412782 -0.46601337
000020 d9 92 06 3f 7a 79 52 3e b3 fc be be a3 91 10 bf
       0.5256782 0.20554152 -0.3730217 -0.56472224
000030 c0 2b 78 3e 01 59 3c 3e c7 4d 83 bf 48 43 f9 3d
       0.2423544 0.18393327 -1.0258111 0.12171036
000040 b3 b2 92 bf 91 7e 47 be 8a 9a fe be 75 dc b4 3d
       -1.1460785 -0.19481875 -0.4972728 0.08831111
000050 73 c2 e4 bd f8 6c 4b 3e 6b 9e 43 3e 82 7f 24 bf
       -0.11169901 0.19865787 0.191034 -0.6425706
000060 ac e9 10 bf 05 4b 10 bf c4 50 46 3d 14 fb ce 3e
       -0.56606555 -0.5636447 0.048416868 0.40425932
000070 4f 86 c3 be 1a 2c f0 3e 18 ff 35 3c ec e9 49 3f
       -0.38188407 0.46908647 0.011108182 0.7887256
000080 13 55 a0 be 7a 68 0b 3e ce ad 85 be 45 fa 4d bf
       -0.31314906 0.13614073 -0.26109165 -0.80460006
000090 43 84 ff 3e bf cc 43 bf b0 55 91 3d a7 28 16 be
       0.49905595 -0.7648429 0.07096422 -0.14663945
0000a0 cc 0c 36 3e 72 ac a8 bd b9 df 49 3d 8c c2 dc be
       0.17778319 -0.08236016 0.049285624 -0.43117177
0000b0 f6 8b 45 bd 13 09 08 bf be f3 46 3f b9 11 0f bf
       -0.04822918 -0.53138846 0.7771567 -0.5588642
0000c0 14 c5 fb 3e e3 3f 31 3d bc 4b 43 3e 4a ca 9c bd
       0.49173796 0.043273818 0.19071859 -0.07655771
0000d0 f6 73 7c be 29 5b 5f bf a2 c1 f6 bd 7e c6 8e 3e
       -0.2465361 -0.87248474 -0.12048651 0.27885813
0000e0 12 39 10 3f 56 dc 0e bf 5c 0b 8c 3e e6 a5 a3 3e
       0.5633708 -0.55804956 0.27352417 0.31962508
0000f0 77 68 d3 3e 21 4a 9e 3e 4b f3 58 3f 8a a4 e0 3e
       0.41290638 0.3091593 0.84746236 0.43875533
000100 44 e8 7c 3e e0 72 89 be 85 2c 65 3b 29 0a a5 3d
       0.24697977 -0.26845455 0.0034969163 0.080585785
000110 dc 88 b6 be 77 be a8 3e 20 b7 54 3e d8 4b 07 3f
       -0.3565129 0.32957813 0.20772982 0.52850103
000120 2e 01 89 bd b4 2a d1 be e8 1b 00 3e 67 0b 04 3b
       -0.06689678 -0.40852892 0.12510645 0.0020148398
000130 a6 cb 8d be c9 6e 83 bd 14 7a 64 3e da 19 fc bd
       -0.27694434 -0.06417615 0.22312194 -0.12309618
000140 ee 34 b4 3e 3b 14 fa 3e 07 82 3b 3e a4 c0 9c 3d
       0.35196632 0.4884356 0.1831132 0.07653931
000150 13 0a 00 3f 4f 99 cc be a9 02 1b 3e ac a2 43 be
       0.5001537 -0.39960715 0.15137734 -0.19105023
000160 cf 0b de 3b 13 fb f7 3d c4 a5 03 be 0a c9 66 3e
       0.00677631 0.121084355 -0.12856203 0.22537628
000170 af cc a1 bc 36 2c 47 be bb 8b b3 3e 5b 5d 0b be
       -0.019750921 -0.19450459 0.35067543 -0.13609831
000180 c1 db f9 bc 99 65 cc be c5 c7 ec 3e a8 b6 88 3e
       -0.030500295 -0.39921263 0.46246162 0.26701856
000190 84 8d 1b be eb 69 34 3e b2 25 83 be 7d 56 2f 3e
       -0.15190703 0.1761853 -0.25614697 0.17122836
0001a0 f4 bf cd 3d 89 2e 55 3e 2b 31 34 3f 34 18 89 3e
       0.10046378 0.20818533 0.70387524 0.26776278
0001b0 52 c6 ee be ad 50 15 3d b5 49 2d bf be 01 b0 be
       -0.4663568 0.03645389 -0.67690593 -0.3437633
0001c0 0c 4b 3d 3b 72 c1 d8 be b5 e0 23 be 9d 40 f0 3e
       0.0028883843 -0.42335087 -0.16003688 0.46924296
0001d0 21 66 aa 3d 2b f0 2a 3c eb bf af be d8 f6 98 3e
       0.08320261 0.010433237 -0.3432611 0.29875827
0001e0 7f 36 03 3e 88 26 39 3e 24 de 65 3e 03 dc f2 bc
       0.12813757 0.18081105 0.22448021 -0.029645925
0001f0 cd 9e 26 bf 23 1a 20 be 57 93 0e be 84 29 18 3e
       -0.6508606 -0.1563497 -0.13923393 0.14859587

out.feature_out.layers.6.bias f4 [4]
000000 13 a9 8d 3d ec 30 71 3d c7 ea d0 bd 66 a3 83 bd
       0.06917014 0.058884546 -0.1020103 -0.0642765

backbone.backbone.0.linear.0.weight f4 [32, 32]
000000 a6 bc a9 3a ca 66 81 3c a0 02 42 3c 44 5f c4 3d
       0.0012949898 0.015796084 0.011841446 0.09588483
000010 f6 b7 26 3c 88 14 95 3e 1e 24 8f 3e af 09 9e 3e
       0.010175696 0.29117227 0.27957243 0.30866763
000020 11 e5 22 3f 53 94 c6 3e df 8e 34 3e d3 2f 82 be
       0.6363078 0.38785037 0.17632626 -0.25427112
000030 9f 2e da 3e 9f 53 a9 3e 5b de 65 3f 96 4e f5 bc
       0.42613694 0.3307161 0.8979241 -0.0299447
000040 1b 70 a3 3e 79 5c 8f 3e 6e 9f e7 bd a0 ad e4 be
       0.31921467 0.2800024 -0.11309706 -0.44663715
000050 34 84 cd 3c ba ea 02 3f c1 18 32 3f 1f 00 81 bd
       0.025087453 0.51139414 0.6956902 -0.06298851
000060 57 d3 ba be 88 8a 9c 3e 83 0b 27 3f 75 15 a3 3e
       -0.36489365 0.3057444 0.6525194 0.31852308
000070 cb b0 0c 3f c1 f2 25 3f f0 6e 17 be 0e f1 21 3f
       0.54957265 0.6482354 -0.14788413 0.63258445
000080 44 6b f7 3a 0a 37 32 3c 79 d4 8d 3b 57 3e 16 3d
       0.0018876572 0.01087738 0.004328307 0.036680546
000090 ff e1 6c 3d 8d e5 39 3e 24 b0 f7 3e 22 7e c8 bd
       0.057832714 0.18153973 0.48376572 -0.09789683
0000a0 1a ba b1 be e7 45 90 be 9c ef 9d bd 1e fa 23 3e
       -0.34712297 -0.2817833 -0.077117175 0.16013381
0000b0 0f ed 1f be 9d 6a 11 3d 68 58 bd 3e 88 32 25 3d
       -0.15617774 0.035502065 0.3698151 0.040331393
0000c0 16 17 2c 3f e4 dc 9f 3e 96 8b 7d 3e cc 63 a9 3e
       0.67222726 0.31223214 0.24760279 0.3308395
0000d0 65 3f 44 3c d6 cc 92 be 2f b3 c8 bd 6f 94 82 3e
       0.011978005 -0.28671902 -0.097998016 0.2550387
0000e0 4e a1 0f 3d 4a 12 e3 3e b9 43 03 be 9b 32 7e bd
       0.03506594 0.4434989 -0.12818803 -0.06205998
0000f0 bf 06 9a 3e 97 0f af 3d d8 18 4a 3f 05 2e 04 3e
       0.30083272 0.085478954 0.7894416 0.1290818
000100 1f 28 14 3a 67 c5 d0 39 56 be 75 3c 87 e0 8b 3b
       0.00056517305 0.00039819928 0.014998993 0.004268709
000110 28 3f 1d 3d 3d 3f 99 3a 0c 15 c3 3d bb 24 e2 bd
       0.03839031 0.001169182 0.09525499 -0.11042162
000120 03 14 8a be 04 65 2b be a0 f2 09 b9 39 91 4c 3d
       -0.26968393 -0.16737753 -0.00013155723 0.049943183
000130 e0 47 80 bd e7 a0 a2 3d 77 44 0f be b2 1d 88 3e
       -0.06263709 0.07940846 -0.13990961 0.26585156
000140 04 46 80 bd 7e 5f 0c 3c 8e a7 9f 3e 84 69 4c 3e
       -0.062633544 0.008567689 0.31182522 0.19962126
000150 8b c0 b9 be a5 b2 b6 3d c5 50 a1 be 08 8e d9 3e
       -0.3627971 0.089207925 -0.31506935 0.42491174
000160 ab 44 92 3d fb fe aa be 03 f9 46 be d7 cb 79 3c
       0.071420036 -0.3339766 -0.19430928 0.015246353
000170 a0 2e 97 3c 6c 58 38 be 11 29 82 3e 30 cb 30 be
       0.01845485 -0.1800248 0.25421956 -0.1726501
000180 c1 02 4f 3b b9 05 72 bb 5b 79 ea 39 70 b0 57 bd
       0.0031587335 -0.003692968 0.00044722375 -0.0526585
000190 19 11 9b bc 78 ba 89 bd 77 d9 05 3e 9b be 23 be
       -0.018929051 -0.06725019 0.13071238 -0.15990679
0001a0 e5 84 15 bf fc da cf be fb 9c c0 be 31 4b 50 3c
       -0.58405906 -0.4059676 -0.37619767 0.0127132395
0001b0 ef ab 57 3c 97 88 e1 3b b3 e1 66 be aa 47 38 3e
       0.013163551 0.006882738 -0.22547035 0.17996088
0001c0 7d cf e1 3e 97 ff 6a 3e 93 78 05 3e d0 1d a9 3e
       0.44103613 0.22949062 0.13034277 0.33030558
0001d0 9a 9e c5 bc e2 32 1d be 1f c2 da be 4f c3 a7 bc
       -0.024123479 -0.15351442 -0.42726228 -0.020478873
0001e0 bc 04 99 be 8c f3 b7 3d 14 c2 e0 be 70 59 f0 be
       -0.29886425 0.08982 -0.4389807 -0.46943235
0001f0 70 92 ec be b8 a7 c0 be b1 69 57 3e 0a a2 c7 bd
       -0.46205473 -0.3762796 0.21036412 -0.097477034
000200 f4 cc 2c bc 79 17 64 3b 0b cd e2 bb e9 e7 bd 3c
       -0.0105469115 0.003480403 -0.0069214157 0.023181872
000210 a0 72 61 bd 8a 66 cf 3d c6 04 02 3e bc b4 77 3e
       -0.055040956 0.1012698 0.12697133 0.24190038
000220 31 bd 9d 3d 12 16 16 3e 5d fa 72 3e d2 2e a9 3d
       0.07702101 0.14656857 0.23728319 0.082608834
000230 0a 0d b0 3e 10 3d d0 bd 74 45 59 3f 61 7a 4c 3e
       0.34384948 -0.10167897 0.848716 0.19968559
000240 24 dc e9 3e 43 6e b0 3e 40 9a e1 be 0b aa 9b 3e
       0.45675766 0.34459123 -0.44062996 0.3040317
000250 2d 0e 2d be 44 70 f0 3e 4c 51 d9 be 78 0b 01 3f
       -0.16899939 0.46960652 -0.42444837 0.50408125
000260 2c f1 11 3f 20 03 1f 3c 68 16 2e bf 3a 87 29 3f
       0.57008624 0.009705335 -0.6800294 0.66221964
000270 83 96 02 3f 61 a9 a0 3d 52 62 28 3f ef 6b b5 3d
       0.5101091 0.078448065 0.65775025 0.08858477
000280 f1 c7 04 bc c1 66 e9 bb f3 44 f7 bc f7 8d 3a bd
       -0.00810431 -0.007122845 -0.030184245 -0.045545544
000290 e4 4f 43 bc 6e 69 d9 bd e1 e1 4c bc 29 de 2c be
       -0.011920903 -0.10615812 -0.012505026 -0.16881622
0002a0 e0 cd 99 be be 0e c1 be a0 78 a4 bf 5c 00 98 3e
       -0.30039883 -0.3770656 -1.2849312 0.29687774
0002b0 9d b7 38 3f 1f 5c d7 be e1 05 6c 3d cd c9 58 3e
       0.7215517 -0.4206247 0.057622794 0.21170731
0002c0 54 39 b7 3e 9e 06 a2 3e b0 45 14 3f 83 83 8f 3e
       0.35785925 0.31645674 0.57918835 0.28030023
0002d0 8b 85 ae bd 0b 7b 5a be 28 ec 71 bf 5c 5f 2e 3d
       -0.08521565 -0.21336 -0.9450097 0.04257141
0002e0 41 47 41 bf e0 ea 94 3e 69 68 56 bf 7e d4 0e be
       -0.7549935 0.29085445 -0.8375307 -0.13948247
0002f0 8f 24 88 bf 0e ac 0d bf 79 36 36 bf 83 e9 ca be
       -1.0636157 -0.5534066 -0.7117687 -0.3963128
000300 f7 b7 1a 3b 7b db 7a bc 12 51 b1 bb 70 35 1e bd
       0.0023608187 -0.015311117 -0.0054112757 -0.03862518
000310 c0 06 dc ba 96 80 e8 bd da a0 de bd 34 4c f6 bd
       -0.001678668 -0.11352651 -0.10870524 -0.12026253
000320 f9 0e 82 be 98 6b a7 be b1 88 d1 3c d5 d0 25 3e
       -0.25402048 -0.32699275 0.025577875 0.16192944
000330 01 0c 3e bf e4 a9 43 3e d5 b1 95 be d3 e5 3e bd
       -0.74237067 0.19107777 -0.29237238 -0.046605896
000340 90 3f fe bd a8 82 e1 3d 5b df 91 3d fc 76 ca bc
       -0.12414467 0.11011249 0.0712268 -0.02471494
000350 e6 cf 4a be c7 f4 08 bf c1 cd 00 3e 92 f1 d7 bc
       -0.1980587 -0.534985 0.12578489 -0.026360307
000360 dc ad f1 bd 44 05 d3 3d e7 d4 c3 3e 02 8a 4b bf
       -0.11800739 0.10303739 0.3824837 -0.7950746
000370 9b 13 0e bd 28 cd cf 3e 47 30 86 3e 89 6f c2 3e
       -0.034686666 0.4058621 0.26208708 0.3797572
000380 6b 69 61 bc 2a e0 cf 3c 3c 8b b8 3c ff 10 2d 3d
       -0.013758044 0.025375444 0.02252733 0.042252537
000390 b4 ff 88 3d 38 d6 02 3e b3 45 f7 3e 97 5f 0b be
       0.066893965 0.1277703 0.48295364 -0.13610683
0003a0 b7 70 db be 04 9b cd be 13 13 68 be b5 7d 8b 3e
       -0.42859432 -0.4015733 -0.22663526 0.27244344
0003b0 aa d5 e7 3e 11 52 b4 be 5d a7 35 be ac 03 a7 3e
       0.452802 -0.35218862 -0.17739625 0.3261999
0003c0 1a 0c 8f 3e 6d 1a 98 bd f3 37 18 3f 2c 2d 27 3e
       0.2793892 -0.07426915 0.5946037 0.16325825
0003d0 4b 9f ef bc aa 54 84 be 65 e4 62 bf fc b3 28 be
       -0.029250761 -0.25845844 -0.8862975 -0.16474909
0003e0 d1 cf 1c bf 15 aa 2c 3e 5b 1d 2a be c2 ad f5 be
       -0.612546 0.16861756 -0.1661276 -0.4798413
0003f0 e9 18 92 be fc 4b 19 bf 4d 68 12 bd 2c 66 08 be
       -0.2853463 -0.5988157 -0.035744 -0.13320225

backbone.backbone.0.linear.0.bias f4 [32]
000000 b8 14 7a 3e 85 c2 3a be 77 33 c7 3d c7 c5 d9 bb
       0.24421966 -0.18238266 0.09726613 -0.0066458913
000010 b7 ac 7e 3e e1 e2 8f bd 35 03 07 be b0 95 23 3d
       0.24870573 -0.070256956 -0.13184817 0.039937675
000020 c1 e2 95 3e 90 27 5e be 64 94 7d 3d 24 aa 3f be
       0.29274562 -0.2169478 0.061909094 -0.18717247
000030 ee 93 ba 3e f7 5e ee 3c c4 38 dc bc 62 1c cf bd
       0.36440986 0.029098017 -0.026882537 -0.101128355
000040 06 ca 2d 3d 6f 63 3e be b3 c9 0f bf d3 45 9d 3e
       0.042428993 -0.18592618 -0.56167144 0.30717334
000050 22 ef d0 3e 2f 0a ac be 10 31 53 3e 7d 06 fa bd
       0.40807444 -0.3360152 0.20624185 -0.12208269
000060 7e 75 30 3e f2 63 98 bd c6 82 14 bf b8 f9 99 be
       0.1723232 -0.07440938 -0.58012044 -0.30073333
000070 d4 c8 20 3e 50 f8 90 be eb 87 28 bd bf 56 e1 be
       0.1570161 -0.28314447 -0.041145246 -0.44011495

backbone.backbone.0.gat_layers.0.fc.0.weight f4 [4, 4]
000000 b6 5e 14 3f 04 38 67 bf ac 8e 55 bd e7 d7 10 bf
       0.5795702 -0.9031985 -0.052138016 -0.5657944
000010 23 eb 49 3e 07 ec fb 3e 4c 9d c1 be 04 09 df 3e
       0.19718604 0.49203512 -0.3781532 0.43561566
000020 d8 7d ba 3d 08 44 19 be 6b 25 0c 3f f4 63 d3 3e
       0.09106034 -0.14967358 0.54744595 0.41287196
000030 2f f6 aa bf c7 0b f7 3e 8e 20 d7 3c c9 8e 6a be
       -1.3356379 0.48251173 0.02626064 -0.2290603

backbone.backbone.0.gat_layers.0.fc.0.bias f4 [4]
000000 3f 7e 6f 3f f4 5a 88 be 2f 26 30 bf 1f 6f a5 3e
       0.9355201 -0.26631892 -0.68808264 0.3231134

backbone.backbone.0.gat_layers.0.att_layer.weight f4 [1, 8]
000000 1e 55 c1 3e f2 9c 30 be 5c 71 94 be 28 dc e3 3d
       0.37760252 -0.1724737 -0.28992736 0.11125976
000010 76 5a 4a 3e 10 bf cd bd 19 e3 51 3f 20 4a 4d 3d
       0.1976107 -0.10046208 0.8198715 0.05011952

backbone.backbone.0.gat_layers.1.fc.0.weight f4 [4, 4]
000000 9a f7 18 3f bc 42 55 be 17 c6 46 be aa 7d 14 3f
       0.5975281 -0.20826238 -0.19411503 0.5800425
000010 c4 7a cb 3d 57 48 04 bf 62 2e 77 be d5 ff b2 be
       0.09935525 -0.5167288 -0.24138787 -0.3496081
000020 9e 07 13 3f 97 5c 52 be b6 75 a9 be 3b 26 49 3f
       0.574335 -0.20543133 -0.3309762 0.7857396
000030 ae ad f9 be 14 1a 57 be e4 ce f5 be b8 47 46 be
       -0.4876532 -0.21006042 -0.48009408 -0.19363296

backbone.backbone.0.gat_layers.1.fc.0.bias f4 [4]
000000 73 9f 3e 3f e9 17 a6 be 92 e0 78 bf a6 9b c5 be
       0.7446205 -0.32440117 -0.9721767 -0.38595313

backbone.backbone.0.gat_layers.1.att_layer.weight f4 [1, 8]
000000 50 1d a7 3f 7e 31 45 3e 71 32 c9 3c 13 47 f6 3e
       1.305582 0.19257161 0.024560185 0.481011
000010 6a e3 ff 3e 83 55 00 bf 14 c6 48 3e cf d1 85 3f
       0.4997819 -0.5013048 0.19606811 1.0454654
