model_parameter/tbc/GAT_best.pth (torch, 87078 bytes, 66 tensors)

embedding.vehicle_embedding.weight f4 [32, 4]
0	0xbe970d39	-0.29502276
1	0x3e08d53c	0.13362592
2	0xbe95433a	-0.29152852
3	0xbedcf486	-0.43155307
4	0xbddaa3df	-0.10675787
5	0x3e46eb60	0.19425726
6	0xbee8193b	-0.4533175
7	0x3f16bc37	0.58880943
8	0xbe813d22	-0.25241953
9	0x3e73f4ad	0.23823805
10	0x3eefd976	0.46845597
11	0xbd14505a	-0.03620944
12	0xbe0654e3	-0.13118319
13	0x3e29623c	0.1654138
14	0xbea32d87	-0.31870672
15	0xbf868352	-1.0508826
16	0x3ce84e3d	0.02835762
17	0xbe7c4bab	-0.2463824
18	0x3dc07540	0.09397364
19	0xbc235e55	-0.009971221
20	0xbdf09aa2	-0.11748244
21	0xbe9f8092	-0.3115278
22	0x3f0d1192	0.55104935
23	0x3e92855a	0.28617364
24	0x3f265d05	0.64985687
25	0x3c800c04	0.01563073
26	0xbe49363c	-0.19649595
27	0xbf27189d	-0.6527193
28	0x3f0e0d18	0.5548873
29	0x3eb6846a	0.356479
30	0x3dd5a4ed	0.10431848
31	0x3ecccca3	0.39999875
32	0x3ea5e663	0.32402334
33	0x3efb9945	0.49140373
34	0x3f5d3ed0	0.8642397
35	0x3ed710a4	0.42004883
36	0x3edfe8fc	0.4373244
37	0x3f2070fc	0.626724
38	0x3f1b89b0	0.6075697
39	0x3eeb6b56	0.45980328
40	0x3ed8a9b4	0.42316973
41	0xbe6242cf	-0.22095798
42	0x3db982d3	0.09058156
43	0xbf8831e4	-1.0640225
44	0xbe8ece76	-0.27891892
45	0x3e9775eb	0.29582152
46	0xbea179fb	-0.31538376
47	0x3d91f75b	0.071272574
48	0x3f217562	0.63069737
49	0x3f05f189	0.5232168
50	0xbf0fc3a7	-0.56157917
51	0x3da6033c	0.08106086
52	0xbe8ae8b5	-0.27130666
53	0x3e8cd163	0.275035
54	0xbe5fca30	-0.21854472
55	0xbeb03c4c	-0.34421003
56	0x3eff8bb0	0.4991126
57	0xbf34ac6b	-0.7057559
58	0x3eec00ad	0.46094266
59	0x3e1023e7	0.14076196
60	0x3ebc6176	0.36793107
61	0x3e4e7458	0.20161569
62	0xbf0a5645	-0.54037887
63	0xbf2870d2	-0.6579715
64	0x3ebe6686	0.37187594
65	0xbf297cb2	-0.66205895
66	0xbec3be1d	-0.38230982
67	0x3ead00e6	0.33789748
68	0xbddc40e0	-0.107545614
69	0xbf29d87a	-0.6634594
70	0xbe0294bc	-0.1275205
71	0x3d7aeb3d	0.061259497
72	0xbf21cdce	-0.6320466
73	0x3ea5981c	0.32342613
74	0xbedaa017	-0.42700264
75	0xbf156da1	-0.58370405
76	0xbe69e4e5	-0.22841223
77	0xbf116990	-0.568017
78	0xbf5df1b5	-0.8669694
79	0x3de29ab9	0.11064667
80	0x3f1878e1	0.59559447
81	0xbdb1efb4	-0.08688298
82	0xbd990c8c	-0.07473096
83	0x3eb987a4	0.36236298
84	0x3f1e53f4	0.6184685
85	0x3eecdb57	0.46261093
86	0x3f19615e	0.59914196
87	0xbef38746	-0.47564143
88	0x3e2207aa	0.15823236
89	0xbcc3e412	-0.023912463
90	0x3f4546eb	0.7706134
91	0x3eeb13b1	0.4591346
92	0x3ea03e2e	0.3129744
93	0xbf5018d8	-0.8128791
94	0xbdee35f5	-0.11631385
95	0xbe04ca30	-0.12967753
96	0xbe86beee	-0.26317543
97	0xbf0d92e4	-0.5530226
98	0x3f0a75a5	0.5408576
99	0x3e7af5d4	0.24507838
100	0xbf265b69	-0.6498323
101	0xbe41eded	-0.18938418
102	0xbe59236a	-0.21204916
103	0x3f31b986	0.6942371
104	0xbe197f73	-0.14990024
105	0x3f120f91	0.57055
106	0x3f223a09	0.63369805
107	0xbf39a6e3	-0.72520274
108	0x3ef3b0cd	0.47595826
109	0xbe7cf04f	-0.24701045
110	0x3e8ef863	0.2792388
111	0xbd615756	-0.05501493
112	0xbdc78a87	-0.09743219
113	0xbe959238	-0.2921312
114	0x3f37afec	0.7175281
115	0xbf1c559c	-0.6106813
116	0x3e897ecb	0.26854548
117	0x3c29e507	0.010369546
118	0x3f4e10d1	0.8049441
119	0x3e8bcee6	0.27306288
120	0x3db4ee90	0.08834565
121	0xbf37a72a	-0.7173945
122	0x3e7004f3	0.23439388
123	0xbf2e0d26	-0.6798881
124	0x3f1e3f7a	0.6181561
125	0x3e994d44	0.29941761
126	0x3e0a2927	0.13492261
127	0xbde77a98	-0.1130268

embedding.vehicle_embedding.bias f4 [32]
0	0x3dd4af6a	0.1038502
1	0xbd94ed8b	-0.0727187
2	0xbec1bb50	-0.3783822
3	0xbca2d572	-0.01987717
4	0x3eb2ab1e	0.34896177
5	0xbe9cf485	-0.30655304
6	0x3d5bcd83	0.053662788
7	0xbdeef12a	-0.11667092
8	0xbe33a21d	-0.1754231
9	0xbf25ebfb	-0.648132
10	0xbf398d82	-0.7248155
11	0xbce43c40	-0.02786076
12	0x3f09884a	0.53723586
13	0xbf04f891	-0.5194178
14	0x3ee57d10	0.44821978
15	0x3f114bc6	0.56756246
16	0x3f13fff8	0.5781245
17	0x3f2a2e69	0.66477066
18	0x3f140add	0.57829076
19	0xbe323c7f	-0.1740589
20	0xbe8480fa	-0.2587965
21	0x3e9610ce	0.29309696
22	0xbe481ef7	-0.19543062
23	0x3ea63c58	0.32467914
24	0xbf0606fc	-0.5235441
25	0x3e137ce0	0.14403105
26	0xbeac79f0	-0.3368678
27	0xbdea2b00	-0.11433983
28	0xbdcff0fd	-0.10153387
29	0xbe56b0a2	-0.20965818
30	0x3d8412d7	0.06448906
31	0xbee46759	-0.44610098

embedding.bridge_embedding.weight f4 [32, 6]
0	0x3dad766c	0.08469853
1	0xbdd66fec	-0.10470566
2	0xbe9fed9e	-0.31235975
3	0xbecc0b39	-0.39852312
4	0xbeaf11cc	-0.34193265
5	0x3cbf4400	0.023347855
6	0x3eb32826	0.34991568
7	0xbe396f7f	-0.18108939
8	0xbe1c2d4a	-0.15251651
9	0x3eb3def6	0.35131043
10	0xbd9834c0	-0.07431936
11	0x3e98648e	0.29764217
12	0x3c5e4a60	0.013567537
13	0xbe7f2e53	-0.24920015
14	0x3e8dced4	0.2769686
15	0xbe96f4ed	-0.2948374
16	0xbe77b5f6	-0.24190506
17	0xbe07d060	-0.13263083
18	0xbdd31fd8	-0.10308808
19	0x3e9089f6	0.28230256
20	0x3dee4fd8	0.11636323
21	0xbebbad31	-0.36655572
22	0x3e958b54	0.2920786
23	0xbe26c738	-0.16286933
24	0xbe9eacbb	-0.30991158
25	0x3eb3e330	0.35134268
26	0x3e4cb7d4	0.19992
27	0xbebc4e59	-0.36778525
28	0xbeb53a62	-0.35396105
29	0x3ec017ca	0.3751815
30	0x3ea4988e	0.3214764
31	0xbda99978	-0.08281225
32	0x3eb25140	0.34827614
33	0xbd4ba5e8	-0.049718767
34	0xbe06bdc4	-0.13158327
35	0x3ec4ec1c	0.38461387
36	0x3db8b414	0.09018722
37	0xbe67239d	-0.22572179
38	0x3e250130	0.16113734
39	0x3e8e6fe0	0.2781973
40	0x3eb8e9d4	0.36115897
41	0x3ecd9556	0.40152997
42	0x3e139130	0.14410853
43	0xbe0b61d2	-0.13611534
44	0x3dadddb4	0.08489552
45	0xbe96b774	-0.2943684
46	0xbe9ba9aa	-0.3040288
47	0xbdb6e924	-0.08931187
48	0x3e2e60ec	0.1702916
49	0xbe8d5f5e	-0.27611822
50	0xbdbbb4cc	-0.09165344
51	0xbe95266b	-0.29130873
52	0x3eb57b44	0.35445607
53	0x3e904ea4	0.28184998
54	0xbe9a7af3	-0.30171928
55	0xbeadb8af	-0.33929965
56	0xbe4d2357	-0.20033012
57	0xbce820f0	-0.028336018
58	0x3d07eae8	0.03318301
59	0x3ecc7230	0.39930868
60	0xbd56de58	-0.052458137
61	0x3e63c634	0.22243577
62	0xbe5e9488	-0.21736348
63	0xbd827788	-0.06370455
64	0xbdca3370	-0.09873092
65	0x3df61058	0.12014836
66	0xbc0dc8c0	-0.00865382
67	0x3ea0ebf8	0.3143003
68	0x3e68bebc	0.2272901
69	0x3dd9b638	0.106304586
70	0x3db1f024	0.08688381
71	0xbe157f06	-0.14599237
72	0x3e0975f8	0.13423908
73	0x3ea9875a	0.33111078
74	0x3d325ed0	0.04354745
75	0xbdbf33cc	-0.09336051
76	0xbeb5479d	-0.354062
77	0x3eca2480	0.39480972
78	0x3deaca60	0.11464381
79	0xbea8b4da	-0.3295048
80	0x3e74b568	0.23897326
81	0x3ea6579c	0.32488716
82	0xbecc5320	-0.3990717
83	0x3e4c649c	0.19960254
84	0xbe05dec2	-0.13073257
85	0xbe64234d	-0.22279091
86	0x3dd38a68	0.10329133
87	0xbe77ca0e	-0.24198171
88	0xbe4352a3	-0.19074492
89	0x3e6c05d0	0.23049092
90	0xbc7836a0	-0.015149742
91	0xbde81954	-0.11332956
92	0xbe0fb504	-0.14033896
93	0x3e9d9040	0.30774117
94	0xbe007d00	-0.12547684
95	0xbe3aea25	-0.18253382
96	0xbea2983d	-0.31756774
97	0x3e1ca2b4	0.15296441
98	0x3e289dc0	0.16466427
99	0x3deeefa8	0.116668046
100	0xbeb83cb7	-0.35983822
101	0x3d895244	0.06705144
102	0x3dcce490	0.10004532
103	0xbea862d1	-0.3288789
104	0xbeb53360	-0.3539076
105	0xbe89dd80	-0.26926804
106	0x3e7699dc	0.2408213
107	0x3e950350	0.2910409
108	0x3e93f806	0.28900164
109	0xbca13cc0	-0.019682288
110	0x3eaa2dbc	0.33238018
111	0x3e068bb8	0.13139236
112	0xbe9c84be	-0.30570024
113	0x3ea328ec	0.31867158
114	0xbc2bda80	-0.010489106
115	0x3e4f8904	0.20267111
116	0x3e1d58e4	0.1536594
117	0xbec01025	-0.37512317
118	0xbe4ce9b3	-0.20011024
119	0x3d304b98	0.04304084
120	0x3ebbce8e	0.36681026
121	0xbc015220	-0.007893115
122	0xbeab6296	-0.33473653
123	0x3ea9c4fc	0.331581
124	0x3e9132c6	0.2835905
125	0xbe8b5ba2	-0.27218348
126	0x3ebadada	0.36495095
127	0x3dd3f610	0.10349667
128	0xbec4a6a3	-0.38408384
129	0xbd6c1d40	-0.057645082
130	0xbe9b47ef	-0.30328318
131	0x3ea9afb2	0.33141857
132	0x3eba581e	0.36395353
133	0xbd01b038	-0.031662196
134	0xbd97d0f0	-0.074128985
135	0xbe97a596	-0.2961852
136	0x3ec0ad12	0.37632042
137	0xbe6aa243	-0.2291346
138	0x3e4ab4b4	0.19795495
139	0x3ebc337e	0.36758035
140	0xbd6602e0	-0.056155086
141	0x3ecf8b3e	0.4053592
142	0x3d1c79f0	0.038202226
143	0x3e808206	0.250992
144	0xbe87e8f4	-0.26544917
145	0xbe0c82f4	-0.1372183
146	0x3d318b90	0.043345988
147	0xbe7362c1	-0.2376814
148	0x3cf03bc0	0.029325366
149	0x3ecd8e56	0.40147656
150	0xbebdb152	-0.37049347
151	0xbe2f06f3	-0.17092495
152	0x3ca3f6b0	0.02001509
153	0x3d751318	0.059832662
154	0x3ea6289c	0.32452857
155	0xbe56f3de	-0.20991465
156	0xbeb34305	-0.3501207
157	0xbe42016f	-0.1894586
158	0x3e15d6b8	0.1463269
159	0xbe424a5c	-0.18973678
160	0x3eabc8f0	0.3355174
161	0x3d7cc570	0.06171173
162	0xbc968760	-0.018375099
163	0xbe13ae16	-0.14421877
164	0x3dc02660	0.093823195
165	0x3eca2380	0.3948021
166	0x3e962584	0.29325497
167	0x3c8b36c0	0.01699388
168	0x3dc1caf0	0.094625354
169	0xbec8dde2	-0.39231783
170	0xbec538b8	-0.38519835
171	0xbde8239c	-0.11334917
172	0x3e60df68	0.21960223
173	0x3e361c58	0.1778425
174	0x3e8120c8	0.25220323
175	0xbd737f48	-0.059447557
176	0xbed088c0	-0.40729332
177	0xbebbdae9	-0.36690453
178	0x3e70f3b4	0.23530465
179	0x3e611a90	0.21982789
180	0x3dc59f30	0.09649503
181	0xbdf1d800	-0.11808777
182	0x3e0b5b88	0.13609135
183	0x3e858d62	0.2608443
184	0xbddda8fc	-0.10823247
185	0x3eae1aca	0.34004813
186	0xbd6208a8	-0.055184036
187	0x3ecf415c	0.40479553
188	0xbd758098	-0.05993709
189	0xbe4b6473	-0.19862537
190	0xbe582924	-0.21109444
191	0x3eb4216e	0.35181755

embedding.bridge_embedding.bias f4 [32]
0	0xbc720760	-0.014772266
1	0xbebfc7ab	-0.37457022
2	0xbe5575f6	-0.2084578
3	0x3e84f990	0.2597165
4	0x3ea50938	0.32233596
5	0x3e139f30	0.14416194
6	0x3e658e50	0.22417569
7	0x3e3d2b2c	0.184735
8	0x3e3681bc	0.17822927
9	0x3d6f6310	0.058444083
10	0xbea96743	-0.33086595
11	0xbe4d3c5c	-0.20042557
12	0x3e50354c	0.20332831
13	0xbe87f636	-0.26555032
14	0xbd0cb700	-0.03435421
15	0xbe9ba340	-0.30397987
16	0x3cc60070	0.02417013
17	0x3b9a5800	0.0047101974
18	0xbc989bf0	-0.018629044
19	0x3ecd8a16	0.40144414
20	0x3e2239e8	0.15842402
21	0x3e2c8224	0.1684652
22	0xbd682a60	-0.056681037
23	0xbe8dff18	-0.27733684
24	0xbe552f60	-0.20818853
25	0xbec648ab	-0.38727316
26	0xbd368bc8	-0.0445669
27	0x3e08f6c0	0.13375378
28	0x3e04ab7c	0.12956041
29	0xbea5d672	-0.3239017
30	0x3e164484	0.14674574
31	0x3e5ba744	0.21450526

embedding.pier_embedding.weight f4 [32, 3]
0	0xbeb08a6e	-0.34480613
1	0x3e93e9d6	0.2888934
2	0xbece2a78	-0.40266776
3	0xbf10002a	-0.5625025
4	0xbe5ad80e	-0.21371481
5	0x3f1ac2b4	0.60453343
6	0x3eb7a5da	0.35868722
7	0x3e86fa24	0.26362717
8	0xbf92a3e3	-1.1456264
9	0xbe711daf	-0.2354648
10	0xbeef9242	-0.46791273
11	0xbe0a4b3e	-0.13505265
12	0x3f635a52	0.8880969
13	0xbf6a5373	-0.91533583
14	0xbf206fff	-0.6267089
15	0x3f82fe77	1.0233907
16	0x3f570f53	0.8400776
17	0xbc53c6b9	-0.012925797
18	0x3e3857a7	0.18002187
19	0xbf13996c	-0.5765598
20	0x3f5ff291	0.874795
21	0xbd81dc26	-0.06340818
22	0x3f4c99ba	0.7992207
23	0x3f874526	1.0567977
24	0x3ecd15dc	0.4005574
25	0xbe6db708	-0.23214352
26	0xbec18f37	-0.37804577
27	0x3f552806	0.83264196
28	0xbf040e26	-0.5158409
29	0x3e2fa0f9	0.1715125
30	0xbecd5560	-0.40104198
31	0x3f974b4e	1.1819856
32	0xbf490050	-0.785161
33	0xbef8932a	-0.48549777
34	0xbf30e7a5	-0.6910346
35	0x3f39acd3	0.72529334
36	0x3f908c70	1.1292858
37	0xbf41a447	-0.7564129
38	0x3f3b94c0	0.7327385
39	0x3ec103c1	0.37698177
40	0x3fc19b40	1.5125504
41	0xbdd2841d	-0.10279105
42	0xbe96027e	-0.29298776
43	0x3e76b5a4	0.24092728
44	0x3f3feaa7	0.74967426
45	0x3de24df6	0.11050026
46	0xbea7b592	-0.32755715
47	0xbf404b0f	-0.7511453
48	0x3e8b9128	0.27259183
49	0x3ee62148	0.44947267
50	0x3f833b25	1.0252424
51	0x3e6fc11c	0.23413509
52	0x3f4bb835	0.7957795
53	0x3eba11c1	0.3634167
54	0x3e80d0fb	0.2515944
55	0xbf526433	-0.8218414
56	0x3e366aa6	0.1781412
57	0xbe96c41f	-0.29446504
58	0x3e9b76bd	0.30364028
59	0x3e16e582	0.14735988
60	0x3f2f8359	0.68559796
61	0x3e9da4d8	0.30789828
62	0x3e3041b9	0.17212571
63	0x3f0b5ed7	0.5444159
64	0x3f2a528f	0.66532224
65	0xbec217d6	-0.3790881
66	0xbda3b480	-0.07993412
67	0x3f047e19	0.5175491
68	0xbf3979af	-0.724513
69	0xbe9ff42f	-0.31240985
70	0x3ed97a6e	0.4247622
71	0xbf8b7509	-1.0895091
72	0xbe83291a	-0.25617296
73	0xbe95ea03	-0.292801
74	0xbf4f6820	-0.8101826
75	0x3de0f5a4	0.10984352
76	0x3edb674d	0.4285225
77	0x3fb98680	1.4494171
78	0x3e633d12	0.22191265
79	0x3eab7805	0.33490005
80	0xbe354aff	-0.1770439
81	0x3f45295d	0.7701624
82	0x3ecbaa9e	0.39778608
83	0xbee15765	-0.4401199
84	0x3ee43a88	0.44575906
85	0xbf0860b7	-0.53272575
86	0xbe88ddbf	-0.2673168
87	0x3e213a38	0.15744865
88	0x3eb576d2	0.35442215
89	0xbc6e14a5	-0.014531289
90	0xbec0b113	-0.37635097
91	0xbf0d4fc0	-0.55199814
92	0xbe930d4e	-0.28721088
93	0xbf00be40	-0.502903
94	0x3e8b1cb9	0.2717035
95	0x3f170a91	0.590005

embedding.pier_embedding.bias f4 [32]
0	0xbc63895f	-0.013887732
1	0xbf0b112e	-0.5432309
2	0xbc30a2af	-0.010780974
3	0x3f535cd7	0.8256354
4	0xbefbea6a	-0.4920228
5	0xbe47b6ca	-0.19503322
6	0xbf2a90d6	-0.6662725
7	0x3ed23179	0.4105337
8	0xbdd207fb	-0.102554284
9	0xbed97899	-0.4247482
10	0x3e2a12c2	0.16608718
11	0xbf0bca6d	-0.5460575
12	0x3ecb37cd	0.3969101
13	0xbf0c4862	-0.5479795
14	0x3f39c888	0.7257161
15	0xbe380b7a	-0.17973128
16	0xbea9618c	-0.33082235
17	0xbe659894	-0.22421485
18	0xbe881b25	-0.2658321
19	0xbe8280ba	-0.25488836
20	0xbf458a01	-0.771637
21	0x3f1b4706	0.6065525
22	0xbebb1c14	-0.3654486
23	0x3db98f75	0.090605654
24	0x3e5dd41d	0.21662946
25	0xbf1560f7	-0.5835108
26	0xbf027e18	-0.50973654
27	0x3f1775a7	0.591639
28	0xbed52660	-0.4163084
29	0xbf1fcb73	-0.62419814
30	0xbf0551de	-0.52078044
31	0xbf6d5b84	-0.92717767

out.feature_out.layers.0.weight f4 [32, 32]
0	0xbca89b1c	-0.020581774
1	0x3e1cb38f	0.15302871
2	0x3e904876	0.28180283
3	0x3db6303e	0.0889592
4	0xbe071546	-0.13191709
5	0xbcb184a7	-0.021669699
6	0x3ec62853	0.3870264
7	0x3dc4ec7e	0.0961542
8	0x3ea924e9	0.33035973
9	0x3e751f16	0.2393764
10	0x3edca9ab	0.43098196
11	0x3d974c3e	0.07387589
12	0x3da35e3b	0.079769574
13	0x3ca751df	0.020424781
14	0x3f159828	0.58435297
15	0xbd341c48	-0.043972284
16	0x3b439e40	0.0029848963
17	0x3db50d87	0.08840471
18	0xbf035834	-0.5130646
19	0x3dd93a8a	0.106068686
20	0xbe9ff37d	-0.31240454
21	0xbde9bde8	-0.11413175
22	0xbe15ce8d	-0.14629574
23	0xbd972ea1	-0.07381941
24	0xbdcb2523	-0.09919193
25	0x3daad4fe	0.08341406
26	0xbf00a5a6	-0.5025276
27	0x3e099a17	0.13437687
28	0xbe7270ab	-0.23675792
29	0x3e2fa650	0.17153287
30	0xbee72db4	-0.45152056
31	0x3d8390e8	0.06424123
32	0x3e42314c	0.18964118
33	0x3e83d5c8	0.2574904
34	0x3d875f77	0.06610005
35	0x3dd3194e	0.10307561
36	0xbe2b1813	-0.16708402
37	0xbdb4e67e	-0.088330254
38	0x3e1ed907	0.15512477
39	0x3e1aa967	0.15103684
40	0x3e623292	0.22089604
41	0x3de314b5	0.11087934
42	0x3e3faee2	0.18719056
43	0x3e281439	0.16413964
44	0xbe616ac3	-0.22013383
45	0x3dd3df85	0.10345367
46	0xbec727f7	-0.38897678
47	0x3dcbab8a	0.09944828
48	0x3e93adac	0.2884344
49	0x3b9feb73	0.0048803627
50	0xbe81df11	-0.253655
51	0x3dfb7fd6	0.12280242
52	0xbe4260bb	-0.18982212
53	0x3e420642	0.189477
54	0x3ee3f83e	0.4452533
55	0x3c046b50	0.008082226
56	0xbed8951b	-0.42301258
57	0xbe44f82e	-0.19235298
58	0xbf540360	-0.8281765
59	0x3c9de9c8	0.019276515
60	0x3d6b4ef0	0.057448328
61	0xbda61ba9	-0.081107445
62	0xbe530d7d	-0.20610614
63	0x3e14bae7	0.14524423
64	0xbd156f8c	-0.036483333
65	0xbdc149d9	-0.094379134
66	0x3fa6144c	1.2974944
67	0xbd989cc7	-0.07451778
68	0x39a2eddf	0.00031076276
69	0xbd0970cf	-0.03355485
70	0x3f2c7d67	0.6737885
71	0x3d1ddf50	0.038543046
72	0xbe76d7cf	-0.24105762
73	0xbe442da1	-0.19158031
74	0x3cedfa57	0.029050035
75	0x3d80e32c	0.062933296
76	0xbe40d8f4	-0.18832761
77	0xbc09afec	-0.008403759
78	0xbe822c14	-0.25424254
79	0x3e15bb99	0.14622344
80	0x3e79c3d0	0.24391103
81	0x3d9b8b8d	0.075949766
82	0x3f01dd38	0.5072818
83	0x3debab66	0.11507301
84	0x3dc6c133	0.097048186
85	0x3dae4463	0.085091375
86	0x3e4c0a88	0.19925892
87	0x3cd14a48	0.025548115
88	0xbe9827a1	-0.29717734
89	0x3db86260	0.090031385
90	0x3e8a0d12	0.26963097
91	0x3c9450f8	0.018105015
92	0x3e8d1a99	0.27559355
93	0xbd2cd804	-0.042198196
94	0xbd691e21	-0.0569135
95	0xbe0abf0a	-0.13549438
96	0x3ebc54d3	0.36783466
97	0xbe488fa4	-0.19586045
98	0x3e5aff9d	0.21386571
99	0xbd9dbaab	-0.0770162
100	0xbe917b5a	-0.28414422
101	0x3e4bf751	0.19918562
102	0x3da1dfef	0.0790404
103	0xbe0427b0	-0.12905765
104	0xbde2addd	-0.11068318
105	0xbe1e48f3	-0.15457515
106	0xbf24d369	-0.64385086
107	0xbe256e4f	-0.1615536
108	0x3ee49780	0.44646835
109	0xbd295bc5	-0.041347284
110	0x3e9b77f5	0.30364957
111	0x3da9f97a	0.08299537
112	0xbc9de674	-0.019274928
113	0xbdb8ea14	-0.09029022
114	0xbf050d78	-0.51973677
115	0xbded579e	-0.11588977
116	0xbeb4aa78	-0.35286307
117	0xbe396fd9	-0.18109073
118	0xbf7bfda0	-0.98433876
119	0x3c444220	0.011978656
120	0x3d8aef73	0.067839526
121	0xbe001bfc	-0.12510675
122	0xbef78cb5	-0.48349538
123	0x3bad2500	0.0052839518
124	0xbeae78f8	-0.34076667
125	0x3af0e772	0.0018379523
126	0x3f54fe19	0.8320022
127	0x3dcf08b6	0.10109083
128	0x3e32a255	0.17444737
129	0x3da7de47	0.08196693
130	0x3e9387b9	0.28814486
131	0xbcf7a9d0	-0.03023234
132	0xbe5876f9	-0.21139134
133	0x3dd607e7	0.10450726
134	0x3f14c97f	0.5811996
135	0xbe27bfda	-0.1638178
136	0x3e18a32e	0.14905998
137	0x3e0ca7e6	0.13735923
138	0xbd373b1e	-0.044734113
139	0xbdd548b2	-0.10414256
140	0x3e2e04ee	0.16994068
141	0xbdd5f60f	-0.104473226
142	0xbeabad97	-0.33530876
143	0x3e1d8467	0.15382539
144	0x3e1ad2af	0.15119432
145	0xbdefa109	-0.11700637
146	0xbbfe5582	-0.007761658
147	0xbdf8d8c6	-0.12150721
148	0xbe749457	-0.23884712
149	0x3e8c754c	0.2743324
150	0xbf663313	-0.89921683
151	0xbe0b1219	-0.13581122
152	0xbec23971	-0.3793445
153	0x3dbc3688	0.091900885
154	0xbea4a1a9	-0.32154587
155	0x3dd60a4a	0.10451181
156	0x3e45a90f	0.19302772
157	0xbd4737f9	-0.048637364
158	0xbe15578d	-0.14584179
159	0x3df1d7ee	0.118087634
160	0x3e08057f	0.13283347
161	0x3e1c6c36	0.15275654
162	0x3daaa3ae	0.08332001
163	0x3df771ee	0.12082277
164	0xbeb00f10	-0.34386492
165	0xbdb4fd8a	-0.08837421
166	0x3ecc9d65	0.39963832
167	0xbd8c10e9	-0.06839163
168	0x3ceef3e8	0.029169038
169	0x3d84ea2a	0.06489976
170	0xbd2eb3dd	-0.042652
171	0xbdce4e7d	-0.10073564
172	0x3e16a211	0.14710261
173	0x3d609876	0.054832898
174	0xbe6b9c09	-0.23008741
175	0x3d0a4ac4	0.03376271
176	0x3e41d0f6	0.18927369
177	0xbdbcf8bb	-0.09227129
178	0xbd627593	-0.05528791
179	0xbda6e6ac	-0.08149466
180	0xbed1df43	-0.40990648
181	0x3e14710e	0.14496252
182	0xbf19115e	-0.59792125
183	0x3d6af034	0.05735798
184	0xbe95b4a7	-0.2923939
185	0xbdbe12bd	-0.09280918
186	0xbef064f2	-0.46952015
187	0xbe35043b	-0.17677395
188	0x3d151e93	0.03640611
189	0x3e12b3b2	0.14326361
190	0xbdcbfcfc	-0.09960362
191	0x3ccb0910	0.024784595
192	0x3c83ce58	0.016089603
193	0x3e6a993c	0.22910017
194	0x3f59bedd	0.8505686
195	0x3caeb600	0.021327019
196	0xbf078370	-0.5293493
197	0xbd9c9792	-0.07646097
198	0x3d48068b	0.048834365
199	0x3c523b20	0.012831479
200	0xbd15b64c	-0.036550805
201	0xbdccfde8	-0.10009366
202	0x3db6ce09	0.08926017
203	0x3dc7016e	0.097170696
204	0xbcad3b67	-0.02114649
205	0x3b66d8f0	0.003522452
206	0x3e8081ad	0.25098935
207	0xbd0b6924	-0.034035817
208	0x3e3a0a72	0.18168047
209	0x3e4508b0	0.19241595
210	0xbddf6664	-0.10908201
211	0x3e32b63b	0.17452328
212	0xbe249816	-0.16073641
213	0x3d7fcc40	0.062450647
214	0x3d38e572	0.04514069
215	0x3e2bf703	0.16793446
216	0xbeb05382	-0.3443871
217	0xbda0e873	-0.07856836
218	0xbd57f926	-0.05272784
219	0xbcccee10	-0.02501586
220	0x3e4497cf	0.19198535
221	0xbe0c96f3	-0.13729458
222	0xbe94e829	-0.29083374
223	0x3d14c038	0.036316127
224	0xbe35ee8f	-0.17766784
225	0x3cd5f3c9	0.026117222
226	0x3f890761	1.0705377
227	0x3d1f3a0c	0.038873717
228	0xbedf49c0	-0.43610954
229	0xbad972cf	-0.0016590002
230	0xbe77e590	-0.24208665
231	0x3c9a2468	0.018816188
232	0x3d0e108e	0.034683757
233	0x3e43a313	0.19105177
234	0x3e0f3da6	0.13988361
235	0xbe0d9eef	-0.1383016
236	0xbd035ca2	-0.032070763
237	0x3da53be3	0.08068063
238	0x3bfb5c36	0.0076709045
239	0x3e1602cd	0.14649506
240	0x3aec3cb3	0.0018023461
241	0x3e00d48f	0.12581085
242	0x3d0395d3	0.032125305
243	0xbe127634	-0.14302903
244	0x3ec2a648	0.38017488
245	0x3ea20d5d	0.3165082
246	0xbd563683	-0.05229808
247	0x3cd7fd18	0.026365802
248	0xbece1a20	-0.40254307
249	0x3d8a0d10	0.06740773
250	0xbe9d3a90	-0.30708742
251	0xbd804339	-0.06262822
252	0x3e0f5a65	0.13999327
253	0xbce3f1bc	-0.027825229
254	0xbd27f5db	-0.04100595
255	0x3dd17e22	0.10229136

out.feature_out.layers.0.bias f4 [32]
0	0xbc97b6be	-0.018519755
1	0x3d7f8b45	0.062388677
2	0xbda8a981	-0.08235455
3	0x3dc90d01	0.098169334
4	0xbe358a96	-0.17728648
5	0xbdb650d7	-0.08902138
6	0x3dc46113	0.09588828
7	0x3d823e7b	0.063595735
8	0x3dcfd6b2	0.10148372
9	0x3e0ed1b7	0.13947187
10	0xbe022228	-0.12708342
11	0x3e1fd3ad	0.15608092
12	0xbbaccc5c	-0.005273385
13	0xbe299bb2	-0.165633
14	0xbbfbfe94	-0.00769026
15	0xbc11e0ce	-0.008903695
16	0x3d6a05d9	0.057134483
17	0x3e80c42b	0.25149664
18	0xbd3b958c	-0.045796916
19	0x3ab0fd72	0.0013503267
20	0x3c8ff5b7	0.01757322
21	0xbe0de499	-0.13856734
22	0xbc6c1269	-0.014408686
23	0x3dd1af38	0.102384984
24	0x3da2c524	0.07947758
25	0xbd1f658e	-0.03891521
26	0x3d2c981a	0.042137243
27	0xbe9db31b	-0.3080071
28	0x3e72ae19	0.23699225
29	0x3ea2e449	0.31814793
30	0x3d6fc855	0.05854066
31	0xbe0a9304	-0.13532645

out.feature_out.layers.2.weight f4 [32, 32]
0	0xbed58374	-0.41701853
1	0xbeb8f36f	-0.36123225
2	0xbd9f270d	-0.0777112
3	0xbd9ed40d	-0.07755289
4	0xbd829bd2	-0.063773766
5	0xbe9cbeae	-0.30614227
6	0xbe85ff7a	-0.26171476
7	0xbde5c665	-0.112194814
8	0x3d5aa711	0.053381983
9	0x3e202d80	0.15642357
10	0xbdb9ebe3	-0.09078195
11	0x3dd62939	0.10457081
12	0xbeb31f2e	-0.34984726
13	0xbdd2cf49	-0.10293443
14	0xbed0cb33	-0.4078003
15	0xbed2e365	-0.41189113
16	0x3e8a0e51	0.26964048
17	0x3e872dec	0.26402223
18	0x3e122162	0.14270547
19	0xbe3cf45f	-0.18452595
20	0x3c39a224	0.011330161
21	0xbe5975ee	-0.21236393
22	0xbe2750ca	-0.16339412
23	0x3e8c69b8	0.27424407
24	0xbe810f4b	-0.2520698
25	0x3d4f1f67	0.050567057
26	0xbcd255fb	-0.025675764
27	0xbdb7573f	-0.08952188
28	0x3ec5dbe3	0.38644323
29	0x3e8c769a	0.27434236
30	0xbe2410e2	-0.16022065
31	0xbe6ce434	-0.23133928
32	0xbcc59812	-0.024120364
33	0x3e191b00	0.14951706
34	0x3e2b0335	0.16700442
35	0x3e138637	0.14406668
36	0x3d5cf366	0.05394306
37	0x3e956396	0.2917754
38	0x3e2da6e5	0.16958196
39	0xbd645244	-0.055742517
40	0xbe576cf6	-0.21037659
41	0xbdebf4df	-0.11521315
42	0x3e8dda62	0.27705675
43	0xbe7dcad6	-0.24784407
44	0xbd460817	-0.04834756
45	0x3d092832	0.0334856
46	0x3e877b55	0.26461282
47	0x3e37862d	0.17922278
48	0xbd1ae681	-0.037817482
49	0x3d668d9a	0.056287386
50	0x3d4e3366	0.050341986
51	0x3ec01dce	0.3752274
52	0xbe685b76	-0.2269114
53	0x3da0af25	0.07845906
54	0xbd752456	-0.059849106
55	0xbe510a5d	-0.2041411
56	0x3ea003b6	0.3125283
57	0xbe8a02f0	-0.26955366
58	0x3d983c73	0.07433405
59	0xbe9f35a9	-0.31095627
60	0xbcbdbe01	-0.02316189
61	0xbeddc047	-0.43310758
62	0x3c9748b9	0.018467294
63	0xbe8cabc3	-0.27474794
64	0xbe46c0dc	-0.19409508
65	0x3e42a6f8	0.19009006
66	0xbc66fd53	-0.014098483
67	0x3eb87725	0.360284
68	0x3e781a1e	0.24228713
69	0x3ec2398a	0.37934524
70	0x3f07f8a0	0.53113747
71	0x3ec4d6c8	0.38445115
72	0xbd282b16	-0.041056715
73	0xbe3140e7	-0.17309915
74	0xbe65ddb4	-0.22447854
75	0x3dd19425	0.102333345
76	0xbe473047	-0.1945201
77	0x3ed9dd2f	0.42551562
78	0x3e035491	0.12825228
79	0x3e08b9f9	0.13352193
80	0xbe9e4331	-0.30910638
81	0xbd848edb	-0.0647256
82	0xbed914a0	-0.42398548
83	0x3ea62d23	0.32456312
84	0x3f3e0d28	0.74238825
85	0xbe850173	-0.25977668
86	0xbed498bc	-0.41522777
87	0xbee3e77d	-0.4451255
88	0x3e43a19f	0.19104622
89	0xbecbf6ea	-0.39836818
90	0xbc1bd522	-0.009511264
91	0xbe8ff6b8	-0.2811792
92	0xbccdd9ad	-0.02512821
93	0xbe8a89dc	-0.27058303
94	0x3df179a3	0.117907785
95	0xbec529b1	-0.3850837
96	0xbf066409	-0.5249639
97	0xbe93a382	-0.28835684
98	0xbcebdc7e	-0.028791662
99	0xbe3fcab7	-0.18729673
100	0x3e4e573f	0.20150469
101	0xbdce65d2	-0.100780144
102	0xbe926d4e	-0.28599018
103	0xbe599ab2	-0.21250418
104	0x3dbaf843	0.091293834
105	0xbe1e9834	-0.15487748
106	0xbe118f46	-0.1421481
107	0xbe8a588a	-0.27020675
108	0xbf053d54	-0.52046704
109	0xbd91b279	-0.07114119
110	0xbd11cda1	-0.035596494
111	0xbe6d0514	-0.23146468
112	0x3dccbb69	0.09996683
113	0xbee55e49	-0.44798496
114	0xbd64b42d	-0.05583589
115	0xbd0f43ac	-0.034976646
116	0x3e95350f	0.29142043
117	0xbec829d1	-0.39094403
118	0xbe3b376b	-0.18282859
119	0x3e2a0be3	0.16606097
120	0x3d10ec4c	0.0353816
121	0x3d8ac4db	0.067758285
122	0xbe6ef909	-0.23337187
123	0x3e96a69d	0.2942399
124	0xbd54facd	-0.051996995
125	0xbc41ec94	-0.01183619
126	0xbec82a9a	-0.39095002
127	0xbdc28dc8	-0.09499699
128	0xbeadd3a0	-0.3395052
129	0xbe94d180	-0.29066086
130	0xbeb933ea	-0.3617242
131	0x3ef98ca7	0.48740122
132	0x3d19cc77	0.03754851
133	0x3e989af8	0.29805732
134	0x3e43675d	0.19082399
135	0xbdc0ba92	-0.094105855
136	0xbebad735	-0.36492315
137	0xbda42ad4	-0.08015981
138	0x3e390aba	0.18070498
139	0x3eb9f419	0.36319044
140	0xbe5ef4e8	-0.21773112
141	0x3ddb1bb1	0.10698641
142	0xbe445b01	-0.1917534
143	0x3cda7a92	0.026669774
144	0x3e383f58	0.17992914
145	0x3ead3a34	0.33833468
146	0xbf60e5f5	-0.87850887
147	0x3dd1174e	0.10209523
148	0x3e4d09c9	0.20023264
149	0x3eb28c94	0.34872878
150	0x3e63ddb7	0.22252546
151	0x3e42bbc3	0.19016938
152	0x3e81fecb	0.25389704
153	0xbe87af00	-0.26500702
154	0x3e802dae	0.2503485
155	0xbd07122e	-0.032976322
156	0xbd9b3b3c	-0.075796574
157	0xbe2a2bdb	-0.16618292
158	0x3eb4c41d	0.35305873
159	0xbeda28fc	-0.42609394
160	0x3dc542e2	0.096318975
161	0x3dbd9378	0.09256643
162	0x3eaf6d2c	0.3426298
163	0x3d92ffab	0.07177671
164	0x3e2823a5	0.16419847
165	0x3c411fe4	0.0117873885
166	0xbd647c54	-0.05578263
167	0x3c66d7e6	0.01408956
168	0xbec2eb2e	-0.38070053
169	0xbec4e1e3	-0.38453588
170	0xbd8ef2ae	-0.06979881
171	0x3ec5e6f1	0.38652757
172	0x3d8214b1	0.06351603
173	0x3e38ce39	0.18047418
174	0x3ea910a3	0.33020505
175	0x3d798b0a	0.060923614
176	0x3e5033ac	0.20332211
177	0x3d593b27	0.053034928
178	0x3e21ec2c	0.15812749
179	0x3e272923	0.16324286
180	0x3e1dbfb7	0.15405165
181	0x3da549c3	0.080707096
182	0x3d9c4a05	0.076313056
183	0xbe8cddf4	-0.27513087
184	0x3d6c6340	0.05771184
185	0xbe422a6a	-0.18961492
186	0xbdb47bb1	-0.08812655
187	0x3e016de9	0.12639584
188	0x3e7928e9	0.24332012
189	0xbf48f02b	-0.7849147
190	0x3dff3543	0.12461331
191	0x3ed662be	0.4187221
192	0xbec55c0d	-0.38546792
193	0xbec8e950	-0.39240503
194	0xbe2da1c1	-0.16956235
195	0x3dae9a6d	0.08525548
196	0xbe3e126c	-0.18561715
197	0xbe1d808b	-0.15381067
198	0xbd39625a	-0.04525981
199	0x3da9e83c	0.08296248
200	0x3d98e01e	0.07464622
201	0x3dec884c	0.11549434
202	0xbdcd8206	-0.10034566
203	0xbccfa278	-0.025346026
204	0xbe90f560	-0.28312206
205	0xbea490b7	-0.3214166
206	0xbe8cafa4	-0.27477753
207	0xbdac3e62	-0.08410336
208	0x3dc653a6	0.096839234
209	0x3e27646f	0.16346906
210	0x3bddd2d7	0.006769519
211	0xbd84bc95	-0.06481282
212	0x3e183cad	0.14866896
213	0xbe18a234	-0.14905626
214	0xbe31a9e6	-0.17349967
215	0x3d1ed59f	0.038777944
216	0x3d029fe6	0.031890772
217	0x3cb341da	0.021881986
218	0xbe8ce3de	-0.275176
219	0x3d5a7612	0.053335257
220	0x3ea4cd10	0.321877
221	0x3e6e9a9a	0.23301163
222	0xbde69969	-0.112597294
223	0x3c692ec0	0.0142323375
224	0x3d1d1a43	0.038355123
225	0xbe514e9e	-0.20440146
226	0xbe54903b	-0.20758145
227	0x3daf0989	0.085467406
228	0xbef21470	-0.47281218
229	0xbd52d8ee	-0.05147641
230	0xbe8d8410	-0.27639818
231	0x3d117118	0.035508245
232	0x3e023e03	0.12718968
233	0x3f15f9ac	0.58584094
234	0x3def3e6f	0.1168183
235	0x3e7a10e2	0.24420503
236	0xbdeca5f3	-0.1155509
237	0x3d54ab0c	0.051920936
238	0xbe9c1f24	-0.30492508
239	0xbddadfe1	-0.10687233
240	0x3e2b3083	0.16717725
241	0x3e911c77	0.2834203
242	0x3dbb4551	0.091440804
243	0xbf02592c	-0.50917315
244	0x3e828bf5	0.25497404
245	0x3e5f407a	0.2180194
246	0x3e545d59	0.20738734
247	0x3d137cb4	0.036007598
248	0x3ea445b0	0.32084417
249	0x3dd753ce	0.10514031
250	0xbe1861c0	-0.14881039
251	0xbd04260c	-0.032262847
252	0x3f0924eb	0.5357196
253	0x3e6f6163	0.23376994
254	0xbde9aeba	-0.114102796
255	0x3e7001bb	0.2343816

out.feature_out.layers.2.bias f4 [32]
0	0x3d99cd64	0.07509878
1	0xbb86517e	-0.00409907
2	0xbe40aec4	-0.18816668
3	0x3e9c982e	0.30584854
4	0xbd109a19	-0.03530321
5	0xbdff25fe	-0.12458418
6	0xbb4a332a	-0.003085325
7	0xbce7f00f	-0.028312711
8	0xbd9556ac	-0.07291922
9	0xbdc29e22	-0.09502818
10	0x3da19ac7	0.078908496
11	0xbe1159b9	-0.14194383
12	0xbe395087	-0.18097125
13	0x3d300d3f	0.042981382
14	0xbd51fe70	-0.05126804
15	0x3d6d5ae0	0.057947993
16	0xbd99e5fa	-0.07514568
17	0xbe5693df	-0.20954846
18	0x3c7ae927	0.015314377
19	0xbe3b219c	-0.1827454
20	0x3daac0b3	0.08337536
21	0xbe402ac1	-0.1876631
22	0x3e29b5a2	0.16573194
23	0xbc551719	-0.013005995
24	0x3c2bfd2c	0.010497373
25	0xbe07c9be	-0.13260552
26	0xbd3b3483	-0.045704376
27	0x3cd46ada	0.025929857
28	0xbdf40c8e	-0.11916457
29	0x3e381b62	0.17979196
30	0xbec1258d	-0.3772396
31	0xbac27854	-0.0014836886

out.feature_out.layers.4.weight f4 [32, 32]
0	0x3e87d508	0.26529717
1	0xbe1791cf	-0.14801715
2	0x3e55db32	0.20884398
3	0x3d9012dc	0.07034847
4	0x3e5ed601	0.21761324
5	0xbe775dd0	-0.2415688
6	0x3db01e9d	0.08599589
7	0x3dfb02d8	0.12256402
8	0xbd1cfd63	-0.038327586
9	0x3e2f0616	0.17092165
10	0x3e19973b	0.14999096
11	0xbde6b082	-0.11264135
12	0xbe34ec15	-0.17668183
13	0x3d96e007	0.073669486
14	0x3d96d5b6	0.07364981
15	0xbeda069e	-0.42583174
16	0x3eb0e7f6	0.34551972
17	0xbeab5c7d	-0.33469
18	0xbc89056e	-0.016726222
19	0xbe46d419	-0.19416846
20	0xbc932130	-0.017960161
21	0xbe896dad	-0.26841488
22	0x3d3ac40a	0.045597114
23	0xbe6c3dfd	-0.23070522
24	0x3e71643d	0.23573394
25	0xbd3b5051	-0.045730893
26	0xbd5f4cd3	-0.054516625
27	0xbe517ffc	-0.20458978
28	0xbdf8dba7	-0.1215127
29	0xbe6e58a6	-0.23276004
30	0xbe7c6224	-0.24646813
31	0xbe9d9a92	-0.3078199
32	0xbe0b7927	-0.13620435
33	0xbe9b44e4	-0.30325997
34	0x3e0ef4a9	0.13960518
35	0x3cf9390c	0.03042271
36	0xbd4b999e	-0.049707048
37	0xbd67bf00	-0.056578636
38	0xbd93ad4f	-0.0721079
39	0xbe3587a3	-0.17727523
40	0x3e4ed717	0.20199238
41	0xbe5f0c66	-0.21782073
42	0xbd8d6532	-0.06904067
43	0x3e2e78fe	0.17038342
44	0x3ed81f6e	0.4221148
45	0xbcf2c5e2	-0.029635374
46	0x3e53afc2	0.20672515
47	0xbd60b20c	-0.0548573
48	0xbd90225a	-0.07037802
49	0x3edab929	0.4271939
50	0x3e5fc898	0.21853864
51	0xbe4ed388	-0.2019788
52	0xbd09c2c3	-0.033633005
53	0x3e900fe4	0.28137124
54	0xbdcefb80	-0.101065636
55	0x3caefea4	0.021361656
56	0xbded99bd	-0.11601589
57	0xbe1c5479	-0.15266599
58	0x3e0fbe31	0.14037396
59	0x3e067adf	0.13132809
60	0xbe2b244d	-0.16713066
61	0xbddaacba	-0.10677476
62	0x3dac3546	0.084085986
63	0xbeb5cf0f	-0.35509536
64	0xbe5bdac1	-0.21470167
65	0x3d4cb60d	0.049978305
66	0x3ca11648	0.019663945
67	0x3dd196a9	0.10233814
68	0x3e17e995	0.14835198
69	0xbdfa12e7	-0.122106366
70	0x3d1e4267	0.038637545
71	0xbe894f16	-0.2681815
72	0xbd127dec	-0.03576462
73	0x3e087e08	0.13329327
74	0x3e92e4ea	0.28690273
75	0xbe31fe5f	-0.17382191
76	0xbe757e8d	-0.23974057
77	0x3bc5f9e2	0.0060417512
78	0x3ea1a02a	0.31567508
79	0xbf0c881a	-0.54895175
80	0xbdd20169	-0.10254175
81	0x3d91b6ba	0.071149305
82	0x3e315efb	0.17321388
83	0x3d9a4b96	0.07533948
84	0x3e46c000	0.1940918
85	0x3d1c942d	0.03822725
86	0xbd984337	-0.07434695
87	0x3e514183	0.20435147
88	0xbe23e07d	-0.16003604
89	0x3bbf9cdf	0.005847558
90	0x3d171236	0.0368826
91	0x3e36c28a	0.17847648
92	0xbd380ed6	-0.044936024
93	0xbe396253	-0.18103914
94	0xbe96930f	-0.29409072
95	0x3e43dc42	0.1912699
96	0xbe2322ae	-0.15931198
97	0x3e6c23e7	0.2306057
98	0x3d8f1eab	0.06988271
99	0xbe719404	-0.2359162
100	0xbd6c21a7	-0.05764928
101	0x3d262e34	0.040571406
102	0xbe304542	-0.1721392
103	0xbdeae9c0	-0.114703655
104	0xbc989d8c	-0.018629812
105	0x3e14afcf	0.1452019
106	0x3e01b8d3	0.12668161
107	0xbd7f4612	-0.062322684
108	0x3ddb3c68	0.10704881
109	0x3e9f0db1	0.31065133
110	0x3e844211	0.25831655
111	0xbe84d829	-0.25946167
112	0xbdfaf709	-0.122541495
113	0x3de669ea	0.1125067
114	0xbdeaa9e3	-0.114581846
115	0x3e3dc59b	0.18532412
116	0x3e106484	0.14100844
117	0xbcfd7a5b	-0.030942133
118	0xbe4debd4	-0.20109493
119	0x3e5a5411	0.21321131
120	0xbe15a310	-0.14612985
121	0xbed51ed7	-0.4162509
122	0x3dbd2953	0.092363976
123	0xbe7b69d6	-0.24552092
124	0xbedb1c86	-0.427952
125	0x3e8adf0d	0.271233
126	0xbd34f98d	-0.044183303
127	0x3e9cc42f	0.30618426
128	0xbea8e26d	-0.3298525
129	0x3e0084c5	0.12550648
130	0xbe31fdf9	-0.17382039
131	0xbe476e7f	-0.19475745
132	0x3e5169dd	0.2045054
133	0xbc228536	-0.009919455
134	0xbe913d9e	-0.28367323
135	0xbe5b7949	-0.21432985
136	0xbe239491	-0.15974642
137	0x3da8a711	0.082349904
138	0xbe87cd6d	-0.26523915
139	0xbc0a9d9e	-0.00846043
140	0xbd230f99	-0.039809797
141	0xbe336789	-0.17519964
142	0xbdafc9d2	-0.08583416
143	0xbbc281e8	-0.005935896
144	0xbe1767f8	-0.14785755
145	0xbde901de	-0.11377309
146	0xbde3d76b	-0.11125072
147	0xbe52fe03	-0.2060471
148	0x3e2235ae	0.1584079
149	0xbebdc541	-0.37064555
150	0xbde6a1ee	-0.112613544
151	0x3e24b9c9	0.16086496
152	0x3d995d10	0.074884534
153	0xbda85a86	-0.08220391
154	0x3c17263e	0.009225426
155	0xbf0265a2	-0.5093633
156	0xbdb21dd2	-0.08697094
157	0xbdc9a98d	-0.09846792
158	0x3cdaaecc	0.026694678
159	0xbdd4e20a	-0.10394676
160	0xbda40790	-0.08009255
161	0xbe314a7d	-0.17313571
162	0xbeeff365	-0.46865383
163	0x3e88e7e8	0.2673943
164	0xbdfac488	-0.122445166
165	0x3e9d8dc8	0.30772233
166	0x3e137cf2	0.14403132
167	0x3cec2bd1	0.028829487
168	0xbe1cabb3	-0.15299873
169	0x3e666ad2	0.22501686
170	0xbcf7feea	-0.03027292
171	0xbe9fe12c	-0.3122648
172	0xbe518415	-0.20460542
173	0xbe3238b8	-0.17404449
174	0xbf1817c1	-0.59411246
175	0x3eada09f	0.33911607
176	0xbc2bd4a6	-0.010487711
177	0xbe03e745	-0.12881191
178	0x3e1bb263	0.15204768
179	0xbdfb339b	-0.12265702
180	0xbc98f0dc	-0.018669538
181	0x3daa331f	0.08310532
182	0x3e8140cc	0.2524475
183	0xbe2a90bc	-0.16656774
184	0xbd050e50	-0.032484353
185	0x3c035345	0.0080154585
186	0x3e831bcf	0.25607154
187	0x39d959ca	0.00041456363
188	0x3da89a9f	0.08232617
189	0xbe1886d1	-0.14895178
190	0xbe7764b3	-0.24159507
191	0x3e964bec	0.293548
192	0x3e8da2d2	0.27663285
193	0xbe89e398	-0.26931453
194	0xbe4782ca	-0.19483486
195	0x3e57afa5	0.21063097
196	0x3d445ad4	0.047938183
197	0xbe705483	-0.23469739
198	0x3e1b6332	0.15174559
199	0x3e82bea6	0.25536078
200	0xbdbce01a	-0.092224315
201	0x3d232fcc	0.039840505
202	0x3e9932a0	0.29921436
203	0xbe955f17	-0.2917411
204	0xbd921781	-0.07133389
205	0xbe37cbeb	-0.17948882
206	0xbdba49ac	-0.09096083
207	0x3ed3bf4f	0.41356894
208	0x3e13c0d8	0.14429033
209	0x3e4d7139	0.20062722
210	0x3e99d587	0.3004572
211	0xbe750b22	-0.23930028
212	0xbedee005	-0.43530288
213	0x3e8d73cc	0.27627409
214	0x3dd86cbc	0.105676144
215	0xbf14deeb	-0.58152646
216	0x3ddb34f5	0.1070346
217	0x3d2e26a5	0.042517323
218	0x3e9b30c7	0.30310652
219	0x3e089577	0.13338266
220	0xbd82c761	-0.06385685
221	0x3d78ab17	0.06071004
222	0xbec32e34	-0.38121188
223	0x3e29ff51	0.16601302
224	0x3ddcc39d	0.10779498
225	0xbd536fb6	-0.051620208
226	0xbda4ae43	-0.0804105
227	0x3c133ef2	0.008987175
228	0x3da9f15d	0.082979895
229	0xbe5d1f35	-0.21593936
230	0xbd251858	-0.04030642
231	0x3d4c62a9	0.049898777
232	0x3e2d24f0	0.16908622
233	0xbd85e9d2	-0.06538738
234	0xbe388069	-0.18017735
235	0xbdbe91f8	-0.09305185
236	0x3ce348c8	0.027744666
237	0x3e3a0ba5	0.18168505
238	0xbd865335	-0.06558839
239	0x3be226f6	0.006901617
240	0x3df74596	0.12073819
241	0xbe98cb90	-0.29842806
242	0xbe332d3b	-0.17497723
243	0xbd24db2e	-0.04024809
244	0xbeae9a29	-0.3410199
245	0xbe05bc22	-0.13060048
246	0x3e80dc45	0.25168052
247	0xbe95735c	-0.29189575
248	0x3e8cb060	0.27478313
249	0x3d86616e	0.06561552
250	0xbeaf8a77	-0.34285328
251	0x3c565658	0.013082109
252	0xbe26f27e	-0.16303441
253	0x3c81e741	0.01585734
254	0xbe2745e5	-0.16335256
255	0x3e34eb61	0.17667915

out.feature_out.layers.4.bias f4 [32]
0	0x3deb5d77	0.114924364
1	0x3df195ca	0.11796148
2	0xbd86d54e	-0.065836534
3	0xb93b0e04	-0.00017838931
4	0x3dbbbfa1	0.0916741
5	0xbe1dc78b	-0.15408151
6	0x3da204d6	0.07911079
7	0xbcd2f79c	-0.025752835
8	0x3d4a91c8	0.049455434
9	0x3e07e8aa	0.13272348
10	0xbca115c3	-0.019663697
11	0x3d6f9bdb	0.058498245
12	0xbd485e7f	-0.048918243
13	0xbdc321fa	-0.09527965
14	0xbd1919f1	-0.037378255
15	0xbe144e11	-0.14482905
16	0xbbb546ac	-0.0055321064
17	0x3ba89876	0.005145128
18	0xbe8fb489	-0.28067425
19	0x3d7937da	0.06084428
20	0x3d6b58ae	0.05745762
21	0xbd8ac8c8	-0.06776577
22	0xbe659768	-0.22421038
23	0xbdb4ad7d	-0.08822153
24	0xbe0af32e	-0.13569328
25	0x3bba32e1	0.005682335
26	0xbe9a89c7	-0.3018324
27	0xbe6fa973	-0.23404483
28	0x3e0f7dad	0.14012785
29	0xbe34ed62	-0.1766868
30	0xbd53c4b6	-0.05170127
31	0xbdb15efd	-0.08660696

out.feature_out.layers.6.weight f4 [4, 32]
0	0xbeb0c347	-0.34523985
1	0x3db551db	0.08853503
2	0x3c192d6a	0.009349206
3	0x3e264096	0.16235575
4	0xbdd3e7db	-0.10346957
5	0x3d903a39	0.07042355
6	0xbdb5f32b	-0.08884271
7	0xbe51de5f	-0.20494984
8	0x3eb04218	0.34425426
9	0xbb66bc5b	-0.0035207483
10	0x3d23d2d9	0.039996002
11	0xbe98788f	-0.2977948
12	0xbc9ca5a3	-0.01912195
13	0x3e110ce5	0.14165075
14	0xbe844c9f	-0.25839707
15	0x3d844ec6	0.06460337
16	0xbe370c92	-0.17875889
17	0xbdc676bc	-0.096906155
18	0xbe6e42f9	-0.23267736
19	0x3e3223b4	0.17396432
20	0xbe357b1d	-0.17722745
21	0xbdbf75f7	-0.09348672
22	0x3d6fb479	0.05852172
23	0xbf0a481c	-0.5401628
24	0xbbbe1183	-0.0058004274
25	0xbe11f3cf	-0.14253162
26	0x3e1879e9	0.14890255
27	0x3ea16d94	0.31528914
28	0xbe8faacb	-0.28059992
29	0x3e454e90	0.1926825
30	0xbe03acd7	-0.12858902
31	0x3d86d3bb	0.06583353
32	0xbdfab6e2	-0.122419134
33	0xbddff116	-0.10934655
34	0xbe14dc6a	-0.14537206
35	0xbbd871f8	-0.006605383
36	0x3e069877	0.13144098
37	0x3dbf6ae9	0.09346563
38	0x3e03c182	0.12866786
39	0xbd1356a9	-0.035971317
40	0x3d90d611	0.0707208
41	0xbe2b0ff2	-0.16705301
42	0x3dcb22e2	0.09918763
43	0xbe4ce05a	-0.20007458
44	0xbe4cd97c	-0.20004839
45	0xbeb800bf	-0.3593807
46	0xbdb7f97d	-0.08983133
47	0xbeb5c727	-0.35503504
48	0xbd67518d	-0.056474257
49	0xbd0f3bce	-0.034969144
50	0x3e636efc	0.22210306
51	0xbba3575f	-0.0049847807
52	0xbd1634ec	-0.036671564
53	0xbe9eb4e8	-0.30997396
54	0xbe23b1d2	-0.15985802
55	0x3e55aa51	0.20865752
56	0x3e66e683	0.2254887
57	0xbe736392	-0.23768452
58	0x3ea7a6f8	0.32744575
59	0x3d2db229	0.042406235
60	0x3e760fea	0.24029508
61	0x3e77bb4f	0.24192546
62	0x3ea47b2c	0.32125223
63	0x3e2a6bb3	0.16642646
64	0x3d499124	0.049210683
65	0xbe5b7b52	-0.21433762
66	0x3d334c45	0.04377391
67	0x3d292164	0.04129161
68	0xbe0527ca	-0.1300346
69	0x3e582233	0.21106796
70	0x3e6bbb07	0.23020564
71	0x3e4fea9a	0.20304337
72	0xbde8ebc4	-0.11373094
73	0xbe9f263b	-0.31083855
74	0x3d3e8aad	0.04651897
75	0x3d2ccac5	0.042185564
76	0xbe2cff91	-0.16894366
77	0xbd86431c	-0.06555769
78	0x3e69029d	0.22754903
79	0xbe14c742	-0.14529136
80	0x3d601a54	0.05471261
81	0x3e310f99	0.17291106
82	0x3ce33832	0.027736757
83	0x3d83e1d8	0.06439561
84	0x3e5e0871	0.21682908
85	0xbec8497b	-0.3911856
86	0x3e702a7f	0.23453711
87	0xbd539367	-0.051654246
88	0xbe038540	-0.128438
89	0x3e054bd6	0.1301721
90	0xbd3b7bb5	-0.045772273
91	0x3e8cc0f7	0.2749097
92	0xbe3008fe	-0.1719093
93	0xbe194540	-0.14967823
94	0x3de24b68	0.11049539
95	0xbd5eb41c	-0.054370984
96	0xbdb06b14	-0.086141735
97	0xbe8a05f2	-0.2695766
98	0x3e610961	0.21976234
99	0x3e3f35f3	0.18672924
100	0x3c86111d	0.016365582
101	0x3d8a8ac3	0.06764748
102	0xbe89c501	-0.26908115
103	0x3df4ddba	0.119563535
104	0x3e047117	0.12933765
105	0x3dead052	0.11465515
106	0x3e5ecc9d	0.21757741
107	0x3dcf9b46	0.10137038
108	0xbe2624da	-0.16224995
109	0x3e1a94be	0.15095803
110	0xbe0b5c2a	-0.13609377
111	0xbe18e90c	-0.1493265
112	0x3e06fccd	0.13182373
113	0xbe1dcf53	-0.15411119
114	0xbde9b5c0	-0.11411619
115	0x3e53842b	0.20655887
116	0x3da91b1c	0.08257124
117	0xbd910aa3	-0.07082107
118	0xbd6b41cf	-0.057435807
119	0x3e95a500	0.29227448
120	0x3d8b4bc5	0.06801561
121	0xbcd2b3dc	-0.02572053
122	0xbd36442e	-0.044498615
123	0x3dccb36f	0.09995162
124	0x3dd418e6	0.103563115
125	0x3d66da7d	0.05636071
126	0xbc2e82ab	-0.010651271
127	0x3d994783	0.07484343

out.feature_out.layers.6.bias f4 [4]
0	0xbdc530b3	-0.09628429
1	0xbdece05d	-0.115662314
2	0xbe24a847	-0.16079818
3	0xbde9dfad	-0.11419616

backbone.backbone.0.linear.0.weight f4 [32, 32]
0	0xbd121250	-0.035661995
1	0xbddab3d1	-0.106788285
2	0xbd832749	-0.064039774
3	0x3cfdccc7	0.030981435
4	0x3dc974e2	0.09836747
5	0x3e9b78a8	0.3036549
6	0x3e987cf7	0.2978284
7	0x3cfb68d7	0.03068964
8	0x3f0a972c	0.5413692
9	0x3eda24d7	0.42606232
10	0xbdc9beaf	-0.09850823
11	0x3dbf0d4c	0.09328708
12	0x3ed7a950	0.42121363
13	0x3e0ead79	0.13933362
14	0x3f108cc8	0.56464815
15	0x3cd8f76c	0.026485167
16	0x3def2546	0.11677031
17	0x3de00c24	0.10939816
18	0x3cc8a6c8	0.02449359
19	0xbe668918	-0.22513235
20	0xbdb7a6bc	-0.08967349
21	0x3eb30255	0.34962717
22	0x3f011656	0.50424707
23	0xbd8eaa60	-0.0696609
24	0xbe8cdc41	-0.2751179
25	0x3e6a7a44	0.22898203
26	0x3ed9a9b3	0.42512283
27	0x3e3d948e	0.185137
28	0x3eac7f9a	0.33691102
29	0x3eefa018	0.4680183
30	0xbe3c0717	-0.1836208
31	0x3eec9bdf	0.4621267
32	0xbcc0e7d5	-0.023548046
33	0xbdc3242e	-0.09528385
34	0xbd48df3b	-0.049041014
35	0xbd5dcab4	-0.05414839
36	0x3d544107	0.051819827
37	0x3d4879a3	0.048944127
38	0x3e9e74f2	0.30948597
39	0x3d31a874	0.04337354
40	0xbeb182e6	-0.3467018
41	0xbe84e60b	-0.2595676
42	0x3aa3151b	0.0012442203
43	0x3e1eb8c6	0.15500173
44	0xbde5f976	-0.112292215
45	0x3daf5a6a	0.08562167
46	0x3e8cb9bb	0.2748545
47	0x3dbd764c	0.09251079
48	0x3ec1f7ba	0.37884313
49	0x3e63d6c6	0.22249898
50	0x3e3a8bbb	0.18217365
51	0x3ebbe0d6	0.36694974
52	0xbdfad1ee	-0.12247072
53	0xbe2f99b1	-0.17148472
54	0xbe5ebbd6	-0.21751341
55	0x3e93aefb	0.28844437
56	0x3df2a855	0.11848513
57	0x3e8ef7cd	0.27923432
58	0xbe5060fe	-0.203495
59	0x3d936959	0.07197828
60	0x3dc9bb7e	0.098502144
61	0xbc946587	-0.018114818
62	0x3f0da3ae	0.5532788
63	0x3cf5b16d	0.02999183
64	0x3b5a98f6	0.0033355332
65	0xbd47f0bd	-0.04881357
66	0x3d159f0b	0.03652863
67	0xbd2510cb	-0.04029922
68	0x3e6a865c	0.22902817
69	0xbcd4b6e0	-0.025966108
70	0x3e01c8b8	0.12674224
71	0xbe3c408b	-0.18383996
72	0xbe7ed5d5	-0.24886258
73	0xbe4b02d9	-0.19825305
74	0x3b4ef89e	0.0031581293
75	0x3e15863a	0.14601985
76	0xbd8d5b9d	-0.069022395
77	0x3d993f33	0.074827574
78	0xbde34c28	-0.1109851
79	0x3e0ac401	0.13551332
80	0xbdabf5c4	-0.083964854
81	0xbe0dd279	-0.1384982
82	0x3eb99330	0.36245108
83	0x3e252def	0.16130804
84	0xbecf168a	-0.40446883
85	0xbcedc418	-0.029024169
86	0xbecc55f9	-0.39909342
87	0x3e8c6609	0.27421597
88	0x3dc3dbed	0.09563432
89	0xbe95c910	-0.2925496
90	0xbe062bc6	-0.13102636
91	0xbdee7ecb	-0.116452776
92	0x3dd517c2	0.10404922
93	0xbe50f7f0	-0.2040708
94	0x3ea8b4b4	0.32950366
95	0xbcdf0f23	-0.027228897
96	0x3c0e6015	0.0086899
97	0x3c952df6	0.018210392
98	0xbdfe2655	-0.12409655
99	0xbc36d042	-0.011158051
100	0xbe01e85f	-0.12686299
101	0x3c3d10ab	0.0115396185
102	0x3e642a51	0.22281767
103	0xbd1d6d1e	-0.03843414
104	0xbeb357e4	-0.35027993
105	0xbde33934	-0.11094895
106	0xbe9e5cbf	-0.30930135
107	0x3da046d7	0.07826012
108	0x3d14ee79	0.036360238
109	0x3dedc9e9	0.11610777
110	0xbe015959	-0.1263174
111	0x3e179cda	0.14805928
112	0x3e99c984	0.30036557
113	0x3e45658a	0.19277015
114	0x3d0b2ff2	0.03398127
115	0x3e866edd	0.26256457
116	0xbd2ac2cb	-0.041689675
117	0x3c3d975b	0.0115717305
118	0xbeb6621f	-0.35621735
119	0xbd6ab178	-0.057298154
120	0xbe473edc	-0.19457573
121	0x3dc434f1	0.0958041
122	0xbe8fb95d	-0.28071108
123	0xbe87fe06	-0.26560992
124	0xbe9ba33b	-0.30397972
125	0xbd0d1aff	-0.034449574
126	0x3e3e935b	0.18610899
127	0x3d54a7ab	0.051917713
128	0xbd051a82	-0.032495983
129	0x3c816c81	0.015798809
130	0xbe34e936	-0.17667088
131	0x3d628661	0.055303935
132	0x3dc9e775	0.098586
133	0x3c7ad031	0.015308426
134	0x3e34ecde	0.17668483
135	0x3cc095b7	0.02350889
136	0x3e0e76b8	0.13912475
137	0x3d9e457c	0.07728097
138	0x3e48754b	0.19575994
139	0x3d692101	0.05691624
140	0xbdf5b2fe	-0.11997031
141	0x3db0a393	0.08624949
142	0x3e85bfe8	0.26122975
143	0x3e46b5b5	0.19405253
144	0x3ebb0b74	0.36532176
145	0x3ead9e15	0.3390967
146	0xbebf25d0	-0.37333536
147	0x3e66c4a0	0.22535944
148	0x3d8468dc	0.06465313
149	0x3e9d692c	0.30744302
150	0x3e8ba25d	0.2727231
151	0x3ede9926	0.43476218
152	0x3e9b5a1e	0.3034219
153	0x3cc5fd26	0.024168562
154	0xbe0a7203	-0.13520055
155	0x3ec2eb51	0.38070157
156	0x3eb171c2	0.34657103
157	0x3e111ef8	0.1417197
158	0x3eda0caf	0.42587802
159	0x3e2ff1b8	0.17182052
160	0xbd5efa6b	-0.054438036
161	0x3dc8f34e	0.09812032
162	0xbe50caa3	-0.203898
163	0xbdbab8e4	-0.09117296
164	0x3d763011	0.060104433
165	0xbe4315db	-0.19051306
166	0xbdde94d5	-0.10868231
167	0xbe1117f9	-0.14169301
168	0xbe5f6f64	-0.21819836
169	0xbe767e76	-0.24071679
170	0xbf3d1065	-0.7385314
171	0x3e2104fe	0.1572456
172	0x3efb7380	0.49111557
173	0xbe76f5c4	-0.2411719
174	0xba1ed1a7	-0.00060584623
175	0x3e5a1911	0.21298625
176	0x3e34e3a7	0.17664967
177	0x3e70356f	0.23457883
178	0x3eb210ec	0.34778535
179	0x3e038d15	0.12846787
180	0x3d8010fa	0.06253238
181	0xbdf192d1	-0.11795581
182	0xbf0b4691	-0.5440455
183	0x3dd61b69	0.10454447
184	0xbf142c25	-0.5787986
185	0x3d78ff4c	0.060790345
186	0xbefe8f66	-0.4971878
187	0xbdb53850	-0.088486314
188	0xbf1e4461	-0.6182309
189	0xbe6b5f49	-0.22985567
190	0xbecb4d20	-0.3970728
191	0xbd0572ba	-0.032580115
192	0x3d1bd4a6	0.038044594
193	0x3b742786	0.0037255003
194	0x3c40e35c	0.011772957
195	0xbdb9e7a5	-0.09077386
196	0xbde20ffd	-0.11038206
197	0xbe37812f	-0.17920373
198	0xbe343e10	-0.176018
199	0xbd3a14fc	-0.04543017
200	0xbecc5c66	-0.39914244
201	0xbe919e96	-0.28441304
202	0xbd473ef5	-0.048644025
203	0x3e02d65c	0.12777084
204	0xbeee7ed6	-0.46581143
205	0x3de6611c	0.11248991
206	0xbdd82719	-0.10554332
207	0xbd17ca63	-0.037058245
208	0xbe54181c	-0.20712322
209	0x3dd67cb7	0.10473006
210	0x3e106970	0.14102721
211	0xbd218867	-0.039436724
212	0xbeb328d3	-0.34992084
213	0xbe9af89a	-0.30267793
214	0xbe74ebc5	-0.23918064
215	0xbd8f2cb6	-0.0699095
216	0xbd382885	-0.044960517
217	0x3d9ef57d	0.07761667
218	0x3e6020cc	0.21887511
219	0xbeb0a78c	-0.34502828
220	0xbccac658	-0.02475278
221	0xbc0635e0	-0.008191556
222	0x3dc29356	0.09500758
223	0xbe2a06b4	-0.1660412
224	0x3c1007b1	0.008790896
225	0xbd6d1d15	-0.057889063
226	0xbd85eb42	-0.065390125
227	0x3e2ba511	0.16762187
228	0x3de557db	0.11198398
229	0xbc0cc56f	-0.008591994
230	0x3ea8aada	0.3294285
231	0xbd784d67	-0.06062069
232	0xbdd5cdee	-0.104396686
233	0xbe946b91	-0.28988317
234	0x3d8cdbd7	0.068778686
235	0x3d83ed73	0.06441774
236	0x3e2d9b67	0.16953813
237	0xbe4334b0	-0.19063067
238	0xbd95718e	-0.072970495
239	0x3e7d511f	0.24737976
240	0x3d887a3b	0.066639386
241	0xbdc706e3	-0.097181104
242	0x3ec445ca	0.38334495
243	0x3d861702	0.06547357
244	0xbe09453e	-0.1340532
245	0xbdd2c8f8	-0.10292238
246	0xbf141106	-0.57838476
247	0xbdadd188	-0.084872305
248	0xbe9ca0cb	-0.30591425
249	0x3c8fbe0e	0.01754668
250	0x3d1a60e1	0.037690047
251	0xbe194b24	-0.1497007
252	0xbd26a196	-0.040681444
253	0xbe233e7b	-0.15941803
254	0x3d20f68c	0.039297625
255	0xbe182e54	-0.14861423

backbone.backbone.0.linear.0.bias f4 [32]
0	0x3e4d207a	0.2003192
1	0xbe2c5ab0	-0.1683147
2	0x3c77c654	0.015122969
3	0x3d8fc519	0.07020015
4	0x3e004df9	0.12529744
5	0xbdbf2152	-0.09332527
6	0xbda4886c	-0.08033833
7	0x3d467809	0.04845432
8	0x3ddd1f5f	0.10796999
9	0xbdb08ead	-0.08620963
10	0x3cb1a6db	0.021686008
11	0xbd8a3b7e	-0.067496285
12	0x3e27f77f	0.16403006
13	0x3d88a9d7	0.066730194
14	0xbd48309f	-0.048874494
15	0xbda10513	-0.07862296
16	0xbd060ec9	-0.032728944
17	0xbdf82aee	-0.12117563
18	0xbcf4a6c5	-0.029864678
19	0x3e130847	0.14358626
20	0x3e60a94b	0.2193958
21	0xbe9f56b5	-0.3112084
22	0x3e4d3687	0.20040332
23	0xbd20aa21	-0.039224748
24	0x3ddd08b2	0.10792674
25	0xbe10baf1	-0.14133812
26	0xbed386b5	-0.4131371
27	0xbdb09753	-0.08622613
28	0x3e099acf	0.13437961
29	0xbe1efe36	-0.15526661
30	0xbd4f5537	-0.050618377
31	0xbe53994c	-0.20663947

backbone.backbone.0.gat_layers.0.fc.0.weight f4 [4, 4]
0	0x3f1d66b9	0.6148487
1	0xbf793f5c	-0.97362304
2	0xbd888913	-0.0666677
3	0xbeb8c993	-0.3609129
4	0x3dbfcb0c	0.093649
5	0x3ed50cca	0.4161132
6	0xbe51764d	-0.20455284
7	0x3eddbe0f	0.43309066
8	0x3e254dac	0.1614291
9	0xbde43ef4	-0.1114482
10	0x3f07b973	0.5301735
11	0x3ef5872d	0.47954693
12	0xbf8c34ac	-1.0953574
13	0x3ed71257	0.4200618
14	0x3dba9245	0.0910993
15	0xbe8810ce	-0.2657532

backbone.backbone.0.gat_layers.0.fc.0.bias f4 [4]
0	0x3f21b57a	0.63167536
1	0x3e47ef59	0.19524898
2	0xbf163605	-0.5867618
3	0x3e10eb75	0.1415232

backbone.backbone.0.gat_layers.0.att_layer.weight f4 [1, 8]
0	0x3e938b8a	0.28817397
1	0xbe8c312a	-0.2738126
2	0xbebd954f	-0.37027976
3	0x3de879db	0.11351367
4	0x3ea6ddde	0.32591146
5	0xbe006466	-0.12538299
6	0x3f832df0	1.0248394
7	0x3e1ac4d9	0.15114154

backbone.backbone.0.gat_layers.1.fc.0.weight f4 [4, 4]
0	0x3f359c36	0.70941484
1	0xbe38c80f	-0.18045066
2	0xbe7c694a	-0.2464954
3	0x3f2e7d29	0.6815973
4	0x3dcb7ac4	0.09935525
5	0xbf044857	-0.5167288
6	0xbe772e62	-0.24138787
7	0xbeb2ffd5	-0.3496081
8	0x3eee7dd0	0.46580362
9	0xbe166ff1	-0.1469114
10	0xbe256418	-0.16151464
11	0xbf48978e	-0.78356254
12	0xbef9adae	-0.4876532
13	0xbe571a14	-0.21006042
14	0xbef5cee4	-0.48009408
15	0xbe4647b8	-0.19363296

backbone.backbone.0.gat_layers.1.fc.0.bias f4 [4]
0	0x3e9ba0bf	0.30396077
1	0xbea617e9	-0.32440117
2	0xbf386711	-0.72032267
3	0xbec59ba6	-0.38595313

backbone.backbone.0.gat_layers.1.att_layer.weight f4 [1, 8]
0	0x3f2a5cb5	0.6654771
1	0x3c1264d6	0.008935174
2	0xbd2eeb67	-0.042704966
3	0x3edd309c	0.4320115
4	0x3f346805	0.7047122
5	0xbeeb1201	-0.45912173
6	0x3ebb4904	0.36579144
7	0x3f944d60	1.1586113
