model_parameter/tbc/GAttention_best.pth (torch, 908046 bytes, 378 tensors)

embedding.traffic_embedding.0.weight f4 [32, 1]
000000 d1 29 8e 3e d1 85 c1 3e 9c bb 03 3f 5b de 9b bd
       0.27766278 0.37797406 0.51458144 -0.0761077
000010 55 93 69 be 62 fb 95 3e b0 97 0e 3f 12 b0 55 3e
       -0.22810109 0.29293352 0.55700207 0.20867947
000020 12 8f 3b 3f 2a 7f a1 be be b6 a8 bd 5f 2f 18 bf
       0.7326518 -0.3154233 -0.0823798 -0.5944728
000030 25 16 47 3f 6d ea cc bd d8 39 ca be 4e 75 21 3f
       0.77768165 -0.10005651 -0.39497256 0.6306962
000040 f8 b1 4c 3e 78 46 4d 3f 60 e1 72 3f 52 6e ff bd
       0.19989765 0.8018565 0.94875145 -0.12472214
000050 7a b4 85 bf c9 04 2f bf 49 d0 5c be 15 d4 eb be
       -1.0445702 -0.68366677 -0.2156383 -0.46060243
000060 57 9d 96 3e 98 bb 00 bf 41 14 b8 3d 7e db 32 3f
       0.29416916 -0.50286245 0.08988238 0.6986617
000070 7c c9 e4 3e 21 b0 44 3f 6a e7 5b 3f 6a 01 5c 3f
       0.4468497 0.7683125 0.85899985 0.8593966

embedding.traffic_embedding.0.bias f4 [32]
000000 f3 0c 72 bf 3e 66 55 3f de 54 4c 3e b2 57 36 3e
       -0.9455101 0.83359134 0.1995425 0.1780689
000010 6f db 07 bf c9 d5 b8 be d2 b1 1c 3f b8 3c db bc
       -0.53069204 -0.36100605 0.6120883 -0.026762351
000020 19 88 07 3f 94 be db 3d 56 15 f6 3e 81 29 57 bf
       0.52942044 0.10729709 0.48063153 -0.84047705
000030 7a 4b f1 be 30 e2 01 bf 0d 56 f5 3e e7 90 0f bf
       -0.47127897 -0.5073576 0.47917214 -0.5608048
000040 70 49 74 bf a3 57 72 be 98 2a ac be ea 62 04 bf
       -0.95424557 -0.23666243 -0.33626246 -0.5171343
000050 5b c0 72 bf 94 c7 15 bf a1 80 84 be 44 dc 56 3f
       -0.9482476 -0.5850766 -0.25879386 0.8392985
000060 12 2d 9b bc 2c 18 4a 3f 76 b9 c5 3e e6 08 de be
       -0.01894239 0.78943133 0.38618058 -0.43366164
000070 36 34 62 3f 68 1b 19 3f e0 97 41 bf 71 20 37 bf
       0.8836092 0.59807444 -0.7562237 -0.71533877

out.linear.layers.0.weight f4 [32, 32]
000000 77 90 f0 bb e4 dd 28 bd 70 13 2b be 7f e8 34 3e
       -0.0073414403 -0.041227236 -0.16706634 0.17666815
000010 d9 23 5e 3d ec a7 cd 3d 09 bd c2 bc 43 dc b7 bc
       0.054233406 0.10041794 -0.02377178 -0.022443896
000020 4c 2c d5 3d 30 e3 4e be 63 98 0b 3d 1f a6 a0 bc
       0.104088396 -0.20203853 0.034080874 -0.019610463
000030 94 e7 b6 bd 57 fd 10 3d ec 99 a3 bd 8b 40 c2 3d
       -0.08930889 0.035397854 -0.07988343 0.09484967
000040 6d 99 dc 3d 12 49 ca bd 60 54 61 3e cc a6 1b 3e
       0.10771451 -0.09877218 0.22004843 0.15200347
000050 d6 b3 7e bd cc 3a f2 bd 64 82 24 be 35 c9 16 be
       -0.062183224 -0.11827621 -0.16065365 -0.14725192
000060 63 1c 10 3e b2 e3 b3 3d 4d 26 79 3d e1 d4 77 3e
       0.14073329 0.08783664 0.060827542 0.242023
000070 b6 d2 81 be 6f 6b 0d 3e 9d d7 fd 3d 06 f4 66 3e
       -0.25356072 0.13810514 0.123946406 0.22554025
000080 86 a7 75 bd d7 06 e5 3d 19 3a 00 3e b3 dc 3e 3e
       -0.059974216 0.11182945 0.12522162 0.18638878
000090 39 f8 93 3e 3c f8 22 bd 04 f9 fd 3d cd df 39 3e
       0.28900316 -0.039787516 0.124010116 0.1815178
0000a0 0d a9 04 be 6e c4 0a 3e 46 4e 97 be a3 87 30 3e
       -0.12955113 0.13551494 -0.29551905 0.17239241
0000b0 65 ba 57 3e 8d 4e e0 3c 47 92 96 3d 0b 9a ea bd
       0.21067198 0.027381206 0.07352119 -0.114551626
0000c0 96 29 02 3e 62 1c 17 3e 9c b7 a9 bc b0 75 4c 3e
       0.12711176 0.14756921 -0.020717435 0.19966769
0000d0 4d 91 23 3e fa 4e 92 bc 2c 6f 43 3d 09 ee 99 bd
       0.15973397 -0.017859925 0.047713444 -0.07516105
0000e0 4c 1e ad bd 51 4a 2e bd b5 03 84 bc 23 47 3c 3d
       -0.08453044 -0.042551342 -0.016115049 0.04596628
0000f0 ff 9c a9 3e 8d a8 01 bd ce 28 45 3d 9b cb fe bd
       0.3312759 -0.031654883 0.048134618 -0.124411784
000100 df fd 5e 3d d0 0d 43 3e b8 fa 8b 3e 27 3c e2 bc
       0.05444133 0.19048238 0.2733972 -0.027616573
000110 1a 46 5b 3e 27 5c b2 3d 65 c0 ec 3c 5f a4 8a 3e
       0.2141346 0.08708983 0.028900335 0.2707853
000120 15 1e 6b bd 02 38 1c 3e 9b 5f fe 3d 29 a4 26 bd
       -0.057401735 0.1525574 0.12420579 -0.0406839
000130 17 f8 79 3e 8a 8e 83 3e 32 4c 0b bc fb 7a 03 3e
       0.24411045 0.25694686 -0.008502053 0.12839882
000140 11 46 8d 3c 59 84 c2 3d 9b cc 8e 3c 4f f4 0c 3b
       0.017245324 0.094978996 0.017431548 0.0021507924
000150 7f 7c 06 ba f9 a0 00 3e 1d 88 24 3e c2 b4 48 3d
       -0.00051302457 0.12561406 0.16067548 0.04900051
000160 be 4c 5d 3e c5 51 ba bb 01 18 02 3e 1b 1b 80 3e
       0.21611306 -0.005686017 0.1270447 0.2502068
000170 c5 97 72 3e 38 4f bc bc fa 0a 4b 3e d5 8e 61 3d
       0.23690708 -0.022986993 0.19828406 0.055067856
000180 99 88 82 bd 58 3c d3 3d 99 6a 83 bd a7 23 87 bb
       -0.0637371 0.10314244 -0.06416816 -0.004124123
000190 72 b6 95 bd 19 00 6f 3d 6e 3d ca bd 62 13 13 be
       -0.07310189 0.058349703 -0.09874998 -0.14362863
0001a0 1d 69 86 3d 36 36 7c be c2 a9 b2 bd 84 a9 21 be
       0.065630175 -0.24630055 -0.08723785 -0.15787321
0001b0 a8 25 3c be c3 e3 be 3d 47 10 fc 3b 48 ec 05 ba
       -0.1837374 0.09320786 0.00769237 -0.0005108756
0001c0 a0 69 0c be 84 31 03 be 5e 74 75 3d 64 67 57 3e
       -0.13712168 -0.12811857 0.05992543 0.21035534
0001d0 f7 f3 25 be e3 c5 89 bd c6 12 3c bd d7 f3 53 bd
       -0.16206346 -0.06727197 -0.04591634 -0.051746216
0001e0 ae 63 3b be a2 c5 6a 3d e3 ca 86 bd 8d 09 1a be
       -0.18299744 0.057317384 -0.06581666 -0.15042706
0001f0 5c 9c d7 bc 24 a4 e6 3b 71 8e a8 3d a0 43 19 be
       -0.026319675 0.00703861 0.082302935 -0.14967203
000200 ee 9b 6f 3d a6 e8 8d bd 9f 40 b7 bc 44 6c 8c 3d
       0.058498316 -0.0692914 -0.02236968 0.068565875
000210 dd f2 64 3e 47 9a 06 3e 89 31 03 3e 94 07 97 3d
       0.2235827 0.1314479 0.12811865 0.07374492
000220 04 05 58 bc da 30 cd 3d b7 a2 c1 3d 29 fd 30 3e
       -0.01318479 0.10019083 0.094548635 0.17284073
000230 7f 39 26 bd 76 ca c2 bd 3d 1c 22 be 67 ce 88 bb
       -0.040582176 -0.095112726 -0.15831085 -0.0041749957
000240 64 e0 02 3e f7 71 81 3d 81 02 1e 3d 46 44 0d 3e
       0.1278091 0.06320565 0.038576607 0.13795575
000250 f1 66 01 3e 24 68 ae bd 7e 8e 1e 3e 26 26 06 3e
       0.12636925 -0.08515957 0.15484044 0.1310049
000260 9f e3 f7 3c a3 fd 82 bd 91 d1 b1 3d b4 b7 0d be
       0.030259905 -0.063960336 0.0868255 -0.13839608
000270 53 b4 a1 3b f0 21 a1 bd fb ed d5 bc b7 65 b0 bd
       0.0049348264 -0.07867801 -0.026114454 -0.086131506
000280 24 b1 ed 3d b0 fd 5b 3e 44 01 0f 3e 83 12 a9 bd
       0.116060525 0.21483493 0.13965327 -0.08255484
000290 15 3d 2e 3d ba 74 24 3e c0 16 53 bd cf cf 0d 3d
       0.04253872 0.16060153 -0.051535368 0.03462201
0002a0 36 d3 de 3c a7 bd 92 3a b0 1c f6 ba 7a 39 5e b9
       0.027200323 0.0011195437 -0.001877686 -0.00021192982
0002b0 41 c8 24 3d 94 73 ce 3c 42 aa 83 3d 0a 46 a1 3c
       0.04023004 0.025201596 0.064289585 0.019686718
0002c0 9c 55 09 be 61 0d 10 3e 89 d4 5d 3e 9e ef 40 bd
       -0.13411564 0.14067604 0.21663107 -0.047103517
0002d0 73 ba 6b 3e ec 00 1b 3e 18 79 af 3d d9 37 cf bd
       0.23020343 0.1513707 0.08568019 -0.10118074
0002e0 d2 06 46 3e 9e 79 17 bd 7d 46 e2 3d a2 5e 55 bc
       0.19338539 -0.036981218 0.11048601 -0.0130230505
0002f0 86 3b 11 3c 3a 91 df 3d 57 7c 59 3e 3f 26 27 3d
       0.008864289 0.10916372 0.21238838 0.04080796
000300 ee 3a 9c bd 9a 11 16 3e 8f 0c 76 bc 17 b2 3b be
       -0.076284274 0.14655152 -0.015017643 -0.18329655
000310 32 4c ab 3b 4e 1e 22 bd c5 8e 01 be e0 0c 94 bd
       0.005227589 -0.039579682 -0.12652119 -0.07229018
000320 28 a9 8d 3e 3f 94 a9 bd 42 5e f0 bd e9 4f ec bd
       0.27668118 -0.08280229 -0.11736728 -0.11538679
000330 35 40 45 3b f7 13 44 3e da f0 70 3e 0b 59 4a 3e
       0.0030098085 0.19148241 0.23529378 0.1976053
000340 2d 7a f7 bd d3 59 ac bd 9c c1 4d bd a4 82 81 be
       -0.1208385 -0.0841557 -0.05023347 -0.25294983
000350 f0 b4 43 3e db c7 b6 bc fd 1c 95 3b 44 bd 08 be
       0.19111991 -0.022312095 0.004550575 -0.13353449
000360 41 45 42 3e df d6 7e bd c2 0e 3a be 93 3b aa 3c
       0.18971731 -0.062216636 -0.18169692 0.02078036
000370 b6 a1 07 3d f1 62 dd bc 60 a3 c2 3c 62 b5 c9 3d
       0.033113204 -0.027024718 0.023759544 0.09849049
000380 dc ea 82 3e 1c 6f 41 3e 4c 0f 72 3b e1 b2 0c 3c
       0.25569808 0.18890041 0.0036935387 0.00858757
000390 a5 bd 11 be b5 bd 42 3d 60 c1 58 3d 50 fc 18 bd
       -0.142325 0.0475442 0.05291879 -0.03735
0003a0 5c bc 78 3d c9 42 4d 3e a6 a9 cb 3c 65 38 a0 3d
       0.06072651 0.20045008 0.024861168 0.078232564
0003b0 25 9a 54 3e 0f b0 00 be ee 9b 24 3e 71 3a 42 3e
       0.20761926 -0.12567161 0.16075107 0.18967606
0003c0 62 d8 1b 3e b5 a2 0c 3e 03 10 b4 3d 2e a7 4e be
       0.15219262 0.13733943 0.087921165 -0.20180961
0003d0 38 53 78 3d fd ef 3b 3d f5 68 3a bc 27 a0 d0 bc
       0.06062624 0.045883168 -0.011377563 -0.025466992
0003e0 8d 97 0a 3e 3e 4e 57 bd fa d7 6b bc d8 f7 7a 3d
       0.13534375 -0.052564852 -0.014394755 0.06127152
0003f0 93 31 06 3e 22 b5 98 3d 3d cc 4e 3e 95 4e 9a bd
       0.13104849 0.07456423 0.20195098 -0.075345196

out.linear.layers.0.bias f4 [32]
000000 34 68 34 3e e2 8b 15 3e 44 b0 11 3e bf f9 ac 3d
       0.17617875 0.14604142 0.14227396 0.08446073
000010 c9 bf 03 3d 2a 54 89 3b a5 17 ed 3d 04 16 f4 3d
       0.032165322 0.0041909413 0.115767755 0.11918262
000020 a8 e7 9f 3a ae f6 f6 3d 14 de b9 bd dd a4 9f 3d
       0.0012199776 0.12058769 -0.09075561 0.07795117
000030 91 b7 08 bb 80 62 e9 3d 3a cd 10 3e e6 2e 20 bd
       -0.0020861367 0.113957405 0.14140788 -0.039107226
000040 9a c5 14 3e 53 5b 52 bd cd 2e b4 3d 48 2b 8d bd
       0.14528504 -0.051356625 0.08797989 -0.06893021
000050 35 47 05 3d c8 b6 4a 3c 92 d5 d4 3d 7f ee 14 3e
       0.03253861 0.01237268 0.10392298 0.14544104
000060 24 85 8a 3d f4 d4 18 3c cc ec c4 bd 25 72 01 3e
       0.06763676 0.009328116 -0.09615478 0.12641199
000070 0e 4f b3 bc 00 80 4c bd 54 99 32 3c 09 f0 03 be
       -0.021888282 -0.049926758 0.010900814 -0.12884535

out.linear.layers.2.weight f4 [32, 32]
000000 61 d6 47 be 43 2f 94 3d a0 a7 33 3e d8 c7 be 3b
       -0.19515373 0.07235577 0.17544413 0.005822163
000010 0a e2 99 3e b1 f7 e7 bb 86 fd a9 3d ea 6c 8f bd
       0.30055267 -0.0070790877 0.08300309 -0.070031956
000020 88 0f b8 bd 38 a0 5b be 50 de 35 3e 3f 58 6c 3d
       -0.08987337 -0.21447837 0.17760587 0.057701346
000030 2c 44 48 bd 75 85 27 3d 41 33 86 bd 07 eb b2 bd
       -0.04889314 0.04089876 -0.06552745 -0.08736234
000040 50 27 74 bc 23 f0 73 be 67 e5 3d be 72 89 d8 bc
       -0.014901951 -0.23822074 -0.18544541 -0.026432727
000050 27 f5 1d 3e 21 85 e2 3d e0 f7 5b 3e d3 42 ab 3d
       0.1542555 0.110605486 0.21481276 0.08362355
000060 d8 6f 18 be 36 7d 15 be 7b 17 fb bd 57 cf d6 3d
       -0.14886415 -0.14598545 -0.12260338 0.10488766
000070 15 d9 01 3d 5d 62 26 be 0c e4 6b be 14 a1 05 be
       0.031701166 -0.1624846 -0.23036212 -0.13049728
000080 67 45 60 3b 81 c5 8a 3d d4 c4 88 3c ad ee 56 bd
       0.0034221055 0.06775952 0.016695417 -0.052473713
000090 10 07 2c bd a9 fe 55 bd bb 5d 42 be d8 d5 b9 bd
       -0.041998923 -0.052244816 -0.18981068 -0.090739906
0000a0 67 fd 1e be da 4d dc 3d c3 3f 27 bc dc 6b 85 bd
       -0.15526353 0.107570365 -0.010208073 -0.06514713
0000b0 43 d3 fb 3d eb f7 a4 3d d7 14 25 3e 7e 0a ae 3d
       0.12296154 0.08055099 0.16121231 0.08498095
0000c0 32 1c 21 bd bf a3 b0 3d af 16 13 3e ea 2d d3 bd
       -0.03933353 0.08624982 0.14364122 -0.10311492
0000d0 e4 d5 88 bd 63 18 ab bc 0f b2 26 3e e2 e1 77 bd
       -0.066814214 -0.020885652 0.16278861 -0.060518153
0000e0 a4 62 1e 3e 28 8b 5c 3d dc 15 16 be b3 5c 8f bb
       0.15467316 0.053843647 -0.14656776 -0.0043750643
0000f0 23 5f 45 be 97 52 86 3d d6 2b f7 bd 77 cf c9 bd
       -0.19274573 0.065587215 -0.12068908 -0.09854024
000100 92 25 db bd a5 f7 bb bd 29 c3 b1 bd 2a 6e 09 be
       -0.10700525 -0.09178094 -0.08679802 -0.1342093
000110 f0 1f e4 bd 29 07 10 3e 15 3e 23 3e 68 c8 13 3e
       -0.11138904 0.14065231 0.15941651 0.14431918
000120 47 0f 12 3e 70 9e 91 3c 28 ec 72 3c 22 95 73 be
       0.1426364 0.017775744 0.014826812 -0.23787358
000130 c5 fb d6 bc f8 49 68 bd b6 1b e3 bc 41 fe 50 3c
       -0.0262431 -0.056711167 -0.027723175 0.012755931
000140 fd 2c 19 be fb 77 21 be 51 f6 59 bd 25 02 3f 3e
       -0.14958568 -0.15768425 -0.05321342 0.18653162
000150 f0 fb b7 bb 4f 9a 5d bd 1a 72 6c 3d c9 09 40 be
       -0.00561475 -0.05410224 0.057726003 -0.18753733
000160 6f 81 c9 3c 68 b9 a1 bd c1 f6 4d 3e b6 d7 31 bd
       0.024597852 -0.078966916 0.2011366 -0.04341861
000170 50 8e 98 3c 2a 5a b8 3c 9b b6 7c bd bd ac 73 3d
       0.018622547 0.022503931 -0.061697584 0.059490908
000180 ef 0e 4e 3e cf 58 86 3c 22 7e 04 bd 08 41 99 be
       0.20122884 0.01639977 -0.032346852 -0.29932427
000190 57 e6 47 be 80 64 06 3d 37 2a 6c 3d 66 1d 6a bc
       -0.19521461 0.032810688 0.057657447 -0.014289236
0001a0 46 32 09 3e 83 83 7a 3e ed 1c ac 3c 7d 48 89 3c
       0.13398084 0.2446423 0.021009887 0.016758198
0001b0 03 eb 6c 3d 2d a2 13 bc 24 8f 24 be d8 0f 89 be
       0.057841312 -0.009010834 -0.16070229 -0.267699
0001c0 09 7f e3 bd f3 ea 8d be d8 c9 ad 3d 1c 0b 42 be
       -0.111082144 -0.27718315 0.08485764 -0.1894955
0001d0 38 69 b5 bc b2 3d 1c 3d 65 d5 9a be 4b 23 8f bd
       -0.022144899 0.038144775 -0.30240932 -0.069891535
0001e0 e4 20 98 be 9a 7b 93 be 57 f5 f1 bd 45 c5 47 be
       -0.29712594 -0.28805238 -0.11814373 -0.19508846
0001f0 bb e2 88 3d 3f 58 8a bd 6e 95 82 3e a8 0f 05 be
       0.066838704 -0.06755113 0.2550463 -0.12994254
000200 cf 9d d9 3d 5c 2d 94 3c 2b db 3f bc 1c 1e ce 3d
       0.10625803 0.018088035 -0.011709969 0.10064337
000210 87 ba 97 3d 1a 71 d1 3d c8 13 4a 3d f6 1f bc 3d
       0.07408624 0.102266505 0.04933527 0.091857836
000220 a9 6d a5 bd 1d 1d a2 3d d5 77 66 be da 06 bb bc
       -0.08077557 0.07915709 -0.2250665 -0.022830416
000230 29 b9 05 3d 48 f7 4d 3e cd 25 28 3e ff 7d 3b 3e
       0.032647286 0.20113862 0.1642067 0.18309782
000240 b1 19 28 bb 84 c1 d8 3d 16 60 a0 3d 1c 65 3b be
       -0.002565008 0.10583785 0.07830827 -0.18300289
000250 88 68 9b be 9e 51 90 3d 71 45 33 3d 23 63 e1 3c
       -0.3035319 0.07046817 0.043767396 0.027513092
000260 8e 02 7c 3b ca 9e 47 bc 33 fd 45 be 76 8a a0 3d
       0.003845367 -0.012183854 -0.19334869 0.07838909
000270 5c b1 3a be fb b6 bd 3c 61 5e 48 3e be 11 d4 bd
       -0.1823172 0.023158541 0.19567253 -0.103549466
000280 b7 22 3f bd b3 77 04 3e 67 7a 6e bd 03 2a 49 3d
       -0.046663966 0.12936287 -0.0582222 0.04911233
000290 9b c0 2f 3e 30 40 51 bd f8 46 80 3b 08 85 1e be
       0.17163317 -0.051086605 0.00391471 -0.15480435
0002a0 57 fd a8 ba 30 e7 85 bd b9 ed 9e bd d1 5a 89 3d
       -0.0012892884 -0.06538236 -0.07760186 0.06706775
0002b0 a5 9f b6 bd 0e 94 93 3d 81 60 5c 3d 29 19 1b be
       -0.089171685 0.072059736 0.05380297 -0.15146317
0002c0 59 9e 64 be af 92 c9 3b 18 52 a9 bd 08 93 d9 bc
       -0.2232603 0.0061515193 -0.08267611 -0.026559368
0002d0 4c 92 6b 3e 3e 4a 56 3d 41 94 10 be aa 73 89 bc
       0.23005027 0.052316897 -0.14119054 -0.016778786
0002e0 55 ce 03 bc fb 1b d7 bd 20 d6 23 be 21 aa 26 3d
       -0.008044799 -0.10503384 -0.15999651 0.04068959
0002f0 e3 69 00 be 2a df 02 be f7 5e 96 3d c2 9d cf bc
       -0.12540393 -0.12780443 0.07342332 -0.02534378
000300 31 0b c9 bd a6 4a af bc e0 19 f1 3d a6 f0 25 bd
       -0.09816588 -0.0213979 0.117725134 -0.040512703
000310 f2 e5 a9 bd dd 0a c2 bd 3b 9d 76 3d d2 d9 42 3e
       -0.08295812 -0.09474728 0.06020854 0.19028404
000320 7a 3c 0c bd 22 40 12 3e eb 21 33 bd ff e3 98 be
       -0.034237362 0.14282277 -0.04373352 -0.29861447
000330 91 18 ec 3d fc 58 2b be 5b b6 0e be f0 8c 1b be
       0.11528123 -0.16733164 -0.1393675 -0.15190482
000340 67 ab 23 be aa d9 31 be a0 ed 4a bd b8 4e 22 be
       -0.15983354 -0.17368189 -0.049543023 -0.15850341
000350 2d a7 e7 3d 13 81 ec bd 38 35 8f bd a7 54 5a 3c
       0.11311183 -0.115480565 -0.069925725 0.013325847
000360 86 d9 b9 3c 51 c8 f9 3d a2 35 b5 bd 38 00 56 be
       0.022686731 0.121964104 -0.0884812 -0.20898521
000370 f0 58 bb bd 99 56 c0 bc 88 26 17 3e 29 58 37 3d
       -0.09147823 -0.023478793 0.14760792 0.04476181
000380 e5 5b 21 bd 9c 08 00 bd 0b aa 00 be f3 33 50 bd
       -0.039394278 -0.03125821 -0.12564866 -0.050830793
000390 cf c3 56 bd 47 64 0b be ce 88 29 3b 3f 5a eb 3d
       -0.05243283 -0.13612472 0.0025868895 0.114918225
0003a0 23 2b 25 ba e4 2c 60 3d 9a 6f 71 be c9 94 71 3d
       -0.00063006784 0.05473031 -0.23577729 0.058979783
0003b0 39 46 d7 bd 26 49 d2 bd 11 c5 73 3d 67 4b 3a bd
       -0.10511441 -0.10267858 0.05951411 -0.045482066
0003c0 75 2b 9f 3c 22 a6 cf 3d a5 8d 14 bc 54 d4 34 3e
       0.019429902 0.10139109 -0.009066974 0.17659122
0003d0 57 60 5b 3c 83 7e 74 3b 36 87 94 3d bd cd 3a 3d
       0.013389668 0.0037306852 0.07252352 0.045606364
0003e0 ac bf c5 bd c2 94 04 be 09 1b b7 3d 10 b7 8a 3c
       -0.09655699 -0.12947372 0.089407034 0.016932994
0003f0 22 7b 27 be 8b ee f5 3d da 05 a9 bd 33 ce 4c 3e
       -0.16355565 0.12008389 -0.08253069 0.20000534

out.linear.layers.2.bias f4 [32]
000000 c6 67 10 be df ec a9 bd fb 40 0a 3e 16 a0 ee 3d
       -0.14102086 -0.08297133 0.1350135 0.11651628
000010 45 ed ce bc e7 e2 e5 3c 01 34 ba bc b7 52 1f be
       -0.025259623 0.028062297 -0.022729876 -0.15558897
000020 46 bb 46 3e 8a 46 a1 bd ab 49 57 bc 46 13 97 3d
       0.19407377 -0.078747824 -0.013140122 0.07376723
000030 6f 7a 7f 3e 06 5b 81 bd ee e1 fd bd e0 8b 1e 3e
       0.24949048 -0.063161895 -0.12396608 0.15483046
000040 0a 77 90 bb f7 6c 1a 3e 8c 2e 82 bc cc 50 3d be
       -0.004408722 0.1508063 -0.015891336 -0.18487853
000050 93 30 1f 3e 97 2b f6 3d ca 48 b1 3d 94 e0 07 3c
       0.15545873 0.12020033 0.086564615 0.00829329
000060 60 7b 23 3e c7 69 cf bd 8e b4 72 3d 72 2f ab 3b
       0.15965033 -0.10127597 0.05925422 0.005224162
000070 0d d9 4b be 98 8f 47 3e 9a f1 63 be 88 96 1d 3e
       -0.19907017 0.1948837 -0.22260132 0.15389454

out.linear.layers.4.weight f4 [32, 32]
000000 8e 12 a5 3d 95 87 76 be c4 a6 12 be bf b1 22 3e
       0.0806018 -0.24075158 -0.14321429 0.15888117
000010 d7 40 a1 3c 88 61 0e be d7 8d 02 3c 56 8d 59 be
       0.019684238 -0.13904393 0.007968388 -0.21245322
000020 00 93 dc 3d 1e 14 cf 3d a0 bf 10 3e d3 ef 51 bd
       0.107702255 0.10111259 0.14135599 -0.051254105
000030 d6 7f ac 3a b4 26 b3 3d b8 13 26 bb 26 1e 5e bd
       0.0013160657 0.087476164 -0.0025341343 -0.05422797
000040 5c c9 9d 3d 2e fb 73 bd 52 eb cf 3c 7f d4 30 be
       0.07704422 -0.059565715 0.025380764 -0.17268561
000050 07 12 11 be cb 4f ff 3d 2f 3a f9 3c 6c e1 cc bd
       -0.14167033 0.12466391 0.030423252 -0.10003933
000060 a9 b1 96 3c 68 a6 d1 3d a8 0d d9 3b c7 c3 92 bd
       0.018395262 0.102368176 0.0066239424 -0.07166248
000070 bd ee 89 bb 46 70 5c bd 35 76 9f 3d 0d ef 89 be
       -0.004209368 -0.05381801 0.07786218 -0.26940194
000080 bd 31 bb 3d 99 ba c1 3d d4 f0 bc bd d4 3b 7d 3c
       0.09140346 0.09459419 -0.09225622 0.015456159
000090 5f 94 36 3e 28 de 47 be bc 3c 92 bd e5 8e 97 bd
       0.17830037 -0.1951834 -0.071404904 -0.07400302
0000a0 60 7c 59 be b0 68 71 bd 32 19 f6 bc 93 12 af 3d
       -0.21238852 -0.05893773 -0.030041311 0.085484646
0000b0 7b 7f 70 3e dc 3d 03 3d 9b ac 76 3d f5 45 0e 3e
       0.2348613 0.032041416 0.060223203 0.13893874
0000c0 ea fe f5 bc 18 8b 19 3e e7 d1 89 be 56 6a 27 be
       -0.030028779 0.14994466 -0.26917955 -0.16349158
0000d0 42 d3 f5 bd 4f a2 e9 3d c5 29 47 3e 51 c5 8f bd
       -0.12003185 0.11407911 0.19449528 -0.07020057
0000e0 f6 72 23 be f6 78 5d 3a 9c 13 99 3d 39 2c 4a be
       -0.15961823 0.00084485055 0.07474443 -0.19743432
0000f0 79 35 17 3d 2c 84 45 3c a4 88 88 be 45 c8 1d 3e
       0.03691623 0.012055438 -0.2666675 0.15408428
000100 e4 37 8a be 1b 2f 3c 3e b2 84 cc 3c 28 36 6d be
       -0.26995766 0.18377344 0.024965618 -0.2316519
000110 12 b0 a2 bd 53 c7 b0 3b 64 72 8a bd 60 94 a5 3c
       -0.07943739 0.005394855 -0.067600995 0.020212352
000120 6f c1 1a 3e 64 65 0d 3e 0b 95 a4 3c bb c3 a6 3d
       0.15112852 0.13808209 0.0200906 0.081428014
000130 66 ee 1b bd 7b b4 3f 3d d6 28 f6 bd 21 d1 5c bd
       -0.03806915 0.04680298 -0.120195076 -0.05391038
000140 38 b5 3b bd 4a 94 1c be 8d ca 09 be 54 50 7b 3d
       -0.04582712 -0.15290943 -0.13456173 0.061355904
000150 4f 9a 90 bd 0c 46 e9 bd 83 73 3a be 76 16 03 3e
       -0.07060682 -0.113903135 -0.18208127 0.12801537
000160 11 da 1b 3e 1a 2e dc 3d 02 0f 45 be 70 c7 b9 bd
       0.15219904 0.10750981 -0.19244006 -0.09071243
000170 ad b0 de bd 1d cb 31 bd a5 8a e3 3d d8 bb 67 3e
       -0.10873542 -0.043406595 0.11110429 0.2263025
000180 18 4f aa 3d 05 49 d9 3d 36 04 04 3b b3 13 e4 3d
       0.08315867 0.106096305 0.0020144111 0.1113657
000190 0e d0 a9 bd 83 f2 3a bd 0a a0 39 be fe 39 7c 3d
       -0.082916364 -0.045641433 -0.18127456 0.061578743
0001a0 95 82 0a be 0b 03 0a be 2f 08 d8 bc 2f 57 96 be
       -0.13526376 -0.13477723 -0.02637109 -0.2936339
0001b0 9c a1 33 be 3c 56 41 be 4b 6e 20 3d 45 bf 2a 3e
       -0.17542118 -0.18880552 0.039167684 0.16674526
0001c0 57 ee de bd c0 c2 76 bd e0 fd 54 3e 33 85 6a 3e
       -0.108853035 -0.06024432 0.2079997 0.22902374
0001d0 1f b7 4d 3e 18 96 db bc 08 1f 06 3e f2 cf c5 3b
       0.20089386 -0.026804969 0.13097775 0.006036752
0001e0 5c 76 cb bd 01 00 57 bd fa 84 1b bd a4 fb f4 bd
       -0.09934685 -0.052490238 -0.037968613 -0.11962059
0001f0 4a 18 fc bc 6f b8 2c bd 29 c0 9b bd 7a 19 e2 3d
       -0.0307733 -0.042168077 -0.07605011 0.110400155
000200 2f 36 2b be c6 a2 1e bd f4 7a b0 3d e9 62 88 3e
       -0.16719888 -0.03872945 0.086172014 0.26637962
000210 2e 21 c6 bc d1 f6 43 be 52 58 0e 3e 8d e3 a1 bd
       -0.024185743 -0.19137122 0.13900879 -0.0790473
000220 e8 5d ef bd ff d7 28 be 58 f7 1f be e8 75 d2 3d
       -0.11687833 -0.16488646 -0.15621698 0.10276395
000230 2a 7e 0b 3e 73 60 4a 3d 1d af 96 3d 66 1f 65 bc
       0.13622347 0.049408387 0.07357619 -0.013984537
000240 b2 0b 2f 3e c3 d9 4a 3e 16 5a 72 3d 3c ea 29 be
       0.17094305 0.19809632 0.059167944 -0.1659326
000250 72 6d d4 bd 3b 7c 72 3e e1 10 56 3e df cb 59 bc
       -0.103724375 0.23680203 0.20904876 -0.013293236
000260 fa 94 e6 bc 1c 40 73 be c4 c7 8c 3d 1d c7 44 bd
       -0.02814721 -0.23754925 0.0687404 -0.04804145
000270 dc 05 63 3d ad 6a 85 3e ba 79 64 be 07 c9 91 bd
       0.05542551 0.2605795 -0.2231206 -0.07118421
000280 7e 5f 56 be 5f 7a 8e be 5f 1d b2 3d 48 b3 25 3e
       -0.20934865 -0.27827737 0.08697008 0.16181672
000290 7e 16 2f 3c 92 ed 80 be f3 83 e0 3d 73 8b ee bc
       0.010686515 -0.25181252 0.10962667 -0.029119229
0002a0 f6 70 15 be 7e 79 20 3d 70 5a 07 be aa cd f7 3b
       -0.14593872 0.039178364 -0.13218093 0.007562359
0002b0 a6 e7 91 3e 3f e5 8b 3d c4 6b 88 3c 5e 5a d1 bc
       0.28497046 0.068308346 0.01665295 -0.025555786
0002c0 6c fc 2a 3e 68 71 2f 3d 4e 93 19 be 3c 7d 11 3d
       0.16697854 0.042832762 -0.14997599 0.035519823
0002d0 47 b4 77 be 83 74 18 3e 3c 84 f4 bd 2e 42 47 bd
       -0.24189864 0.14888196 -0.11939284 -0.0486471
0002e0 af 86 1f be 9f 13 e2 bd 03 4f e7 3d e7 a1 43 be
       -0.15578721 -0.11038899 0.11294367 -0.1910473
0002f0 b9 07 b3 bd 20 03 2d 3e 25 6a 92 bc b6 d2 b3 bd
       -0.08741707 0.16895723 -0.01787288 -0.08780424
000300 9e e7 20 3d 22 0e 12 bd 87 e1 ed bd cf fc 07 be
       0.039283387 -0.03565801 -0.116152816 -0.13280033
000310 27 39 b7 3c 30 48 93 3d 6c 89 09 be b3 60 94 bc
       0.02236612 0.07191503 -0.13431329 -0.018112516
000320 34 d3 e1 3d b4 58 1f bd a1 e4 0f bd 00 18 0f be
       0.11026612 -0.038902953 -0.035130147 -0.13973999
000330 13 00 ce bc b2 c1 e9 bd 29 0f 83 3c 73 4e 7b 3e
       -0.02514652 -0.114138976 0.01599844 0.24541645
000340 3d 44 89 be 82 72 9a 3d 3f d5 3c be 7a 60 8b bd
       -0.26809874 0.07541372 -0.18440722 -0.06805511
000350 f9 5f 3b 3e 67 33 14 be 87 05 d4 bd 2e a8 14 bd
       0.1829833 -0.14472733 -0.10352617 -0.0362932
000360 62 5e 0c 3e ca e5 50 be 6e a6 d5 bd cd 7f a3 bd
       0.13707879 -0.20400158 -0.104321346 -0.079833604
000370 86 80 10 3e bd b2 de bc ab b0 81 3d b8 54 9f 3e
       0.14111528 -0.027184838 0.06332525 0.31119323
000380 19 c0 1d 3e 9c a4 11 be bb 99 8d 3e e6 e5 3f 3e
       0.1540531 -0.1422295 0.2765635 0.18740043
000390 18 20 ad 3c f7 c4 8d bd 23 55 35 3e c6 3e 3c be
       0.021133468 -0.06922334 0.17708258 -0.18383321
0003a0 b7 cb ee 3a 5a 49 4c be bd 21 4e be 08 42 a2 3e
       0.0018218671 -0.19949856 -0.20130058 0.31691003
0003b0 4f 32 4d 3e 9a 80 75 3e 82 5a 7a 3d d7 3d bd 3d
       0.20038722 0.23974839 0.06112147 0.09240311
0003c0 9d 88 88 3e 17 e9 44 3d 06 e7 ca 3a e5 7a 0f 3d
       0.26666728 0.048073854 0.0015480227 0.03502931
0003d0 1f b9 1a 3d c2 25 46 3d c3 96 61 3e 6c fe ae bb
       0.0377742 0.048375852 0.22030167 -0.005340388
0003e0 1d d1 3c 3c b7 91 57 be 12 35 52 3e 11 2e 91 bd
       0.011524466 -0.2105168 0.20528057 -0.070888646
0003f0 6b c4 d8 bd 26 08 de 3d 27 ae 3a 3d 53 17 f3 3d
       -0.10584339 0.10841398 0.04557624 0.11869683

out.linear.layers.4.bias f4 [32]
000000 f4 7f a0 bd 8b ae 2f 3e 63 37 38 3e 4a cb 8a bd
       -0.07836905 0.17156427 0.17989878 -0.067770556
000010 22 48 20 3e a5 c0 e7 3d 60 0a 2e 3d 05 3e fd 3d
       0.15652516 0.11316041 0.042490363 0.12365345
000020 a9 b3 01 3e 0c 38 bd 3d 40 ea f0 3d 91 56 84 bd
       0.12666191 0.09239206 0.1176343 -0.06461824
000030 88 e8 8d bd 78 0d 4b bd 72 98 d2 bc 0b 11 41 bd
       -0.069291174 -0.04957339 -0.025707457 -0.047135394
000040 3e af aa bd a4 9f 44 3e b2 69 fd bc 4b 06 84 3d
       -0.08334206 0.19201523 -0.030934189 0.06446513
000050 ff 38 8d bc 08 28 0e be 6f 8a 20 be 5b 20 b4 bd
       -0.017239092 -0.13882458 -0.15677808 -0.08795234
000060 af 74 4a 3e 9a bd c6 bd 4a 43 27 bd 93 ba 36 3e
       0.19771074 -0.097041324 -0.040835656 0.1784461
000070 36 29 d9 bd 9f da 09 3e ec a3 d8 3d ac 95 35 3c
       -0.106035635 0.13462304 0.105781406 0.011083048

out.linear.layers.6.weight f4 [13, 32]
000000 d2 bf d3 3d e0 af 99 3d 75 1f 6b 3e 53 f0 5f 3c
       0.10339321 0.075042486 0.22961219 0.013668138
000010 67 62 24 bd 7a 37 fb 3c d5 f6 c1 3d b0 8f e9 bd
       -0.040132906 0.030666102 0.094709076 -0.11404359
000020 a6 59 5b 3e a6 ce a3 3d 4a fd fc 3d 46 f9 03 3d
       0.21420917 0.079983994 0.123529986 0.032220148
000030 6a 41 13 3d d9 72 08 bd 48 fc ee 3d 07 dc 58 3e
       0.035951056 -0.033312652 0.116692126 0.21177684
000040 0d ce 1a 3d 04 15 d1 3c 8f 5f 93 bd 1f 3f a5 bd
       0.03779416 0.025522716 -0.07195961 -0.0806868
000050 dd 49 be 3d 39 22 6f 3d 62 e0 7a 3d d8 93 71 3d
       0.09291432 0.058382247 0.061249144 0.058978885
000060 aa b8 e4 bd d5 35 51 be 39 b4 86 3d 30 bd d0 bd
       -0.111680344 -0.20430692 0.065773435 -0.10192335
000070 9a ea 38 3e d6 8a 2e 3e e3 0d cb bc eb 79 a0 3d
       0.18058243 0.17045149 -0.024786895 0.07835754
000080 bb a5 7b 3d 76 27 68 be 09 59 96 bd 0d 0d 67 3d
       0.06143735 -0.22671303 -0.07341201 0.05640893
000090 f6 6c 45 3b cc b1 53 be 09 8b d2 3d 57 8c 4f 3c
       0.003012476 -0.20673293 0.10280425 0.012667737
0000a0 42 89 82 3d 6d 7a 2a be 7c ce 57 3e a5 4a 6f 3d
       0.06373836 -0.16648264 0.21074861 0.058420796
0000b0 d8 1d ea bd be 48 d7 bd e9 0c 2b 3e 50 80 c1 bc
       -0.114314735 -0.10511921 0.16704144 -0.023620754
0000c0 dc 43 6b bc 2f b8 e0 bc b4 e7 18 bc 6f 1e 4b 3b
       -0.014359441 -0.027431576 -0.009332586 0.0030993482
0000d0 ee b7 e3 bd 55 88 d6 bd 79 c0 0e bd 35 51 3a 3b
       -0.11119066 -0.10475222 -0.034851525 0.002842975
0000e0 e8 1a 27 be 71 26 3d 3e 94 b9 ce bd 56 cb 05 3d
       -0.16318858 0.18471695 -0.1009399 0.03266462
0000f0 d0 0c fb 3d 61 57 c4 3d 0c 76 6d bd 0a 97 ab 3d
       0.12258303 0.09586979 -0.057973906 0.08378418
000100 bd 0c 4c be 2d 6c 47 be 80 90 4e bd 76 99 a4 bc
       -0.19926734 -0.1947486 -0.050430775 -0.020092707
000110 6e e4 64 bd 4b 3d 80 bb 77 77 62 bd 93 7e 4d bc
       -0.05588191 -0.0039135567 -0.05528971 -0.012542385
000120 20 da 49 3e 39 07 61 3d 8e c3 5f bc 48 61 95 3c
       0.19712114 0.05493853 -0.013657464 0.018234864
000130 ad 7b 32 3e ba 46 fa bc 26 bc 5c 3e 5f 05 d9 bd
       0.17429991 -0.030551303 0.21556148 -0.105967276
000140 57 97 c2 3b 27 55 0d be 2c d5 19 be 2a a2 32 be
       0.0059384513 -0.13802014 -0.15022725 -0.17444673
000150 4a a0 56 be f5 86 b2 bc 87 04 59 3e c2 58 9a 3d
       -0.20959583 -0.021792868 0.21193133 0.075364605
000160 4e 07 0c 3c ac 23 c3 3d f1 af 9b 3b 38 75 5f bc
       0.008546663 0.09528288 0.0047511985 -0.013638787
000170 fb 99 0d 3e 71 61 79 3d c7 6d 2b 3d d9 64 38 3d
       0.1382827 0.060883943 0.04185274 0.04501805
000180 32 a6 44 bc 9f a4 52 3d 48 ce b6 bd f2 db 43 3e
       -0.012002515 0.051426526 -0.08926064 0.19126871
000190 d8 b3 b8 3b 08 dc 1b be 75 cd 55 3e 54 2d 40 bc
       0.0056366734 -0.15220654 0.20879157 -0.011729557
0001a0 06 78 57 3e 58 ef 6b be 4d a5 15 bc 9d 32 aa bd
       0.21041879 -0.23040521 -0.009133649 -0.08310435
0001b0 3f 0d e3 3d e8 59 f6 3d ea bd c1 3d 89 dd 46 3d
       0.11086511 0.12028867 0.09460051 0.048551116
0001c0 78 2e f0 3d 63 5a 07 be 60 7f e8 bd 45 58 04 be
       0.11727613 -0.13218074 -0.1135242 -0.12924297
0001d0 c4 92 36 be 33 2b b0 bd 61 dd 52 3e 57 45 97 bd
       -0.17829424 -0.086019896 0.20592262 -0.073862724
0001e0 10 ce 1c be fb ca de 3d a4 ec c5 3d 85 33 af 3d
       -0.15312982 0.10878559 0.09664276 0.085547484
0001f0 e4 45 9f 3c e1 86 68 bd 67 18 c1 3c d5 09 38 bc
       0.019442506 -0.056769256 0.023571206 -0.011232813
000200 6d 88 02 bd aa 69 12 be 75 68 d3 3d 98 0d fe bd
       -0.031868387 -0.1429812 0.10322658 -0.124049366
000210 4c b5 0d 3e c7 da 84 bd 34 a7 21 3e 07 de 8b bd
       0.1383869 -0.06487041 0.15786439 -0.06829458
000220 65 d8 04 3d 6f 4f 00 be 11 63 89 3d df 05 af 3d
       0.032432932 -0.12530302 0.067083485 0.08546042
000230 ae 2a 01 3e f5 16 6d 3d e3 82 82 3d cb 5a 39 3d
       0.12613937 0.05788322 0.06372621 0.045252603
000240 2f 1a 49 be 15 16 41 be 28 90 22 bd a1 ac 2a be
       -0.19638894 -0.1885608 -0.03968826 -0.16667415
000250 10 07 82 bd e8 5a c9 3d ee 1a 1d be 03 db 73 3d
       -0.06349003 0.09831792 -0.15342304 0.059535038
000260 c9 6e b3 bc b2 f3 6a 3e 70 62 39 be 35 07 02 be
       -0.021903412 0.22944525 -0.18103957 -0.12698062
000270 06 15 c3 bc 12 49 e1 3d 54 b3 89 bd 5d ca df 3c
       -0.023813736 0.11000265 -0.06723657 0.027318174
000280 0a fa 35 3d f9 4a d6 bb d9 f7 21 3e f3 d3 da bd
       0.04442791 -0.006539699 0.15817203 -0.10684957
000290 42 53 a3 3c d4 88 55 be eb 18 36 3d ca e4 6b be
       0.019937161 -0.20852977 0.044457357 -0.23036495
0002a0 2f 44 10 3e 78 e2 9b bc 21 54 18 3e b3 25 47 be
       0.1408851 -0.019028887 0.14875843 -0.19447975
0002b0 85 9d 37 3e 85 9c 6a 3e 9a e7 a3 3c 6f eb 44 bd
       0.17931183 0.2291127 0.020007897 -0.04807609
0002c0 8c eb 2d 3d 9f 8a b0 bd 5a f1 9d bd ab 6e 8a 3d
       0.042460963 -0.0862019 -0.0771205 0.067593895
0002d0 89 ee 8c 3c 8f b3 d9 bc 15 e6 33 bd ec 53 50 be
       0.017203586 -0.026574878 -0.043920595 -0.20344514
0002e0 00 61 03 3e 3c 31 0c be 67 2e 9a 3c 46 6a 05 3e
       0.12829971 -0.13690656 0.018820954 0.13028821
0002f0 a0 0f 83 3d 7f c1 58 3e 75 9c 16 3e 63 74 00 3d
       0.063994646 0.21167563 0.14708121 0.031360995
000300 45 97 59 bc ef bf ad 3d 1f 57 99 bd 87 3f 85 bd
       -0.013280694 0.08483874 -0.0748732 -0.065062575
000310 01 bc 31 be e0 01 d8 bd 8b a0 0d 3e 37 77 41 bd
       -0.17356874 -0.10547233 0.13830774 -0.047232833
000320 fa dc d0 bc 4d 2a 2b be b6 7b db 3d 32 9c 46 be
       -0.025495995 -0.16715355 0.10716955 -0.19395521
000330 dc f8 cb 3d fe ac b6 bc b5 ad ed bd 55 fb dd 3d
       0.099595755 -0.022299286 -0.116053976 0.108389534
000340 83 fa 3a be fe cc 91 bb e0 b7 d9 bc a5 e8 20 3d
       -0.18259625 -0.004449486 -0.026576936 0.039284367
000350 ab b7 e7 bd 00 2b 0f 3e e1 2f c4 bc d5 1e e4 3d
       -0.11314329 0.13981247 -0.023948612 0.11138693
000360 87 95 0d 3a 7b 09 43 3d 5e b5 9e bd 43 cb 64 bd
       0.00054010045 0.047616463 -0.07749437 -0.055857908
000370 db db 92 3d b3 8f 52 3d e4 fb 97 3d a1 5f d6 3d
       0.0717084 0.051406574 0.07421091 0.104674585
000380 e4 92 f4 bd a6 25 1f be 8a 32 9d bd e7 9c cd bd
       -0.1194208 -0.15541705 -0.07675655 -0.10039692
000390 b0 84 5f be cb 45 8d 3d 52 0f 58 bd 3c 22 d0 bc
       -0.2182796 0.068980776 -0.052748986 -0.02540695
0003a0 a8 c0 e4 3d 2b 2c 53 be ca e7 07 3e 84 e9 b0 bd
       0.11169559 -0.20622317 0.13272014 -0.086382896
0003b0 70 86 bf bd a7 c9 71 3e ff ec 05 3e 8d 37 15 3e
       -0.09351814 0.2361208 0.13078688 0.14571972
0003c0 35 95 0d be cb 64 91 3d 21 f6 10 3d 7b 5c 25 be
       -0.13826449 0.07099303 0.035390977 -0.1614856
0003d0 64 38 23 3c e4 6c a8 3c 3b 1a f7 3d 02 e7 72 bd
       0.009962175 0.020559736 0.1206555 -0.059302337
0003e0 4e b9 4b 3b 3c 1f cf 3d 50 3b 9a bd f8 b9 67 bd
       0.0031085792 0.10113379 -0.07530844 -0.056573838
0003f0 3f 08 c5 3d 17 cf 5e bd c5 ad ce 3d b8 ee 03 3e
       0.096207134 -0.054396715 0.10091738 0.12884033

out.linear.layers.6.bias f4 [13]
000000 42 c7 0c be 98 d7 cf bd 68 fb 79 bd 66 ec 9c 3d
       -0.13747886 -0.10148543 -0.061030775 0.07662277
000010 08 5f 16 3d ea 57 3a bd 7b 75 b2 bb 60 1a a3 bd
       0.036711723 -0.045493998 -0.0054461337 -0.07964015
000020 5a 29 5a bc eb af dc 3d 03 a1 a0 3d c4 98 24 3e
       -0.013315523 0.10775741 0.078432105 0.160739
000030 e2 55 0e bd
       -0.034749873

backbone.node_encoder.0.gat_layer.fc.0.weight f4 [4, 4]
000000 c5 02 7e 3e b3 5e d5 3e 38 80 ae 3c 7a 12 13 be
       0.24805744 0.41673812 0.021301374 -0.14362517
000010 e0 52 16 3d 2a 7a a9 bc 79 3d 05 be 36 61 bf 3e
       0.03670013 -0.020688135 -0.13011731 0.37378854
000020 89 e0 78 3e be 1a f5 bc ac 18 62 bd e9 22 85 3d
       0.24304403 -0.029919978 -0.05519931 0.06500799
000030 53 bc 89 bd f3 6d db 3e 6f e2 3c 3e 90 cb ea 3d
       -0.06725373 0.42857322 0.18445753 0.11464608

backbone.node_encoder.0.gat_layer.fc.0.bias f4 [4]
000000 b6 e6 c4 bd 21 96 2d 3e 8c ae 7a bd ef 27 dc 3d
       -0.09614317 0.16951801 -0.061201617 0.10749804

backbone.node_encoder.0.gat_layer.att_layer.weight f4 [1, 8]
000000 94 3a 05 bf f6 5c 12 bf 14 59 40 bf 78 b6 83 bf
       -0.5204251 -0.571731 -0.7513592 -1.029006
000010 66 ac 29 be e7 7b b4 be 2f 1e a5 be 89 0f 13 3f
       -0.16569671 -0.3525078 -0.3224959 0.5744558

backbone.node_encoder.0.fc.0.weight f4 [32, 32]
000000 fd ec af 3d 27 ad 0d 3f f0 3e 01 bf 2c dd 57 bf
       0.08590124 0.55342335 -0.5048666 -0.84321856
000010 38 cd 06 3f 4f 3e 8e 3d 52 2a 16 3f 63 2a 7a 3e
       0.5265689 0.06945478 0.58658326 0.24430232
000020 af ae 72 3e 38 2c b9 bd 5c 6a e1 be e5 4a aa 3e
       0.23699449 -0.09041637 -0.44026458 0.33260265
000030 60 4b 44 3e 38 fb 30 be e1 9a 21 be 9d 55 c8 bd
       0.19169378 -0.17283332 -0.15781738 -0.097819544
000040 b6 79 d8 be 83 33 11 3f 01 22 0f bf 15 15 41 bf
       -0.42280358 0.56719226 -0.5591126 -0.75422794
000050 75 80 93 be d8 99 6f be 1c cf 92 3e ae e3 68 bf
       -0.28808942 -0.2339853 0.28673637 -0.9097241
000060 f1 59 62 bf ee 73 fa be 3b e9 eb bd b3 47 b1 3b
       -0.8841849 -0.48916572 -0.115190946 0.0054101585
000070 94 72 ec be 6f 58 c8 be 4c 37 51 be 15 5d d9 3d
       -0.46181166 -0.3912997 -0.2043125 0.10613457
000080 54 4e c2 3e e4 40 03 be cb 3a 68 3e c9 51 71 be
       0.37950385 -0.12817723 0.22678678 -0.23566355
000090 d1 95 2d bd 8d 33 86 3d eb 60 a2 3e e1 68 39 be
       -0.042379204 0.06552801 0.31714568 -0.18106414
0000a0 c0 ec 32 3f 11 4a db 3e c2 ad 1b bf 3a 09 f3 be
       0.698925 0.42829946 -0.6081201 -0.47467977
0000b0 26 04 e3 3e 46 76 5a bf 22 1f 76 3f bd 6f 15 bf
       0.44339103 -0.8533672 0.96141255 -0.58373624
0000c0 17 29 54 bf aa 7c b2 bc ba 57 0c 3f b6 5d ad bd
       -0.828752 -0.02178796 0.5482136 -0.084651396
0000d0 61 fb 92 be c9 a7 96 be b0 55 53 3f c2 24 25 bd
       -0.28707412 -0.29424885 0.82552624 -0.040318258
0000e0 98 58 68 bf e3 41 a3 3e 40 1d 13 3f 50 a7 15 3e
       -0.90760183 0.31886205 0.57466507 0.14614606
0000f0 f9 69 ec be a7 74 51 bd f0 92 9e 3f 72 d1 a7 3e
       -0.461746 -0.05113664 1.2388592 0.32776982
000100 3d e6 62 bc 4a 4b d6 be 32 cd 5b bc b4 19 a6 3e
       -0.013848838 -0.41854316 -0.013415622 0.32441485
000110 50 96 5b bc 07 cf 9e 3e 0a 2c d3 3c e1 2e 24 3e
       -0.0134025365 0.31017324 0.025777835 0.16033508
000120 ca 4c ea 3e 64 80 b2 3e e4 e4 65 3f 77 ab b4 bb
       0.4576171 0.3486358 0.89802384 -0.0055136043
000130 42 ff b7 be 5b d6 e3 be 9f 50 27 bf 65 66 91 bc
       -0.35936934 -0.44499478 -0.65357393 -0.01774902
000140 e2 83 39 bf 79 34 47 3e 4d f7 3e 3f e9 d2 ab 3e
       -0.7246686 0.1945361 0.745961 0.3355935
000150 9d 9e 9a be 45 04 0e bf 0c 51 2f 3f 78 70 9e be
       -0.30199137 -0.55475265 0.6848304 -0.30945182
000160 d0 5d 1d 3e 73 3f f2 be 63 a1 2d 3b e0 b1 85 3f
       0.15367818 -0.47314033 0.00264939 1.0444908
000170 79 35 f0 be 1f a0 80 3d 59 7d 71 3e d8 55 73 3e
       -0.46915796 0.06280541 0.23582973 0.23763216
000180 42 e7 53 3e 00 8f 9d be ba c8 23 bc 36 6e 47 be
       0.20693687 -0.30773163 -0.009996587 -0.19475636
000190 d2 34 ae 3d 27 da d8 bc 9b 9c e2 be 1f e7 96 3c
       0.085061684 -0.02647121 -0.44260105 0.018420754
0001a0 27 8c e1 be 6b 92 be bd 7b e0 10 3f 95 40 25 3f
       -0.4405224 -0.09305271 0.5659253 0.6455167
0001b0 5e 14 09 bd f3 2b 19 3f f6 cf cf 3e b1 3c cf 3e
       -0.03346669 0.59832686 0.4058835 0.4047599
0001c0 17 53 fd be f3 db d9 be 2c a7 8b 3f 77 aa 01 bf
       -0.49477455 -0.4255062 1.0910392 -0.50650734
0001d0 98 82 84 be de 89 53 bf 69 d1 ae be 44 2f c4 3b
       -0.25880885 -0.82632244 -0.34144142 0.00598708
0001e0 bc c8 af 3e f1 e7 26 3f d8 99 c8 be 5c b8 62 be
       0.34332836 0.65197664 -0.39179873 -0.2214064
0001f0 db e7 90 3e f2 44 96 be 06 0d 2a be 48 45 31 bf
       0.28301892 -0.29349476 -0.1660653 -0.6924634
000200 2f cd 5e 3c 15 96 f8 bd ed 33 20 bd 47 7e a0 3d
       0.013598724 -0.12138001 -0.03911202 0.078365855
000210 66 fd d6 be 54 c1 a4 3e 8e 54 55 3e 1f 2e 13 3f
       -0.41990203 0.32178748 0.20833036 0.5749225
000220 33 33 e0 3d 1a 93 c5 3e b0 e4 af 3e fb 86 27 bf
       0.109472655 0.38588792 0.34354162 -0.6544034
000230 8c 47 5f 3e 58 0a 52 3e d4 dc 9a bf 6e 7e c1 bd
       0.21804637 0.20511758 -1.2098641 -0.09447943
000240 18 9d d9 3e a7 40 82 bd 35 ab 46 3f 6a 4a c2 be
       0.42502666 -0.06359988 0.7760499 -0.37947398
000250 8f 51 2b bf f4 55 90 be 08 2e 2c 3f d5 07 e3 bd
       -0.66921324 -0.28190577 0.6725774 -0.11085478
000260 f9 2a 14 3f aa 09 bb bc 43 64 dc be 1a a8 3a 3f
       0.5787807 -0.022831757 -0.43045244 0.7291275
000270 55 7e 2f be 7d 07 5e bf fb 25 e7 be 1e ff 7b be
       -0.17138036 -0.86730176 -0.45146164 -0.24609038
000280 5e a3 09 3f 32 89 23 3e 27 8f 03 3e 62 ac f8 bd
       0.53764904 0.15970305 0.12847577 -0.121422544
000290 36 15 4c be 4c 74 f9 bc 26 e8 74 3e cb 24 06 3e
       -0.19929966 -0.030450962 0.23916683 0.13099973
0002a0 df 16 89 3e 3b 35 aa 3e dc 1b ec be dd 67 7c bf
       0.26775262 0.33243737 -0.46115005 -0.9859598
0002b0 92 05 9a be 83 61 cd 3d 9f d5 17 bf 52 18 14 3f
       -0.30082375 0.100283645 -0.59310335 0.5784961
0002c0 97 dd bd 3a d9 f0 81 3e 15 d0 0f 3f d6 b1 3b 3f
       0.0014485595 0.25379065 0.56176883 0.7331823
0002d0 06 7e 1f 3f 60 13 ab be bd 61 4c 3e 4f d9 0e bf
       0.6230167 -0.3341322 0.19959159 -0.55800337
0002e0 08 2c 3e 3f 9f db 02 3f 0a 37 a6 be 39 f8 e2 bd
       0.74285936 0.51116365 -0.32463866 -0.11082501
0002f0 ac fc a9 3d c9 40 95 bf b9 a2 b0 be c3 d3 16 3e
       0.083001465 -1.1660396 -0.34499148 0.14729218
000300 1e 27 d0 be 9d a8 46 3c b1 55 21 be a8 42 ba 3e
       -0.40654844 0.0121251615 -0.15755345 0.3637898
000310 68 e5 6d be 5d 71 e9 bd cc bc 02 3d 03 8a 4f be
       -0.23232043 -0.113985755 0.031918332 -0.20267491
000320 88 43 77 3e 22 0d 88 be ee f9 4e 3e 3d 24 14 3f
       0.24146855 -0.2657252 0.20212528 0.57867795
000330 4f 49 26 bd 0d c5 da be e6 5b 3b 3c 20 fa 65 3e
       -0.040597256 -0.42728463 0.0114354845 0.22458696
000340 28 b5 1c 3f 1d 1b f4 be 6c 07 25 3e ec 11 65 3e
       0.6121392 -0.47676936 0.16116112 0.22370118
000350 b2 cd 2c 3e a4 10 bf 3e 78 9d 22 bf 3e d6 3a 3e
       0.16875342 0.37317383 -0.6352153 0.1824579
000360 21 91 aa be b5 c4 19 be 2e 90 63 be 1b dc 83 be
       -0.3331385 -0.15016444 -0.22222969 -0.25753865
000370 01 14 86 3e 45 c7 80 3f 9e c8 12 3f a2 39 27 3f
       0.26187137 1.0060812 0.5733737 0.65322316
000380 cc ca 9c bd 52 c3 af 3d d0 12 9a bd 58 c0 0d 3e
       -0.07655868 0.08582176 -0.075231194 0.13842905
000390 cc 4f ec bd 9b 68 85 bd 72 48 1e 3c 4c 80 40 bc
       -0.115386575 -0.065140925 0.009660827 -0.011749338
0003a0 9e c7 e2 3e d6 79 ab 3e 38 76 bc be 77 a3 7d be
       0.4429292 0.3349139 -0.36808944 -0.24769388
0003b0 f4 17 13 3f 55 e2 f2 be 78 39 cc 3c aa 4e f2 bd
       0.57458425 -0.47438303 0.024929747 -0.1183141
0003c0 3f 67 10 be 99 6f b0 3d ff a3 cc be d5 5e 82 be
       -0.14101885 0.086150356 -0.3996887 -0.25462976
0003d0 6a f7 8f be e6 e2 f8 bd d6 db cb be 5a 32 1e bd
       -0.2811845 -0.121526524 -0.3981616 -0.038622238
0003e0 8b 26 e9 3e 9d 92 ca 3e 0b 85 99 be 03 79 bd bd
       0.45537218 0.39564982 -0.29984316 -0.09251597
0003f0 1b 14 07 3f a4 a5 4c 3f 7a a7 9d be 4c 56 62 be
       0.52765054 0.7994025 -0.30791837 -0.22103232

backbone.node_encoder.0.fc.0.bias f4 [32]
000000 fb e5 eb bd 91 2c 4c 3f 27 2f 77 be f6 2d 20 bf
       -0.11518475 0.797555 -0.24139081 -0.6257013
000010 5f 50 bd 3e e1 08 c1 3e 60 26 83 bd 11 8e 48 3f
       0.3697538 0.37702087 -0.06403804 0.78341776
000020 d6 dd 0e 3e 8b 5e 16 3e 98 f0 cb 3e 53 b3 71 3f
       0.13951811 0.14684503 0.39831996 0.9441425
000030 bf d7 95 be 47 30 b0 bd 15 46 27 bf 74 53 8a 3f
       -0.29266164 -0.08602958 -0.6534131 1.0806718
000040 b3 df 46 bf 61 53 10 be 26 b7 82 3e 60 0d ce 3d
       -0.7768509 -0.14094307 0.25530356 0.10061145
000050 24 11 f7 3d b5 33 80 bf c0 85 1d bf 27 6a dc bf
       0.12063816 -1.001578 -0.6153221 -1.7219895
000060 e1 59 7d be 3b b7 a2 bd 9f e4 3d 3f bf fc bd be
       -0.24741317 -0.07945105 0.74176973 -0.37106892
000070 e7 a6 9f 3d 42 39 84 b9 56 70 21 bf bc 69 6c be
       0.07795506 -0.00025219662 -0.63062036 -0.2308721

backbone.node_encoder.0.gate.0.weight f4 [1, 32]
000000 2e 5b ab bd 67 b8 b9 3d 50 b1 a5 be d8 fd 50 3c
       -0.083670005 0.09068375 -0.3236184 0.012755834
000010 3f 76 22 be 04 4f 19 be a3 71 f7 3c 0c e9 11 bf
       -0.1586542 -0.14971548 0.030205553 -0.56996226
000020 65 e7 9b be 35 66 9b be 1e 98 25 bd 18 b5 f8 3d
       -0.30449978 -0.30351415 -0.040428273 0.12143916
000030 c4 05 15 bd e2 0a 83 3e 4e 69 4d bc 37 15 01 3d
       -0.03638245 0.2559424 -0.012537314 0.031514373
000040 6e 35 f8 3c b3 12 5e 3e e3 11 39 be a3 7c 34 3e
       0.030298915 0.2168682 -0.1807323 0.1762567
000050 c4 7c fc bb 70 c5 9a 3d 2b 5d 1f 3d 4a 87 74 3e
       -0.007705303 0.075571895 0.03890721 0.23879734
000060 3f 58 aa bd 31 ac 28 3e c4 50 12 be e2 59 25 3e
       -0.08317613 0.16471936 -0.14288622 0.16147569
000070 01 9a fb bd 02 f5 64 3e d7 d9 73 bd 47 6a 27 3e
       -0.12285233 0.22359088 -0.05953392 0.16349135

backbone.node_encoder.1.gat_layer.fc.0.weight f4 [4, 4]
000000 52 4b 0b be 27 84 26 3c 3c e6 45 be a5 58 ae 3b
       -0.13602951 0.0101633435 -0.19326109 0.005320626
000010 59 9e df 3d 3b df f9 bd 40 9c 7b bd 02 4c a1 3e
       0.10918874 -0.12200781 -0.06142831 0.31503302
000020 1d 07 b3 be 40 6c b1 3d f2 df 26 be 33 44 da be
       -0.34966365 0.08663225 -0.16296366 -0.42630157
000030 8a cf e3 3d f9 a2 5d 3e ec 02 f0 bd 3c fb 65 be
       0.11123569 0.216442 -0.11719307 -0.2245912

backbone.node_encoder.1.gat_layer.fc.0.bias f4 [4]
000000 a9 a9 97 3d 39 32 55 3d 4b 07 8a be d3 00 a2 3d
       0.07405407 0.05204985 -0.2695869 0.079103135

backbone.node_encoder.1.gat_layer.att_layer.weight f4 [1, 8]
000000 3b ba 9e bf 50 4b b4 3f e0 93 44 be f5 06 ca bf
       -1.2400583 1.4085484 -0.19197035 -1.5783373
000010 c3 b8 b7 3f 2b e3 9b bf ee 44 df 3d 00 bb c5 3f
       1.435326 -1.2178701 0.10901819 1.5447693

backbone.node_encoder.1.fc.0.weight f4 [32, 32]
000000 d3 e2 8f 3e 2e 6d 07 3e a7 80 b3 3e c7 fd d1 3d
       0.2810274 0.13225242 0.3505909 0.10253482
000010 bd 8b 3c be 79 16 07 3f 88 17 0d be 38 8d e9 3d
       -0.18412681 0.52768666 -0.13778508 0.114038885
000020 f6 84 b9 3e f6 2d 18 be 90 22 50 3e 5b d6 f0 3e
       0.36234254 -0.14861283 0.20325685 0.4703854
000030 cb fd 19 3d 25 c1 08 bd aa b6 2e 3c 6c 01 85 3e
       0.03759555 -0.033387322 0.010663668 0.25977647
000040 41 cb c1 3e c3 98 31 bd 4f c6 11 bf fc fe 54 3f
       0.37850383 -0.043358576 -0.5694322 0.83201575
000050 d1 22 db 3e 51 42 64 be 0d df 1c bf 71 bf f6 3e
       0.428 -0.22290923 -0.6127785 0.48192933
000060 5c bd 06 3f b9 dc 63 3c 95 e8 12 bf 65 c7 c9 3e
       0.5263269 0.013907605 -0.5738614 0.39409938
000070 6f c1 df 3e 0f f8 e4 3e 40 55 16 3d 0d 11 d5 3d
       0.43702266 0.44720504 0.036702394 0.10403643
000080 df b4 0a bf b6 f0 55 3e 77 13 cc 3e 09 e0 01 be
       -0.5418224 0.20892605 0.398586 -0.12683119
000090 a9 8b b1 3d 7c a6 2b be 9f 71 60 bf b7 bf 2e bf
       0.08669216 -0.16762727 -0.8767337 -0.68261284
0000a0 2e 89 2a 3d 29 e4 92 be 54 c7 67 be 47 5e 9c bf
       0.04163473 -0.28689697 -0.22634631 -1.2216271
0000b0 05 37 ee be 16 03 23 3f 54 dc 8d 3b 23 f4 be be
       -0.46526352 0.63676584 0.0043292437 -0.37295637
0000c0 1e 8b 54 bf c6 cd 11 3f b0 91 8c 3f 30 2b 01 bf
       -0.83024776 0.5695461 1.098196 -0.50456524
0000d0 b3 a3 81 3f 4b a9 eb be ee fb fc 3e 1f 70 80 be
       1.0128082 -0.46027598 0.49410957 -0.25085542
0000e0 86 41 89 bd 66 c7 f7 be 58 01 6d 3e a2 1b 9f be
       -0.06701951 -0.48394316 0.23145044 -0.3107577
0000f0 f3 8e ac 3e f4 66 73 be 66 b1 6e 3a cd 6f f9 bc
       0.33702812 -0.23769742 0.0009105414 -0.030448819
000100 53 8e 4b bf bf 13 25 bf 69 1d a6 be df 44 1a bf
       -0.79514045 -0.64483255 -0.32444313 -0.6026134
000110 41 b8 1c be d6 98 02 3e 66 00 3a 3f 9e 21 6f 3e
       -0.15304662 0.12753615 0.7265686 0.23352668
000120 fd f9 17 3d 5f 07 97 be 41 b1 0c 3f f0 ff 1f 3e
       0.03710364 -0.2949781 0.5495797 0.15624976
000130 10 50 0f be c9 8f 23 3e 68 87 cf bd d1 3d b1 3e
       -0.13995385 0.15972818 -0.101332486 0.34617475
000140 b0 fd 1e bf 74 91 36 3d 4f 51 89 3f 1e 8d c0 bc
       -0.62105846 0.04457231 1.0727938 -0.02350479
000150 57 13 01 3f 2b f2 d3 3e 28 1f 80 3e 42 ee e6 3e
       0.50420135 0.41395697 0.2502377 0.4510365
000160 b0 9d 23 3f b2 ea 8a 3c bc 71 e5 3e 04 eb 48 3f
       0.6391249 0.016957615 0.44813335 0.78483605
000170 90 8f b4 be 1a f9 af 3c 6a e8 36 3f 5b 82 1b bf
       -0.3526578 0.021481086 0.71448386 -0.6074578
000180 23 3f b8 3e a6 c0 e0 3d 41 e6 5d 3f 61 de 43 3e
       0.3598567 0.10974245 0.86679465 0.191278
000190 9a 71 e2 3d 92 1b 55 3e 7a f8 fa bd 95 d6 2c bf
       0.11056824 0.20811298 -0.122544244 -0.67514926
0001a0 8c dd c3 be 0d 76 19 bf 7a 95 41 3e c4 77 99 bd
       -0.38254964 -0.59945756 0.18904677 -0.074935466
0001b0 0d 87 fd 3e 11 b6 60 3e 56 46 72 be d8 56 08 bf
       0.49517098 0.21944453 -0.23659644 -0.53257513
0001c0 b9 de 0f 3f 11 d7 dc 3d 74 d4 9c be 33 3c e5 bc
       0.5619922 0.10783208 -0.3063084 -0.027982807
0001d0 ab a4 db bd 4c 70 31 3f 41 80 db be f1 1a 0c 3d
       -0.10724767 0.69311976 -0.42871287 0.03420538
0001e0 30 62 4a bf 84 c3 2c 3f 15 4f d1 3d f3 11 df be
       -0.7905607 0.67485833 0.10220162 -0.43568382
0001f0 e7 51 0e bf 08 0c 15 bf a3 ae 0e 3e 0d 55 02 be
       -0.55593723 -0.58221483 0.13933806 -0.12727757
000200 62 be 81 be a0 89 89 bf 7d 7c 5f bf 92 b2 06 c0
       -0.25340563 -1.0745125 -0.8729933 -2.104649
000210 ce 1b 0c 3f 2a b4 2d be 01 36 f7 3d d4 3e e1 3e
       0.54729927 -0.16963258 0.12070847 0.43993247
000220 60 a2 e3 bc 8c 82 0f 3e f4 cb 5e 3e 75 8b 82 bd
       -0.027787387 0.14014643 0.2175749 -0.063742556
000230 9f e3 05 bf de 60 63 3e b4 31 dd be 94 c3 18 3d
       -0.5230045 0.2220492 -0.43201983 0.037295893
000240 a3 ba 17 be ed c0 3f bf bf 8b 02 3f 10 29 ca be
       -0.1481729 -0.74903756 0.50994486 -0.39484453
000250 6a 95 bc be 52 2c c2 3d 67 c9 01 bf 2a 69 0c bf
       -0.36832744 0.0948111 -0.5069794 -0.5484797
000260 8e 85 bc bd 62 9a 90 be 5e b1 6d be 99 22 06 be
       -0.09205161 -0.28242785 -0.23212191 -0.13099135
000270 3d 1d 05 3f 8c 1c cc be 1c 82 29 be 55 e5 80 3f
       0.5199774 -0.3986553 -0.16553539 1.0069987
000280 fd 9a b0 bd 7d b0 35 be e8 96 db bd 6c f4 c5 3e
       -0.08623312 -0.17743106 -0.107221425 0.38663042
000290 3d 5e 03 3f 99 16 16 3e 66 af 00 3e 6f 58 0f 3e
       0.5131567 0.14657058 0.12566909 0.13998578
0002a0 9c 6d 03 3f de 88 92 3d 8c f9 ff be 8d cb a1 3e
       0.51339126 0.071550116 -0.49995077 0.3160061
0002b0 06 09 61 3f cc 34 f6 bd 25 c8 93 bd bd d7 9d 3e
       0.87904394 -0.12021789 -0.07215909 0.30828658
0002c0 fe 0b d4 3e 8b 5c 02 bf 2c 88 59 bc 6b 50 1b bf
       0.414154 -0.5092246 -0.013277095 -0.60669583
0002d0 04 8f a7 be 2c f5 ac 3e a6 2f ef be 67 37 d9 be
       -0.327263 0.337808 -0.4671604 -0.4242508
0002e0 ba cb 5f be 58 de db bd 86 1b 01 bf c5 e1 3b bf
       -0.2185506 -0.10735768 -0.5043262 -0.7339137
0002f0 bb 58 ed be 81 9c 88 3e 85 46 62 3f 81 aa 5e bf
       -0.46356758 0.26681903 0.88388854 -0.8697892
000300 3b b8 55 be 98 47 eb be 04 dd 61 3f e7 91 06 3f
       -0.2087106 -0.4595306 0.8822787 0.5256638
000310 39 eb 6c 3f 6d 47 0c 3f 81 19 2c bd cf d6 b5 bc
       0.9254642 0.5479649 -0.04201651 -0.022197155
000320 9f 9e e6 bd 15 fb c7 be 54 d7 e8 3e 47 09 b5 3e
       -0.11260723 -0.39058748 0.45476782 0.3535864
000330 d1 18 04 be e2 08 79 bb 51 5d 19 bf a8 78 a9 3e
       -0.12900092 -0.003799968 -0.59908015 0.33099866
000340 2c 7c 92 3e ce e0 20 3e 44 9f 1d bd 7b a4 f1 3e
       0.2861036 0.15710756 -0.038481966 0.471958
000350 b1 63 70 3f 2e 0f e8 3d 4c 90 6a be 35 3a 5d be
       0.93902117 0.1133102 -0.22906607 -0.21604235
000360 0b cd 5e bd 01 8e e3 3b a4 2f 2c 3c a9 90 82 3e
       -0.054394763 0.0069444184 0.010509405 0.25500992
000370 df f5 2f be 9a 67 f8 be 80 25 69 bf 42 b2 fe bd
       -0.17183636 -0.48516542 -0.91072845 -0.12436344
000380 12 5f 29 be 07 cc c2 3e 39 4d 13 3f bd 27 5f bf
       -0.16540173 0.38046286 0.5753971 -0.8717001
000390 8a 0a 90 be 14 78 1c be 35 36 31 be ed e3 c5 3e
       -0.2813304 -0.15280181 -0.17305835 0.38650456
0003a0 8d b2 9c be a5 b6 0a bf 9f 65 88 bd 5b 07 8a be
       -0.30604973 -0.54184943 -0.06660008 -0.26958737
0003b0 b6 6d f2 3e 7b a8 84 bd 7e 54 b0 be 78 e0 68 3e
       0.47349328 -0.064774476 -0.34439462 0.22741878
0003c0 86 5d b4 3e bc c6 a5 be 6e 40 82 3f 64 1c b2 be
       0.35227603 -0.32378185 1.0175912 -0.34787285
0003d0 87 5f 03 3f aa 24 de be 85 c5 9b 3d b7 03 ed 3d
       0.5131764 -0.43387347 0.07606033 0.11572974
0003e0 7d 7f f1 be 7d 22 0e bf 73 4c c9 3d a7 a3 50 3e
       -0.47167578 -0.55521375 0.09829035 0.20374928
0003f0 1f 31 b6 be b3 4c bd be f7 59 3f 3e cf 21 19 3f
       -0.3558435 -0.3697258 0.18686663 0.5981721
