model_parameter/tbc/GraphWave_final.pth (torch, 252994 bytes, 75 tensors)

embedding.vehicle_embedding.weight f4 [32, 4]
000000 eb 2e b4 3d 25 bc 56 3d e7 9d ea 3d 20 70 ce 3c
       0.087980114 0.052425522 0.11455899 0.02519995
000010 18 52 0f 3d df dc 1e bc b4 0d 9a 3c b6 ef 01 bd
       0.0349904 -0.009696214 0.018805362 -0.031722747
000020 a2 4d b5 3c 62 79 97 3a fa b4 83 3b 0e 58 fb 3b
       0.022131745 0.0011556561 0.004019377 0.007670409
000030 47 dc e2 3c 86 18 e2 bb 48 a5 af 3c 24 a1 05 bc
       0.027692927 -0.006899896 0.021441117 -0.008156095
000040 ba 08 1e bc f9 6c 0f 3c de de 97 3b 27 99 3a 3b
       -0.009645635 0.008754008 0.004634722 0.0028472634
000050 98 0f 49 3d 6f 6e 39 bd 4b fd 1c 3d cb c5 b5 bc
       0.049087137 -0.045271333 0.038327496 -0.022189042
000060 ba b2 18 3e 53 25 30 bd 73 22 bd 3d 30 13 12 be
       0.14911929 -0.043004345 0.09235086 -0.14265132
000070 7b d0 35 bc b0 12 46 bd 7b e7 b1 3c 3e 9c f9 bc
       -0.011097069 -0.048357666 0.021716824 -0.03047001
000080 99 32 42 be 11 90 77 bd 87 fb 71 bd e6 05 cf 3b
       -0.18964614 -0.060440127 -0.059077766 0.006317842
000090 60 ac 87 bd 43 54 69 3d 28 e8 90 bc 15 a7 44 3d
       -0.06624675 0.056965124 -0.017688826 0.048010904
0000a0 44 01 d6 bc 37 d5 98 3d 53 a6 45 3d 0e e5 0f bd
       -0.02612365 0.074625425 0.048254322 -0.035130553
0000b0 c6 d8 e4 3c ce 93 f1 3a ae fe 41 bb 73 19 cd bc
       0.027935397 0.001843089 -0.0029601264 -0.02503655
0000c0 ee fe 15 3d 82 b1 3d bd c6 27 35 bd 78 ec 91 bc
       0.036620073 -0.046311863 -0.044227384 -0.017812952
0000d0 9e 40 c0 bd 7e 14 76 3e 6d f7 95 be 84 63 e5 3d
       -0.09387325 0.24031255 -0.29290333 0.11200622
0000e0 ba b5 10 3e cb a9 57 3c a4 c3 8c 3d 2a 0e 70 bd
       0.14131823 0.01316304 0.06873253 -0.058607258
0000f0 48 d9 94 3d 4e c2 94 bc 02 98 25 be a1 76 86 3e
       0.072680056 -0.018159058 -0.16171268 0.26262382
000100 b2 66 93 3e 80 69 0e 3e c5 4b 5c 3e 79 1c 53 be
       0.28789288 0.13907433 0.21513279 -0.2061633
000110 a2 95 5f 3e fd b4 d4 3c b5 f1 4c 3e 2c 02 16 bd
       0.21834424 0.025965208 0.20014079 -0.036623165
000120 3a cb e4 bd 16 23 78 3d 7a 12 f7 3d 42 7c 94 3d
       -0.11171575 0.060580336 0.12064071 0.07250263
000130 22 b0 57 3e ed 46 3d be 72 2c d3 3c 7c c0 05 bf
       0.21063283 -0.18484087 0.02577803 -0.5224683
000140 25 ec b3 3e ce eb 7b be 3c ae ac be c1 64 44 3e
       0.351411 -0.24601671 -0.3372668 0.1917906
000150 8d e9 aa 3e 94 ac cc be c6 9e 18 3f 56 53 ab 3e
       0.3338131 -0.39975417 0.5961727 0.33462018
000160 ba 6b b1 3b 99 4c 54 3c 4e 0b b4 bb b7 2c af 3b
       0.0054144533 0.012957715 -0.0054945117 0.0053459066
000170 88 f6 c5 bd 9f 3b f1 3e 18 d1 d7 3e 0a 0b 44 3f
       -0.09666163 0.471158 0.42151713 0.76579344
000180 f0 e2 7f be b8 f6 d9 bd fd ff 56 bd 09 a3 68 bc
       -0.24988914 -0.10642761 -0.052490223 -0.014199027
000190 ce ec e3 3c eb 10 d6 be 56 9c 4b be 14 db 37 be
       0.027822878 -0.41809782 -0.19883856 -0.17954665
0001a0 c6 31 3d 3e 3e 0b e7 be c9 5d b5 3e 95 29 fe 3e
       0.18476018 -0.45125765 0.35423115 0.496411
0001b0 0a 31 18 be bc b1 3f bd 02 20 aa 3e 27 7e a1 3d
       -0.14862457 -0.04680036 0.33227545 0.0788539
0001c0 1d a6 07 3e 0e 3b 96 3e 31 fe b2 be 71 1e 36 3e
       0.13246961 0.2934193 -0.34959558 0.1778505
0001d0 02 bb 82 3e 51 02 f4 bc ae c7 c6 3e ee aa 78 be
       0.255333 -0.02978626 0.3882422 -0.24283955
0001e0 a2 02 b1 3e 41 33 d7 3e d3 2b 55 3d 2b 54 c7 3e
       0.3457232 0.4203129 0.052043747 0.38931403
0001f0 f6 07 ed be b6 8f 5c be e3 46 1f bf 99 79 41 3e
       -0.46295136 -0.21539196 -0.6221754 0.18894042

embedding.vehicle_embedding.bias f4 [32]
000000 61 34 54 bc ba ee 07 3d fc c3 63 ba b6 a6 bd bc
       -0.012951941 0.03318665 -0.0008688567 -0.023150783
000010 aa 15 92 bd 94 93 16 be 69 7d b4 be 70 90 74 3e
       -0.07133038 -0.14704734 -0.3525193 0.23883224
000020 94 1b 40 bf ba 00 d6 be c9 b9 1f bf f3 4f 49 bf
       -0.7504208 -0.4179743 -0.6239286 -0.7863762
000030 9d fc cd be 85 32 38 bf 66 ac 5c be 40 45 3e bf
       -0.4023179 -0.71952087 -0.2155014 -0.7432442
000040 a5 21 8c bc cc 0f 7b bf a7 0d 66 bd d2 17 43 bf
       -0.017105887 -0.9807098 -0.056165364 -0.7620822
000050 ce f8 c9 bb a4 f7 a0 be e0 c6 a6 bc e2 df 2c bf
       -0.006163693 -0.31438935 -0.020358503 -0.6752912
000060 5b 90 0e bd fd 10 8b bf ce f4 fb be 2d 26 68 bf
       -0.034805637 -1.086456 -0.4921021 -0.9068325
000070 ab 4c f8 bd ec 7d 56 bf df ec 07 be 14 07 52 bf
       -0.12123998 -0.8378589 -0.13273953 -0.8204205

embedding.bridge_embedding.weight f4 [32, 6]
000000 82 b3 ab 3e 39 a6 cc be 1c 2b bb be a0 33 a6 3e
       0.3353539 -0.39970568 -0.36556327 0.32461262
000010 f8 b9 84 be 63 c0 24 be ec bc 15 3e f0 d9 c5 bd
       -0.25923133 -0.16089015 0.14622849 -0.09660709
000020 a6 d3 9d 3e 78 62 64 3e 5b ad a3 be ee e5 b0 be
       0.30825537 0.22303188 -0.31968197 -0.34550422
000030 cc 4a 29 be 98 a8 d1 3d 40 e2 49 3d 5a 10 13 be
       -0.16532439 0.10237235 0.049288034 -0.14361706
000040 48 ff 26 3e 00 53 7f 3b 50 ca a9 3c d1 7d 4d be
       0.1630832 0.0038959384 0.020726353 -0.20067526
000050 00 ac 43 bb 44 80 54 3e 0f aa 9a be 90 6c 39 be
       -0.0029857159 0.20752054 -0.3020787 -0.1810782
000060 9e 5a c5 be f4 c3 59 be 14 21 ba be 30 34 bb 3c
       -0.38545698 -0.21266156 -0.36353362 0.022852033
000070 e6 f2 92 3e 18 c9 1a 3e fc 8f 45 3e 60 95 b4 bd
       0.28700942 0.15115774 0.19293207 -0.088175535
000080 b8 f3 d3 bd 0a 2b 58 be 8e ec ad 3e 6f 04 58 be
       -0.1034922 -0.21110168 0.3396954 -0.21095441
000090 b8 7d c7 bd a0 94 32 3d a6 7f b6 be 45 18 c3 be
       -0.09740776 0.04359877 -0.35644263 -0.38104454
0000a0 d2 d9 96 3e 00 09 81 bd 64 c7 b0 3e 3a cf 23 be
       0.2946306 -0.06300545 0.34527123 -0.1599702
0000b0 80 b3 c4 3b 60 52 55 3e c4 11 a8 be 70 2b 3d 3d
       0.0060028434 0.20832205 -0.32826054 0.046184003
0000c0 d0 09 94 bd 14 bf cd be a4 85 b9 3e 90 2a d1 bd
       -0.07228434 -0.40184844 0.36234772 -0.10213196
0000d0 8b b1 39 be ec 5e 43 3e 0c b5 b4 bd 72 14 aa be
       -0.18134134 0.19079179 -0.088235945 -0.33218724
0000e0 00 16 ad ba 04 8c 8d be 04 e3 6c 3e 10 0c 54 3d
       -0.0013205409 -0.27645886 0.23133475 0.051769316
0000f0 72 b0 c1 3e fe 68 b9 3e 3a 93 96 be 3a dc 91 3e
       0.3782993 0.36212915 -0.294092 0.28488332
000100 ad 45 55 be 85 4c 87 be 79 28 4b be d3 d0 cb be
       -0.2082736 -0.26425567 -0.19839658 -0.39807758
000110 00 5a aa 3e 00 0e 23 3a 3c ad 6e be e0 91 d7 bc
       0.3327179 0.00062200427 -0.23308271 -0.026314676
000120 00 88 6d bb 68 19 5c 3e 11 a0 38 be 4e cc af 3e
       -0.0036244392 0.21494067 -0.1802981 0.3433556
000130 43 62 b6 be 08 96 53 3e a8 54 d6 bd 4a 7a c7 be
       -0.35621843 0.20662701 -0.10465366 -0.38960487
000140 b8 26 9b be 00 f6 f4 bd 54 d1 bf bd f2 7c a2 be
       -0.30302978 -0.11960983 -0.09366098 -0.3173595
000150 84 90 43 3e 00 62 93 3c 4e 2a ad 3e 88 d9 0b 3d
       0.19098097 0.017991066 0.33821338 0.034143
000160 08 f9 20 3e b0 20 30 3e 8c 5e 94 be df d5 c4 be
       0.15719998 0.1719997 -0.28978384 -0.3844442
000170 08 47 2c 3e 4a c4 8a be a2 ff 1d be c6 4b a5 be
       0.16823971 -0.27102882 -0.15429547 -0.32284373
000180 9a e4 a4 3e 53 a2 92 be 88 b2 04 bd 90 8b ef 3c
       0.3220566 -0.2863947 -0.032396823 0.029241353
000190 6e 12 85 3e f0 86 21 3e 68 f2 b3 be 02 30 a4 3e
       0.25990623 0.15774131 -0.3514588 0.32067877
0001a0 70 ea 5d 3e f6 e4 91 be a4 e8 96 be 00 72 f8 bc
       0.21671462 -0.28494996 -0.29474366 -0.030327797
0001b0 69 b5 c4 be 44 c3 cd be e2 2d aa 3e 92 a6 b6 3e
       -0.38419655 -0.40188038 0.3323813 0.35673958
0001c0 00 cf 88 3c 04 ec 84 3e 20 68 66 bc 64 d5 ae 3d
       0.016700268 0.25961316 -0.014062911 0.08536795
0001d0 8b 6a 2c be b0 4a 51 3e 18 58 8a be b8 61 9b be
       -0.16837518 0.20438647 -0.27020335 -0.3034799
0001e0 c0 d3 1c be 20 42 51 3c 08 62 bf be cc 55 08 3e
       -0.15315151 0.012772113 -0.3737948 0.13313979
0001f0 6c 1f eb bd 88 24 e3 3d 94 b2 96 bd a4 84 0e 3e
       -0.114806026 0.11090952 -0.0735828 0.13917786
000200 2e be ca 3e 6a e4 85 3e 44 94 54 3e db 4c 67 be
       0.3959822 0.2615083 0.20759684 -0.22587912
000210 38 19 da 3d 74 fa 1b 3e 00 be ff 3d 8c a4 4c 3e
       0.10649341 0.15232259 0.124874115 0.19984645
000220 0c 64 89 3e db 0a 6e be 9c 20 8f be 70 52 b1 be
       0.26834142 -0.23246329 -0.27954566 -0.34633207
000230 38 ca 0e 3e f0 4a 8b 3e 78 68 6a bd 58 b6 e3 3d
       0.13944328 0.2720561 -0.057228535 0.11118764
000240 90 2a c4 3e f7 25 a7 be b0 81 98 3c ee 0c 59 be
       0.38313723 -0.32646152 0.018616527 -0.21196339
000250 e0 22 8e 3e 20 92 4a bc 2a 56 8d 3e 44 e6 0b 3e
       0.27760983 -0.0123639405 0.276048 0.13662058
000260 20 c0 14 bd 24 c3 9e be 2e 89 c9 3e 88 48 2f 3e
       -0.036316037 -0.31008255 0.39362472 0.17117512
000270 08 38 a9 3e ce be c1 3e 18 3f 12 3e 75 32 a9 be
       0.3305056 0.37840885 0.14281881 -0.33046308
000280 84 c9 b1 bd 40 75 f8 3d fc b6 2b 3e c0 e3 b3 be
       -0.08681014 0.12131739 0.16769022 -0.35134697
000290 78 c7 6d bd 60 53 8c be 44 d8 be be 08 e5 41 bd
       -0.058051556 -0.2740736 -0.37274373 -0.04733756
0002a0 f8 8b 25 3e 9c d4 95 3e 1e 01 99 be f4 d6 c9 be
       0.16166675 0.2926377 -0.29883665 -0.3942181
0002b0 00 a1 48 3d e6 de b6 be 58 23 fc bd b0 c1 d0 3d
       0.048981667 -0.35716933 -0.12311429 0.10193193
0002c0 ac 3f a8 be 60 03 38 3d 6c 66 08 be 74 9b a0 3e
       -0.32861078 0.044925094 -0.13320321 0.313686
0002d0 00 17 8b 3c 44 f2 8b be d0 2b 1a bd f0 d7 ee 3c
       0.01697874 -0.27333272 -0.03763944 0.029155701
0002e0 e8 f8 20 3e cc 4f 0b 3e 3c 20 06 be 84 4c a6 be
       0.1571995 0.13604659 -0.13098234 -0.32480252
0002f0 e8 e7 c8 3d a0 af a5 3e 0c c2 b4 3e 73 e5 a4 be
       0.098098576 0.32360554 0.35304296 -0.32206306

embedding.bridge_embedding.bias f4 [32]
000000 ca 4a a7 3e 9c 7e a3 3e 2a bd 16 be 86 68 97 3e
       0.32674247 0.31932533 -0.14720598 0.29571933
000010 da 5b 19 be 40 96 7a bc 38 48 01 be d2 71 ba be
       -0.14976445 -0.015294611 -0.12625206 -0.36414963
000020 24 5e c7 3e bc fa 3e 3e ea 82 9d be 20 dc db bd
       0.3893901 0.18650335 -0.30763942 -0.10735345
000030 bd 2d 8d be b8 aa 8e 3e e0 58 bf 3e 42 c3 87 3e
       -0.27573958 0.27864623 0.37372494 0.26516157
000040 88 65 98 3d 3c f8 bb be 04 23 8e be c8 bc a9 3e
       0.074412405 -0.36712825 -0.2776109 0.3315184
000050 c8 c7 02 3d 98 00 b8 3e ee 85 d0 be 84 2f 79 3e
       0.031928807 0.35937953 -0.4072718 0.24334532
000060 30 07 f2 3d 00 25 a6 bb 90 39 09 be 90 50 20 be
       0.11817777 -0.0050703287 -0.13400865 -0.15655732
000070 0e 1d af 3e c2 f6 cb 3e d0 38 38 3e 24 8d 0c be
       0.34201854 0.398367 0.17990422 -0.13725716

embedding.pier_embedding.weight f4 [32, 3]
000000 20 1c 4d 3f 42 8d 86 bf ab 07 fb 3f e0 cd 27 be
       0.8012104 -1.0511858 1.9611715 -0.16387129
000010 a5 28 5c 3e c0 8d 8f be f9 75 a3 3e 8d 77 00 3f
       0.2149988 -0.28037834 0.31925943 0.5018242
000020 d4 c0 15 3f 5b 76 30 3d d8 26 ad be 33 46 ec 3e
       0.5849736 0.043081623 -0.33818698 0.46147308
000030 0e a3 29 be ee 04 58 be c9 21 73 3d a3 23 97 bd
       -0.16566107 -0.2109563 0.059358392 -0.07379844
000040 70 70 8b bf 80 2b c9 3e 43 cb a2 3e 06 d5 e8 bf
       -1.0893688 0.39291 0.317957 -1.819001
000050 0c d4 68 3f 73 5f 35 3d a5 0d 3a be 4d c8 dc 3e
       0.9094856 0.04428048 -0.18169267 0.43121567
000060 61 98 87 3f bc 79 91 3f 70 dd 90 bd 07 be 37 bf
       1.0593377 1.1365275 -0.07073486 -0.71774334
000070 fe fd 11 3f 77 ea 56 be be 22 8e be 67 27 28 c0
       0.57028186 -0.20987879 -0.2776088 -2.627405
000080 8e e6 d0 3f 76 18 40 be ce da 4a 3f bf 54 d8 3e
       1.632036 -0.18759331 0.7924012 0.42252156
000090 c4 85 ec bf f7 86 4d 3f 25 9c 7b 3f 2c ef 8b be
       -1.8478322 0.80284065 0.9828513 -0.2733091
0000a0 d6 5e 08 c0 69 66 02 be b9 20 bb 3e 98 93 25 bf
       -2.1307883 -0.12734379 0.36548403 -0.64678335
0000b0 ee 52 47 3f e5 87 88 3f df ee 1c bf 8e 35 09 40
       0.77860916 1.0666472 -0.6130199 2.1438937
0000c0 55 5d 8e bf 71 9a fa bd 2c 4a 8e 3f ed 6f d0 3f
       -1.1122233 -0.122364886 1.1116385 1.6284157
0000d0 ee da 97 3f 5d a1 84 3f 79 86 a5 bf 98 1c ca 3b
       1.1863687 1.0361744 -1.2931663 0.0061679594
0000e0 4e 4e a2 bf 54 27 03 3f 27 2f d9 3f 99 b2 ac 3f
       -1.2680147 0.51231885 1.6967515 1.3492004
0000f0 36 84 bf bf 30 51 e6 be c5 ac c7 bf 46 ef 10 bd
       -1.4962223 -0.44983816 -1.55996 -0.03538444
000100 a3 29 b7 3e 85 db 07 bf 4d 68 52 3f 55 df be be
       0.35773954 -0.53069335 0.821904 -0.37279764
000110 a5 14 f1 bf cd 67 fa be 24 03 98 3d 90 ed 37 3e
       -1.8834425 -0.4890732 0.07422474 0.17961717
000120 8e bc 0a c0 e4 a4 72 3e 69 76 6e 3f af 59 f2 bf
       -2.1677585 0.23695713 0.9314943 -1.8933619
000130 f2 92 5b bf e1 ab 46 bf 83 83 aa 3e 3a b7 d4 be
       -0.85771096 -0.77606016 0.3330346 -0.4154604
000140 30 61 ff be 4a 25 17 bf d8 55 e7 3f 60 05 f2 bf
       -0.49878836 -0.59041274 1.8073072 -1.890789
000150 cc a5 eb 3f 17 5c 26 3f 62 9c bd be b5 05 49 3f
       1.8409972 0.6498427 -0.37033373 0.78524333
000160 61 4a f9 be 78 18 aa bf da 6b a5 3f 4e f7 86 3f
       -0.4868956 -1.3288717 1.2923539 1.0544221
000170 68 1b 30 bf b3 56 19 3f 33 93 76 3f 28 8a 93 3f
       -0.6879182 0.5989792 0.9631836 1.1526537

embedding.pier_embedding.bias f4 [32]
000000 5a b7 bd bf 71 4c 1b be f5 00 c5 3e 79 68 ea 3e
       -1.482158 -0.15165879 0.38477293 0.4578283
000010 74 2d c4 3d c6 e6 04 be bd 66 1e bf 25 5d 83 3e
       0.09578982 -0.12978658 -0.61875516 0.25657
000020 5c 5c 7b bf 00 7c 6a 3f d5 5b 59 3f c2 b0 f1 be
       -0.98187804 0.9159546 0.8490575 -0.47205168
000030 42 4d f1 be 06 4e 7c bf 13 1d f6 be 8c 56 0b bf
       -0.47129256 -0.98556554 -0.48069057 -0.54428935
000040 ab 25 18 3f 9e 12 c7 be 8f 21 86 3e a2 12 09 bf
       0.59432477 -0.3888139 0.26197478 -0.53544056
000050 ec dc 53 bf 75 81 80 bf 9b e9 97 3f b9 57 97 bf
       -0.82758975 -1.0039507 1.1868166 -1.1823646
000060 a9 3e 6b be 99 f0 03 3f ab 3a e6 be 20 ff 1d 3e
       -0.22973122 0.51539 -0.44966635 0.15429354
000070 32 be 0e 3d e5 fb 25 bf b2 ba a0 3f 68 cb d0 3e
       0.034849353 -0.64837486 1.2556975 0.40780187

out.feature_out.layers.0.weight f4 [32, 32]
000000 3b 59 a8 3e c2 61 5b 3e e9 0b db 3e 94 6c 2d be
       0.32880577 0.2142401 0.42782524 -0.1693595
000010 7d 8b 99 bc 9d e4 8e bd d1 b2 5b 3d 6f d1 1b 3f
       -0.018743271 -0.06977198 0.05363733 0.60866445
000020 6f 90 da bd 1a 6b 33 be fc 99 65 3e b7 d8 9b 3d
       -0.1067208 -0.17521325 0.22422022 0.076096945
000030 3f 31 47 3e 40 74 c2 3e 15 4d 9e be dd f0 a9 3d
       0.1945238 0.37979317 -0.30918184 0.08297894
000040 61 01 ad be 04 d3 9c 3c 88 7f e1 be ff 03 b2 be
       -0.33790115 0.019143589 -0.4404261 -0.34768674
000050 0d 35 e4 bd 6c e5 db 3d b3 bb 2a 3e 55 74 3c bd
       -0.11142931 0.10737118 0.16673164 -0.04600938
000060 bf 47 85 3d 75 f4 f2 3e 3e e7 85 be 82 9f c3 bc
       0.06507825 0.4745213 -0.26152986 -0.02387977
000070 a4 4c 6c be 38 f2 fd 3e 88 72 57 be 13 ac 59 3e
       -0.23076111 0.4959886 -0.21039784 0.21257047
000080 f1 22 ec bc 3e ba 05 3e d3 01 03 3e 9f 82 6a be
       -0.028825255 0.13059327 0.12793665 -0.2290139
000090 94 79 97 3c 3e a4 0d 3f 33 92 de bc 89 e4 8a be
       0.01849059 0.5532874 -0.027169323 -0.27127483
0000a0 b6 82 8f bd ea 16 83 3e b8 34 b4 bd 48 b5 c4 bc
       -0.07007353 0.2560342 -0.08799118 -0.024012223
0000b0 2e dc da bd e7 5b 4d be 0d 32 7a be e2 65 8c bd
       -0.10686527 -0.20054589 -0.24433155 -0.0685537
0000c0 4a e0 93 be 0e a5 09 be 32 6a fd 3e a5 76 a9 be
       -0.28882056 -0.1344187 0.49495083 -0.3309833
0000d0 b8 96 04 be 3c ba f5 bb 01 a8 5a bd 0d db b7 be
       -0.1294812 -0.0074990075 -0.053382877 -0.3590931
0000e0 08 26 fb 3d 86 0b 9c be c6 d6 93 3e 7e 8f 29 3f
       0.12263113 -0.30477542 0.28874797 0.66234577
0000f0 c4 67 bc bd 4b 4f 78 be cb 75 96 3e 36 6d 81 3d
       -0.09199479 -0.24248998 0.29386744 0.063196585
000100 71 c3 a5 bd 69 92 b6 3e 3e 72 9a 3c cc 6f 67 be
       -0.08093918 0.35658577 0.018853303 -0.22601241
000110 12 b4 8e 3d 88 ea 90 be 9a 0d 54 be 5a 8a 63 3d
       0.069679394 -0.28303933 -0.20708314 0.055551864
000120 2c 15 12 3f 51 7d 98 3d 9e 89 9b be 88 62 bc 3e
       0.57063556 0.07445777 -0.3037843 0.36793923
000130 d5 53 53 3d 05 6b e1 3d 48 2c fc 3c b1 70 59 bc
       0.05159362 0.110067405 0.030782834 -0.013271497
000140 25 da 2f be ab 45 9b bd eb 7d dd 3d 39 3a b0 be
       -0.1717306 -0.075816475 0.108150326 -0.3441942
000150 13 a4 d9 be 08 a7 97 bc 5c a1 1d 3e b2 1a b8 3e
       -0.4250799 -0.018512264 0.15393585 0.35957867
000160 99 b6 f8 bd 2a d9 84 3e 6b 21 92 3e ed 0f d6 3e
       -0.12144203 0.25946933 0.2854112 0.41809025
000170 99 ee db be 55 3e db 3e 61 4c 04 be 06 77 42 3e
       -0.42955473 0.42820993 -0.12919761 0.18990716
000180 c4 db 84 be 9e d6 aa bc 73 43 d3 3e 57 4e 85 be
       -0.25948918 -0.02085429 0.41262397 -0.2603633
000190 2f d7 c7 be 06 cc a6 bd a0 43 22 3e 68 c2 32 3e
       -0.3903136 -0.08144383 0.1584611 0.17456973
0001a0 4f d0 20 3f 8a 65 0a 3f ac 41 46 bf 0a 45 09 bd
       0.62817854 0.54061186 -0.7744396 -0.033513106
0001b0 a6 74 50 be 75 3d df 3d 7f 03 14 bf 2a b0 5d be
       -0.20356998 0.10900394 -0.57817835 -0.21649233
0001c0 33 45 09 3e 03 28 41 3d ad 5d 81 3d 87 42 89 3c
       0.13405304 0.0471573 0.06316695 0.016755356
0001d0 1a 08 5d 3e 93 4e 98 bb 27 74 eb 3c a7 83 c0 3d
       0.21585122 -0.0046480387 0.02874191 0.09400111
0001e0 a2 d8 dd bc ac 41 f0 3d f4 9f e1 3b 87 5b 0d 3d
       -0.027080838 0.11731276 0.006885523 0.034511115
0001f0 9f 90 0d 3d 71 08 05 3f 82 08 12 3e f9 d0 a6 3c
       0.03456175 0.51966006 0.14261058 0.020363318
000200 0c 3d a0 3e 11 fa 30 3d f4 1b 30 3f 60 f2 aa 3d
       0.31296575 0.043207232 0.68792653 0.083470106
000210 14 c5 30 3e e9 9c b5 bd fa 3a ea 3c bc be a7 bd
       0.1726268 -0.08867819 0.028592575 -0.081906766
000220 7c ae 68 be 7d 08 fa 3d 61 22 0d 3e 0d a3 a7 bd
       -0.2272281 0.1220865 0.13782646 -0.08185396
000230 ac 31 ac be ee 83 df 3e 8e a5 7a 3e 09 71 61 3c
       -0.33631647 0.43655342 0.24477217 0.01375986
000240 c4 7e 28 3e dc 03 02 be 63 2e d0 3e a7 87 0e 3d
       0.16454607 -0.12696785 0.4066039 0.034797337
000250 91 29 35 3f f7 82 88 be 9b aa f7 3d 5e 69 f2 bd
       0.7076655 -0.26662418 0.12093087 -0.118365034
000260 86 64 2c 3e d7 fe dc 3e 3d 83 b2 bd 73 08 11 3f
       0.16835222 0.43163177 -0.08716438 0.5665352
000270 0e b0 f6 3a 35 05 04 be 1d 8c 50 3e aa b2 91 be
       0.0018820779 -0.12892611 0.20365949 -0.28456622
000280 28 1f ff be 4a 6e 2e be f1 d4 99 3d b1 f7 32 be
       -0.49828458 -0.1703426 0.075113185 -0.174773
000290 e9 d1 b0 be 51 6f 2a be 13 74 84 be 3e 97 ac 3d
       -0.3453515 -0.16644026 -0.25869808 0.08427285
0002a0 84 01 eb 3d a3 ec 79 bd 07 47 97 3c f2 2e ce 3e
       0.114748985 -0.06101669 0.018466486 0.4027019
0002b0 91 42 87 3e 71 e7 01 3f 19 3d c8 bd 68 62 7a be
       0.26417974 0.50743777 -0.097772785 -0.24451602
0002c0 68 80 cc 3e 84 97 3c be 81 4b 90 be ee 12 fb bb
       0.39941716 -0.18417174 -0.28182605 -0.0076621687
0002d0 68 ee b6 bd 11 9a 62 3d 96 da 16 bf 06 2f 02 3d
       -0.08932191 0.05532271 -0.58927286 0.031783126
0002e0 4e c4 63 be e5 d5 cb 3e 4a 81 64 3e d1 a0 1b 3e
       -0.22242853 0.39811626 0.22314945 0.15198065
0002f0 3a 46 a7 3e b8 ce df 3e fb 02 6c 3d e9 91 33 be
       0.32670766 0.437124 0.05762003 -0.17536129
000300 6a 48 0b be ab be 9d 3e 62 6d 17 bd 82 26 83 bd
       -0.13601843 0.3080953 -0.03696955 -0.06403829
000310 3a 69 cd 3d 6f af 2c 3e a0 b4 d4 bd f2 1a 87 be
       0.10029836 0.16863798 -0.10386014 -0.26387745
000320 31 74 61 be 6f 0c 74 3c 57 fa dd be 23 66 52 3e
       -0.2201698 0.0148955425 -0.43355057 0.20546775
000330 15 61 70 be fb 41 bf 3e 54 82 88 be d3 96 90 3c
       -0.23474534 0.37355027 -0.26661932 0.017650044
000340 cc 39 65 bd d8 a2 29 be 5a 7a 78 bb 50 78 61 be
       -0.055963323 -0.16566026 -0.0037914724 -0.22018552
000350 63 3c 77 bd 68 e2 69 bd 00 32 bb be e5 86 b2 3e
       -0.060360324 -0.057100683 -0.36561584 0.3486854
000360 d6 ba a6 3e d7 9e ab be f7 ec bd 3e fd cf 78 be
       0.3256442 -0.33519623 0.37094852 -0.24298091
000370 f4 56 7e be f5 b3 05 bd 9f 87 bc be c8 4b 87 be
       -0.24837857 -0.032642324 -0.3682222 -0.26425004
000380 c9 81 8b 3e fc 95 1d bf c0 91 82 3d 80 e7 10 bf
       0.27247456 -0.61556983 0.06375456 -0.5660324
000390 5a 78 93 3d e3 3a 5d be 88 dc d5 3d 63 ac 8d 3e
       0.072006896 -0.21604495 0.104424536 0.27670583
0003a0 0f 44 17 be 83 eb a8 3d 25 01 65 3e 74 55 33 3e
       -0.14772056 0.08248045 0.22363718 0.17513067
0003b0 82 f5 8b be 02 e0 32 3d 7d 2e fc 3d f9 60 ac bd
       -0.27335745 0.04367066 0.123135544 -0.084169336
0003c0 39 a3 f7 3c 3b b0 2f be 98 61 dc 3d 80 cc b1 3e
       0.030229198 -0.1715707 0.10760802 0.34726334
0003d0 4c 74 1f be fe c3 fa bd a3 25 07 3d e6 6c ac be
       -0.15571707 -0.12244414 0.032994878 -0.33676833
0003e0 e6 ef bc 3b 3a cf 1e 3e c8 ac 16 3e f9 71 1f be
       0.005765903 0.15508738 0.14714348 -0.15570821
0003f0 2c 81 24 be 22 6c d3 be 41 5e 6c be 3f a8 96 bd
       -0.160649 -0.41293436 -0.2308283 -0.07356309

out.feature_out.layers.0.bias f4 [32]
000000 74 9a 5b bf a1 c3 c0 bf e7 9d 31 c0 8e 3f d5 bf
       -0.8578255 -1.5059701 -2.7752626 -1.666002
000010 26 41 82 bf d7 65 e3 bf 6d cb ac bf 6a 8d c6 3e
       -1.0176132 -1.7765454 -1.3499581 0.38779765
000020 3c 1f ca be ca 2d d2 be 5f 4d e2 bf 4e 1e ed be
       -0.39476955 -0.4105056 -1.7679862 -0.46312183
000030 3f 46 fd bf 0c 8e f1 bf 60 5a f0 be f6 c2 93 bf
       -1.9787062 -1.8871474 -0.4694395 -1.1543872
000040 78 60 25 c0 d1 f6 ef bf 3d df a3 bf 1e 86 17 bf
       -2.584013 -1.8747197 -1.2802502 -0.5918902
000050 78 9b 3d be b9 dc 9f bf fd 56 92 be e2 22 ce be
       -0.18516338 -1.2489234 -0.28581992 -0.40260988
000060 c3 b1 25 3c ce ba 55 bf c3 78 03 c0 c1 de 54 bf
       0.0101131825 -0.83488166 -2.0542457 -0.83152395
000070 47 b4 a5 be 07 c6 f3 bf f8 3d 1d 3f 27 e4 cf be
       -0.32364103 -1.9044808 0.6142268 -0.40603754

out.feature_out.layers.2.weight f4 [32, 32]
000000 05 da e5 be 6a 5c 92 bf 85 40 8b 3e 87 8e 79 bc
       -0.44892898 -1.1434453 0.27197662 -0.015231735
000010 b8 55 00 3f d4 d5 d4 3e c2 c1 5f 3e c7 c4 aa 3e
       0.50130796 0.41569388 0.21851256 0.33353254
000020 53 d4 c5 3e a0 32 43 3e 02 c6 ff be a0 3a 76 3e
       0.38638553 0.1906228 -0.49955755 0.24045801
000030 69 e1 83 be 18 b2 04 bf 9b a1 c5 3b 8d 9b a1 be
       -0.25757912 -0.5183425 0.0060312278 -0.31563988
000040 d3 36 87 be ec b6 c8 bd e2 4f 43 3e 2b 31 b0 3e
       -0.26409015 -0.098005146 0.19073442 0.34412512
000050 e5 a5 0c 3d 8f 80 6a 3e 5d 52 45 be e1 bc 7a be
       0.034337897 0.22900604 -0.192697 -0.24486114
000060 d8 e3 ce bd 7d b2 3e bf 3b a9 8a be 4f b8 80 bd
       -0.101020515 -0.744911 -0.27082238 -0.06285154
000070 e6 25 1f bf 73 ab e2 3d 3f 64 4b 3e 2a 8e 21 be
       -0.62167203 0.110678576 0.1986246 -0.15776888
000080 37 6d e0 be f8 7a 0a 3e 10 38 a8 3c 65 6f c4 be
       -0.43833324 0.13523471 0.020534545 -0.38366237
000090 2c 40 9a bd 93 48 90 bf 9d 9c 72 bf 47 58 e2 be
       -0.07531771 -1.1272148 -0.9477022 -0.44207975
0000a0 e3 e8 8c be 0b 87 25 3e 9a e9 8f be db 6e f5 3e
       -0.27521428 0.16164796 -0.2810791 0.4793614
0000b0 a6 1c 03 bf bb e1 86 be d7 49 00 3f ab 9a d2 be
       -0.5121559 -0.26344094 0.5011267 -0.41133627
0000c0 10 85 99 be f0 1a 10 be f2 53 d6 3e 02 20 9b be
       -0.2998433 -0.14072776 0.4186092 -0.30297858
0000d0 26 0b 62 bf 0f ae e6 be e7 46 57 3d 59 7c 14 bf
       -0.8829826 -0.4505467 0.052557852 -0.5800224
0000e0 87 a4 5f 3f 0f 5a 17 bf 95 0a 21 3e 15 db 2e bf
       0.87360424 -0.59121794 0.15726693 -0.6830304
0000f0 cb 7f 69 bf 42 5a 10 3e 01 80 19 3d 86 bc cf 3d
       -0.9121062 0.1409693 0.03747559 0.1014338
000100 a2 fc 81 be d7 c0 64 bf 5c 49 2c be 97 1b 4a 3e
       -0.25388056 -0.8935675 -0.1682486 0.19737087
000110 8f d1 21 3d 9e 33 08 be 7d 50 07 be be dd 17 3e
       0.03950649 -0.1330094 -0.13214298 0.14830682
000120 d8 f0 ad 3e 67 53 9f bd 22 45 db be 03 26 0b 3c
       0.33972812 -0.077795796 -0.42826182 0.008492949
000130 0b f7 02 3e 51 e9 ca 3d 28 14 27 3d 43 8f f0 be
       0.12789552 0.09907783 0.040790707 -0.469843
000140 09 ba 31 3e cc f0 d2 be fc 51 bf 3e 0c ee 8b be
       0.17356123 -0.41199338 0.37367237 -0.27330053
000150 8c bb 1c be 7c ff e7 bd c4 4d 76 be dd f8 18 be
       -0.15305918 -0.11328027 -0.24053103 -0.14938684
000160 f5 8a 92 3e a1 44 c9 3c 63 dc 59 3e 9f 74 0c bd
       0.2862164 0.024568858 0.21275477 -0.034290906
000170 c3 fe 0d bd 10 fa 07 be f8 e8 d5 3c e0 60 4c bb
       -0.034666788 -0.13278985 0.026112065 -0.0031185672
000180 10 9e 27 3e f0 43 1a ba 59 13 ed be dc 8e 7c 3d
       0.1636889 -0.0005884757 -0.46303824 0.06165968
000190 be be 90 3d f1 47 8b be 1f a6 11 3f 6f 71 89 bd
       0.07067631 -0.27203324 0.56894106 -0.06711089
0001a0 a4 d2 ec 3d e9 9e 12 3e 99 6a 55 be 92 02 8a 3e
       0.11563614 0.14318432 -0.20841445 0.26955086
0001b0 50 07 3f 3c e9 45 2d 3e 84 0d 49 be f2 ff 80 3d
       0.011659458 0.169212 -0.19634062 0.06298818
0001c0 c7 ae b7 3d 28 2a 8b 3d 93 dc 0a 3e 50 5a cd bd
       0.08968883 0.0679515 0.13560705 -0.10026991
0001d0 f0 e7 16 bf a5 52 d7 be 1c a1 9e 3e 4e b2 07 be
       -0.5894766 -0.4205524 0.30982292 -0.13251612
0001e0 3a 18 0a bc 4d f2 07 be 82 dd 00 3d 61 6c 46 3e
       -0.008428628 -0.13276024 0.031461246 0.19377281
0001f0 78 5b d3 3d 8a a6 bf 3e d0 df 66 3d f5 23 0b be
       0.10320181 0.37431747 0.056365788 -0.13587935
000200 a0 a9 08 bf ef 71 9c bf a6 ab a3 3d 67 a9 00 3f
       -0.5338383 -1.222227 0.07991724 0.5025849
000210 9e 48 a4 be cd 39 10 3e 97 11 77 bd 6c 03 cb bd
       -0.32086653 0.14084549 -0.06031951 -0.09912762
000220 08 1f 65 3e 7e 55 69 bc a5 09 96 bf 8a ad 85 be
       0.22375119 -0.014241574 -1.1721693 -0.26108962
000230 6a bc cb be 7d a3 65 3e 7f 64 6f be e8 67 03 be
       -0.39792186 0.22425647 -0.2337818 -0.12832606
000240 66 9f 0b bc 68 03 b4 3e b1 e1 a3 be 31 b5 8d be
       -0.00852189 0.3515885 -0.32008126 -0.276773
000250 ef 44 2f bf 81 85 23 bf b1 8e d0 3e 51 9a 95 3e
       -0.6846456 -0.63875586 0.40733865 0.29219297
000260 4c cf d6 3e b8 60 ca bf 11 79 b8 3e a4 2c 9d be
       0.4195503 -1.5810766 0.36029866 -0.3069812
000270 d7 48 30 bb 40 86 8a 3e 7f 17 36 bd 16 57 38 bf
       -0.0026898885 0.2705555 -0.044456 -0.7200788
000280 f7 ba d8 3d 17 f1 af be 01 8f d2 3a e8 4e 47 be
       0.10582536 -0.34363624 0.0016064347 -0.19463694
000290 7d 0f 1d 3d d7 c8 ef bd fc 83 45 bd 12 67 ef 3d
       0.03834485 -0.11708229 -0.048221573 0.11689581
0002a0 ff 7f 24 3d 0e 78 08 bf ff 30 b4 3d 4b 4b 5a 3e
       0.04016113 -0.5330819 0.08798408 0.21317784
0002b0 b7 d9 42 3e f0 34 8c 3d a8 c5 9a be a4 da 25 3e
       0.19028364 0.068460345 -0.30228925 0.16196686
0002c0 e2 0a bb 3e 8f 3c 0b 3e cb 8f d5 bd 15 1e 13 bc
       0.3653174 0.1359732 -0.10427817 -0.00897934
0002d0 6b 2e b1 3e 91 57 8a 3b e6 08 9d 3c fc 8f 68 3e
       0.34605727 0.0042218645 0.019169282 0.22711176
0002e0 17 41 55 bd 99 95 a4 be b7 ce 39 3d 7a c6 ad 3e
       -0.052064028 -0.32145384 0.045363154 0.33940488
0002f0 e7 74 7e 3d e0 ec a1 3e 7f b4 e8 be 8d 2a c7 be
       0.062123206 0.31626034 -0.45450208 -0.3889965
000300 33 0f bc 3e fc 85 4d be 93 47 bb be 97 2e a5 be
       0.36730346 -0.20070642 -0.36578044 -0.32262108
000310 2c 76 23 be d2 c6 ba be a8 0a 01 3e 81 40 c9 bd
       -0.15963048 -0.36479813 0.12601721 -0.09826756
000320 4a 01 75 be 5e 62 3e be c1 85 1e be 20 58 db be
       -0.23926273 -0.18592212 -0.1548071 -0.42840672
000330 b3 eb e0 be 67 30 95 be 03 83 e1 bd 3c a4 e6 be
       -0.43929824 -0.2913849 -0.110113166 -0.45047176
000340 b6 5e 05 bf cf 38 21 be c3 99 58 3e 0f 64 57 bb
       -0.5209764 -0.15744327 0.21152405 -0.0032866036
000350 23 59 31 be 71 af 9e 3c d4 11 89 3e 54 0e f3 3e
       -0.17319159 0.019370766 0.26771414 0.4747187
000360 07 f4 15 bf d4 bf 13 3e 78 55 8a 3e fd fb bb 3e
       -0.5857548 0.14428645 0.27018332 0.3671569
000370 0d 19 10 bf 60 b9 8d 3e 4c cb c2 3c 93 0d 03 be
       -0.56288224 0.27680492 0.02377858 -0.12798147
000380 a1 86 33 be c5 41 c9 be 25 b4 d0 3d c6 26 c8 be
       -0.17531826 -0.3930799 0.1019061 -0.39092082
000390 6b df 38 bf fb d6 c0 bd e1 0f 4f 3e 78 94 18 be
       -0.7221591 -0.09416004 0.20220901 -0.14900386
0003a0 88 2d 1d bd 91 ca ed bd 91 e7 32 bd 90 62 e3 be
       -0.0383735 -0.11610902 -0.04367787 -0.44411135
0003b0 0b b4 9e 3d c5 2c ca bd c0 a2 53 be 26 69 ad 3e
       0.07749184 -0.0987182 -0.20667553 0.33869284
0003c0 95 5f e8 3d 76 d6 8d 3d 50 55 50 3d 7c a3 97 be
       0.11346356 0.06925671 0.05086261 -0.29616916
0003d0 88 d3 15 be bb 39 5d 3e 71 7d 7c 3e c8 95 8c be
       -0.14631474 0.21604054 0.24657227 -0.27458024
0003e0 22 92 b0 be 99 b9 83 be 4e 61 7e 3d 0c cd 1a bd
       -0.3448649 -0.25727537 0.062104516 -0.037793204
0003f0 0a 7c c9 3e 24 1d da bd de 7d b9 be 65 41 a8 bd
       0.39352447 -0.106500894 -0.36228842 -0.08215598

out.feature_out.layers.2.bias f4 [32]
000000 f9 84 a2 bf 75 22 40 3f 30 be 23 3f b6 f0 80 bf
       -1.269683 0.7505258 0.6396208 -1.0073459
000010 d9 8e 92 3f 59 80 6a 3f ee 56 95 3f ab 89 d6 3f
       1.1449844 0.91602093 1.1667154 1.6760763
000020 af 53 48 3f b1 66 90 bd 23 0a a0 bf d7 80 b8 bf
       0.7825269 -0.07050837 -1.2503093 -1.4414319
000030 99 d9 29 3f 0d 5b 83 bf f7 15 2a 3e 6f 2d 97 3f
       0.6634765 -1.0262161 0.16609941 1.181074
000040 e2 b1 10 bf 58 f4 9b 3e 3a aa 93 3e 75 59 01 bf
       -0.5652143 0.30459857 0.2884081 -0.50527126
000050 d8 f4 14 c0 a8 a9 81 3f 70 7f 11 bf 2d fb c0 bf
       -2.327444 1.01299 -0.5683508 -1.5076653
000060 3a fd e9 bf 23 a2 1f bf 72 4b 4c 3d 44 42 b4 3f
       -1.8280404 -0.62356776 0.049876638 1.4082723
000070 50 f6 00 bf c7 84 bc bc 25 13 b1 3f 87 c6 90 3e
       -0.50375843 -0.023012532 1.3833967 0.28276464

out.feature_out.layers.4.weight f4 [32, 32]
000000 8e c2 33 3e 30 c9 9a bf 92 7b f3 bd d2 c6 bb 3e
       0.17554685 -1.2092648 -0.118888035 0.36675125
000010 27 fc 3e 3e 72 a9 40 bd 2d 40 43 3d 12 d6 d0 bd
       0.18650876 -0.047036596 0.047668625 -0.10197081
000020 ac 49 03 bf dc 9d 51 37 8d 50 e1 be 50 e2 cd bf
       -0.5128429 1.2494125e-05 -0.44006768 -1.608469
000030 79 bc d1 be 11 ac 20 bf e8 f7 da bd 06 c8 0c bf
       -0.40964106 -0.6276255 -0.106918156 -0.5499271
000040 f8 48 1d bf 18 33 13 bf 50 72 a5 bf 58 b4 cb be
       -0.61439466 -0.5749984 -1.292551 -0.3978603
000050 1d bb f6 be 0d a8 30 3e 00 73 d2 3d 87 f0 2e 3e
       -0.4818963 0.17251606 0.10275841 0.17083941
000060 00 5d 19 be c6 25 65 bd a3 4c 0e bc 8a 28 74 bd
       -0.14976883 -0.055944227 -0.008685264 -0.059608974
000070 45 ab 0c 3f ba 1e d4 3c 12 ea 20 3e bc 2c c0 be
       0.54948837 0.025893558 0.1571429 -0.3753413
000080 52 34 f0 3d 67 ab 8d bc 34 21 98 be f8 e1 70 bd
       0.11728729 -0.017293645 -0.29712832 -0.05880925
000090 39 16 0b be 8c 3d e5 bd 48 38 8c be 8c 1a 3f be
       -0.13582696 -0.1119338 -0.2738669 -0.1866247
0000a0 13 2d f6 bd ec 8a 5a 3e 11 c2 4c 3e 2e 42 3f 3d
       -0.12020316 0.21342057 0.19995905 0.046693973
0000b0 1f 56 01 be a0 e5 cd 3d da 3f 9c bd 83 80 38 3e
       -0.12630509 0.10053563 -0.07629366 0.18017773
0000c0 b3 b3 cc be e7 b7 bf 3c 36 c9 80 3e e6 84 44 3e
       -0.3998085 0.023403121 0.25153512 0.19191322
0000d0 27 88 19 bd 70 db 34 3e 20 9e c7 3d 51 82 1a 3e
       -0.03748336 0.17661834 0.09746957 0.15088774
0000e0 e6 87 15 3c 7b f5 e6 bd 72 6f 14 bd 3c 26 ad 3e
       0.009126639 -0.112772904 -0.036239095 0.33818233
0000f0 4e 5c 9c 3d 81 7f 1e bd e1 8c 62 bd 5b 2c 6a bd
       0.07634793 -0.038695816 -0.055310134 -0.057171207
000100 d7 f3 db 3e 13 83 bb bd 17 7e e9 bd 12 a7 0a 3e
       0.42959473 -0.0915586 -0.11401003 0.13540295
000110 88 8e ae be bd 40 ba 3d d9 08 69 bd d4 55 9a be
       -0.34093118 0.09094379 -0.056893203 -0.30143607
000120 fa b6 43 bf 0d 27 ef 3d 59 0d 1d 3e 2f 33 b4 3e
       -0.76451075 0.1167737 0.15337123 0.351953
000130 c0 ba e7 3d a6 37 73 be da 0e df be 6d cc 07 3e
       0.113149166 -0.23751697 -0.43566018 0.13261576
000140 42 0e b5 bd b9 0f ac 3d 23 eb 3f be 2d 53 c7 bc
       -0.0884061 0.08401436 -0.18742041 -0.024331653
000150 8e 5c 60 3e 59 45 3c be 29 15 cb bd d2 5a 84 be
       0.21910307 -0.18385829 -0.09916145 -0.2585054
000160 0f 0e 5f 3e 96 fd d3 be bb 6f ed be d5 7f d3 be
       0.21782707 -0.41404408 -0.46374306 -0.41308466
000170 f2 cf cd 3d 1f 43 fb bd 51 37 66 be d2 ad d8 bd
       0.10049428 -0.12268662 -0.22482039 -0.105800286
000180 96 66 64 3c d9 e3 65 be 87 24 cd 3e 00 c9 04 3e
       0.013940474 -0.22450198 0.4006693 0.129673
000190 48 ce 8e 3d 94 90 7c bc 98 3a 71 3d 5f 80 e8 be
       0.06972939 -0.0154153295 0.05889377 -0.4541044
0001a0 ed ce 72 be 31 df 4f bf 80 8c 24 be 38 b5 0c bf
       -0.23711748 -0.8119994 -0.16069221 -0.5496402
0001b0 30 39 fa 3d 03 f3 4c bf 85 25 02 bf 07 39 f5 bd
       0.12217939 -0.80058306 -0.508385 -0.11973768
0001c0 d0 96 53 3d db e2 83 bd 79 5d 3d 3c 30 16 cd bd
       0.051657498 -0.064397536 0.01155793 -0.100139976
0001d0 f2 8c 5f bb 4e 48 1b bf 17 67 d9 be cd 03 65 be
       -0.003411111 -0.60657203 -0.42461464 -0.22364731
0001e0 4d 5a 5b 3e e2 ca 9c be 62 a4 ba 3e 74 58 a6 3e
       0.21421166 -0.30623537 0.3645354 0.3248936
0001f0 79 01 31 be d0 47 05 bd 24 3b 4e 3e 09 c1 4e be
       -0.17285718 -0.03253919 0.20139748 -0.20190825
000200 82 26 5e be e1 f9 16 be e3 c9 32 3e ee 7b 6e be
       -0.21694377 -0.14743759 0.17459826 -0.23289463
000210 60 a5 84 be 85 8a 87 3d 01 e9 0c bf d4 81 d9 be
       -0.2590742 0.066182174 -0.55043036 -0.42481863
000220 e7 77 1a be 69 8b d1 3d 65 82 ea bd 2c 87 da be
       -0.15084802 0.102316685 -0.11450652 -0.42681253
000230 89 28 2b 3e 85 d4 a8 be 22 49 6e be d7 dc 5a bd
       0.16714682 -0.3297464 -0.23270085 -0.053433266
000240 63 4b 4a bf 61 78 90 3e 8d b7 9e 3d 27 3e 86 3e
       -0.7902128 0.28216842 0.07749853 0.26219293
000250 8d cd 81 3e 19 7c 9c bd 56 86 ce bb 32 5c 79 be
       0.25352135 -0.07640857 -0.006302635 -0.24351576
000260 ef 4f 21 be e2 a4 eb be d8 63 8f bd 0e e1 2f 3e
       -0.15753148 -0.46024233 -0.070014656 0.17175695
000270 89 66 14 be fb 36 92 3e e5 11 e9 3d 71 cb b0 ba
       -0.14492239 0.28557572 0.11380366 -0.0013488365
000280 e3 1b b3 3e 3d 6a 46 3f ea 4f 16 bf e6 f6 09 bf
       0.34982213 0.77505857 -0.5871569 -0.5389236
000290 61 37 40 3e 8c 73 51 bf 8f 4a bb 3e 35 83 76 be
       0.18771125 -0.81816936 0.3658032 -0.24073489
0002a0 d8 6f 08 3e 6a 49 26 3d a5 10 7f be ae 5c 2e bd
       0.13323915 0.040597357 -0.24908693 -0.042568855
0002b0 40 f9 cf 3e cf f8 26 3e 49 aa 4d bf 2a 45 af be
       0.4061985 0.1630585 -0.8033796 -0.34232455
0002c0 08 7c aa 3d fb 83 cb bd 4a 80 52 3e f9 60 f3 3d
       0.08324438 -0.09937283 0.20556751 0.118837304
0002d0 b9 4b 8d 3e b0 41 0c bf eb 5f d6 3d ca 39 93 be
       0.27596834 -0.5478773 0.10467514 -0.28755027
0002e0 6c 4f 2d 3e 78 d6 6a bf 84 c4 02 3f 12 d8 39 bf
       0.16924828 -0.91733503 0.5108111 -0.7259532
0002f0 44 8f 7f bf 74 f7 9b be 9b 04 13 3e 2e af 2a 3e
       -0.9982798 -0.3046223 0.14357226 0.16668388
000300 eb 7d 24 be 65 dc 1d 3c 6b 62 6c 3e 8e 22 ee 3d
       -0.16063659 0.009635066 0.23084418 0.116276845
000310 0e 53 83 3e 01 d6 58 3d 41 06 a1 3e 35 f1 07 bd
       0.25649303 0.052938465 0.31450084 -0.033189017
000320 0c ab 9f 3e a7 d5 ed be 28 4a 0e bf e5 24 1f bd
       0.31185186 -0.46452066 -0.55581903 -0.038853545
000330 41 5c cb 3e a4 50 75 be 83 6d 41 bc 59 fd 31 bf
       0.39718822 -0.23956543 -0.011805895 -0.695272
000340 7a 50 4e 3d 42 78 d5 3d 5b d2 9c be fd 54 e6 bd
       0.050369717 0.10423328 -0.30629238 -0.11246679
000350 88 dd 9f bd 56 91 7e be 79 2b c9 be f3 93 eb bd
       -0.078059256 -0.24860129 -0.3929098 -0.115028284
000360 20 a0 af 3e fc 31 c6 be d2 5d 7a 3e e1 61 83 be
       0.34301853 -0.3871001 0.24449852 -0.25660613
000370 1d 38 82 be 34 1d 10 3e 56 31 9e bd 89 fa e4 bd
       -0.25433436 0.1407364 -0.07724254 -0.11180598
000380 43 93 c2 bd c0 10 68 be f1 a6 17 bb 8a eb 11 3e
       -0.09500744 -0.2266264 -0.0023140276 0.14250007
000390 c4 36 4b be ae fd d3 be 93 36 91 be ad 09 21 3e
       -0.1984511 -0.4140448 -0.2836195 0.15726347
0003a0 97 dc c6 3e 4a b7 56 bf af 81 5e be fb 4b 72 3e
       0.38840172 -0.83873427 -0.21729158 0.23661797
0003b0 fe 4e b6 3e ce 20 a3 3e 01 57 e4 be 28 8e 36 be
       0.3560714 0.31860965 -0.4459763 -0.17827666
0003c0 80 ba 3f 3f 29 65 12 bf 19 8b fa bd cf 30 84 be
       0.7489395 -0.5718561 -0.12233562 -0.25818488
0003d0 9a fb e6 bc b0 89 f1 bd d2 c8 23 3f 35 5c 99 be
       -0.028196145 -0.1179384 0.639783 -0.2995316
0003e0 2d e0 f4 3e ef 28 96 3c 3d 2b 24 bc d0 b2 fd bd
       0.47827283 0.018330066 -0.010020074 -0.123876214
0003f0 d4 cc e9 bb 91 fc f7 bd 03 74 75 3e 9b 82 ee bd
       -0.007135013 -0.1210872 0.23970036 -0.11646005

out.feature_out.layers.4.bias f4 [32]
000000 b9 bc a4 3e 7a 53 a2 bd 84 c1 ad 3f 0d 4f 13 3f
       0.32175234 -0.07926078 1.3574681 0.57542497
000010 c9 71 a8 3f 7d e0 92 bf cc 52 88 3f 3d b4 12 bf
       1.3159724 -1.1474758 1.0650268 -0.5730627
000020 da c2 56 be ba e2 80 bf cd 7d 67 be cf 43 11 3f
       -0.20972767 -1.0069191 -0.22606583 0.5674409
000030 f0 ad 96 3f 1f 4c 99 be 59 0c bf 3f e0 73 0f 3f
       1.1771832 -0.29940888 1.4925643 0.56036186
000040 59 c9 50 3f 9f e2 23 3f 09 7a 71 3f 54 6f b6 3f
       0.8155723 0.6401767 0.94326836 1.4252725
000050 64 20 58 3f 89 40 46 3f dd ea 56 3f 03 07 57 3e
       0.84424424 0.7744222 0.8395212 0.20998769
000060 e1 a3 c2 3f 91 b5 cc 3f 13 09 97 bd 9d 39 b0 3e
       1.5206262 1.599291 -0.07374778 0.34418955
000070 35 ec b8 3f 77 3d b8 3e 61 47 18 3f d0 73 71 3f
       1.4447085 0.35984394 0.59483916 0.9431734

out.feature_out.layers.6.weight f4 [4, 32]
000000 cb f5 ab bc 58 36 b5 bc ee 66 53 be 1f c0 7c be
       -0.020991227 -0.02212064 -0.20644733 -0.24682663
000010 d7 46 06 be 62 7e 5c be 43 32 6e 3b 69 8a 08 3e
       -0.13112961 -0.21532586 0.0036345876 0.1333405
000020 66 f1 8a be ab 13 4e bd ed 8e 4e be 51 fc 18 3e
       -0.27137297 -0.050311726 -0.2017171 0.14940001
000030 d9 5f 7b 3e 92 63 c9 bd 2b d3 03 bd ca fb f2 bc
       0.24548282 -0.09833445 -0.032183807 -0.029661078
000040 1a ce 15 3e 5e db 6a be 75 46 5e 3e 8b 6a eb 3c
       0.14629403 -0.22935244 0.21706565 0.028737327
000050 07 ab 95 bd 32 00 d6 bd 80 c1 08 3e 06 13 32 3e
       -0.073080115 -0.10449256 0.13355064 0.1739007
000060 3c c2 ee 3c b2 49 67 3e 5f 89 bb 3d 0a 43 14 bd
       0.029145353 0.22586706 0.09157061 -0.036196746
000070 17 dc 8c 3d d1 58 61 be fc 1f 73 bd 68 92 bf bd
       0.06877916 -0.22006537 -0.059356675 -0.09354097
000080 3a 53 1e 3e 4c c2 08 be a8 93 c5 3d ff 7d f2 bb
       0.15461436 -0.13355368 0.09647304 -0.007400274
000090 f6 d5 9c bd 24 8d 52 3d f4 a1 18 3e 3c e0 d9 bd
       -0.07657997 0.051404133 0.1490553 -0.106384724
0000a0 87 52 73 be f1 60 ad bd 60 73 11 be ea 57 27 3e
       -0.2376195 -0.08465756 -0.14204168 0.1634213
0000b0 ac 58 11 ba f1 63 c6 bc 36 15 21 3d f4 f6 f6 bd
       -0.0005544524 -0.024217578 0.03932687 -0.12058821
0000c0 b7 cd 11 3e 93 cf 47 3e 0b 16 57 3d 17 80 6a 3e
       0.1423863 0.19512777 0.052511256 0.22900425
0000d0 c2 bf 34 be ee f3 42 3e 62 64 56 bd b2 a6 f7 3d
       -0.17651275 0.19038364 -0.052341826 0.120923415
0000e0 6d 1b a0 bd 73 46 01 3e 10 88 23 be cb 66 82 3c
       -0.07817731 0.1262453 -0.15969872 0.015918156
0000f0 44 a9 9a 3d 13 b5 05 bd 3e 06 11 3e 16 c5 53 3e
       0.07551816 -0.03264339 0.14162537 0.20680651
000100 d6 1b ef 3d dd 46 41 be 25 8a 06 3e 24 d3 2d bc
       0.11675231 -0.18874688 0.13138635 -0.010609422
000110 17 4e 12 3d ea f8 96 3d 49 02 2b 3e 15 41 1e bd
       0.035719004 0.07371695 0.1670009 -0.038636286
000120 d8 60 fe 3d a5 03 4d 3d 2d 23 d1 3c f2 5e ee bc
       0.12420815 0.050052304 0.025529468 -0.029098008
000130 de bd a1 bd d7 66 0d be d4 35 47 be 43 c5 c2 bc
       -0.078975424 -0.13808762 -0.19454128 -0.023775702
000140 ab f9 17 bd 95 8a 80 3c 5c 90 23 3d 10 c4 dd bd
       -0.037103336 0.015691081 0.039932594 -0.108284116
000150 8b de 29 3e 3d 38 bb bc 98 0c dd bc f1 26 86 bc
       0.165888 -0.022853965 -0.026983544 -0.01637599
000160 28 1f d1 3c 7d 26 9c 3d 44 06 ed bc 4c 96 4e be
       0.025527552 0.076245286 -0.028933652 -0.20174521
000170 69 53 6d 3c 85 59 23 bd 3f af 0c bb 60 69 13 3d
       0.014485219 -0.039880294 -0.002146676 0.035989165
000180 11 95 c1 bd cc 1c 49 be 18 05 35 bc 87 f3 9c bd
       -0.0945226 -0.19639891 -0.011048578 -0.07663637
000190 13 0e 49 3e 5f e4 8f bd 01 c2 c8 bc df c8 dc bc
       0.19634275 -0.0702598 -0.02450657 -0.026951252
0001a0 65 71 ef 3c ed 03 8a 3e 2a ee 7e 3c 30 26 53 bd
       0.029228875 0.2695612 0.015559712 -0.05155009
0001b0 09 5b 05 3d 94 9b 9d bd 73 9c 6a 3e 20 88 45 3e
       0.03255752 -0.0769569 0.22911243 0.19290209
0001c0 d5 26 be be 0e a4 d7 bc 37 41 bc 3d 0e 97 fc bc
       -0.37139 -0.026323345 0.09192126 -0.030833747
0001d0 73 6c 35 bc 89 74 89 bd d2 f1 f6 3d 20 1c 49 3c
       -0.01107322 -0.067116804 0.12057842 0.012274772
0001e0 63 c0 83 be 61 7f 8f 3d 48 bf e0 bb 5c d4 eb bc
       -0.25732717 0.070067175 -0.00685874 -0.028787784
0001f0 e0 6b 78 be f7 7d db bc c8 80 92 bd 17 6b df 3d
       -0.24259901 -0.026793463 -0.07153469 0.10909098

out.feature_out.layers.6.bias f4 [4]
000000 f0 58 53 3d 7b 26 bf 3c 0c 51 1b 3e 8d 47 0c 3d
       0.05159849 0.023333779 0.15167636 0.034247924

backbone.backbone.0.blocks.0.conv1.weight f4 [32, 32, 1, 3]
000000 44 02 02 bf f2 b8 57 3e 99 e5 44 3e 7e 98 50 be
       -0.5078471 0.21066645 0.1922821 -0.20370671
000010 88 77 18 bf c5 04 34 3e ec b3 58 3e ff 1b a6 be
       -0.5955739 0.17579944 0.21162385 -0.32443234
000020 85 7d b8 3d 17 a7 87 3e af ef a6 bd f2 71 06 3e
       0.09008316 0.26494667 -0.08151185 0.13129404
000030 84 43 bf 3e a1 dc 36 3e 94 10 98 be 03 29 c6 be
       0.37356198 0.17857601 -0.29700148 -0.38703164
000040 d6 d4 77 3e 9d 36 0f 3f f1 a1 16 bf 70 b5 7d 3e
       0.24202284 0.5594271 -0.5884085 0.24776244
000050 b0 e0 b9 3e 07 8d dd bd ea 3c 21 3e ff 29 fc 3d
       0.36304235 -0.108179145 0.15745893 0.123126976
000060 c8 a4 24 bd 11 f7 e1 be 74 37 14 bf 98 ed 01 3f
       -0.04019621 -0.4413381 -0.57897115 0.50753164
000070 94 6a 86 be c2 3d 5b bd b1 97 97 3d d4 8b 55 3f
       -0.26253188 -0.053525694 0.0740198 0.83416486
000080 5d 78 cc 3e a0 54 12 3f 54 11 03 bf 0d 55 09 bd
       0.3993558 0.5716038 -0.51198316 -0.033528376
000090 ba ef 24 3f 9e ce bc 3e c1 40 84 bd 67 44 12 3e
       0.64428294 0.36876386 -0.06457663 0.14283906
0000a0 ea d1 5c 3f 7d 55 0c 3f 35 39 dd be 49 c6 af 3e
       0.86257803 0.54817945 -0.43207708 0.34330967
0000b0 9b 74 83 3e 9b 4e b3 3e d5 ff 7a 3f 18 02 d5 3e
       0.256749 0.3502091 0.9804662 0.4160316
0000c0 d7 14 0c bd 08 31 01 bf a5 c6 64 bd 8f cc 15 be
       -0.034199562 -0.5046544 -0.055853505 -0.14628814
0000d0 01 52 17 bf 2e 0a 26 be d8 ed dd 3b a6 c7 3b bf
       -0.59109503 -0.1621482 0.006772738 -0.73351514
0000e0 3d b1 0d be 15 b9 8a be fa c1 31 bf 89 77 c8 be
       -0.13837142 -0.2709433 -0.6943661 -0.39153698
0000f0 ca 24 2c 3f 71 f6 86 3f 62 a4 fe 3e 58 53 ef bc
       0.67243636 1.0543958 0.4973479 -0.029214546
000100 80 0e 85 bd a6 2f 2f be 2f 5a 8c bd 77 a7 a3 be
       -0.06496906 -0.1710802 -0.06853139 -0.31963703
000110 cc 6f d7 3a bf ba 5f 3d 06 12 2a 3e d4 fd f5 3d
       0.0016436516 0.054621454 0.16608438 0.120113045
000120 0f de cb 3e 9b 3d 69 3e 15 a6 e0 3d 0e 5f 63 3f
       0.39817855 0.22777407 0.10969178 0.88816917
000130 e7 fe 0e 3f 7b 41 90 3e 69 25 c3 3e df a9 3b 3e
       0.558577 0.28174958 0.3811448 0.1832652
000140 17 e0 bd 3d 0c 6c e0 3d 01 fe af bf 93 d1 e1 be
       0.09271257 0.10958108 -1.3749391 -0.44105205
000150 5a d9 c5 3e a8 b7 bf 3e 19 82 a4 3e 96 dc 52 bf
       0.3864239 0.37444806 0.32130507 -0.8236784
000160 f8 73 7f bf 02 c7 82 be 04 be db 3e e7 98 58 be
       -0.9978633 -0.25542456 0.42918408 -0.21152078
000170 aa 06 c7 3d b3 ce 99 3f 30 45 ab 3f 28 cc b8 3e
       0.09718068 1.2016205 1.3380489 0.3609326
000180 cc 04 5d 3e b6 7a a0 3e c5 30 e4 3e c7 c3 04 be
       0.21583861 0.3134362 0.44568458 -0.12965308
000190 4f 06 91 be 43 a7 ff bd 4b f5 7f 3d 6a 57 f3 bd
       -0.28325126 -0.124830745 0.06248979 -0.11881907
0001a0 4d 82 d3 be 22 be ec 3e 1c b6 39 3e 23 6c 15 3e
       -0.4131035 0.4623881 0.18135875 0.14592032
0001b0 e6 85 d1 3d b7 35 ea 3d c0 f6 08 3d 98 ff a5 be
       0.10230617 0.114360265 0.033438444 -0.32421565
0001c0 3e ff 63 3e e0 2c dc 3e d6 7c 22 bd 59 74 f8 3e
       0.22265336 0.43002987 -0.039669834 0.48526266
0001d0 24 fd 78 3e c3 ff e6 3e a9 36 b6 3e d0 4c 6d bc
       0.24315315 0.45117006 0.35588577 -0.014483646
0001e0 01 b5 5e 3f 27 ea bd be cc 3e 79 be 3d 72 99 3e
       0.8699494 -0.37092707 -0.24340361 0.2996997
0001f0 b0 9c eb 3d 99 ae 24 bf b2 e4 1a 3e 1a 35 78 3f
       0.11504495 -0.64328915 0.15126303 0.96956027
000200 f5 8b ec 3c 43 aa 6f 3e a7 6e dc bd eb 34 00 bf
       0.02887533 0.23404793 -0.10763293 -0.50080746
000210 54 9e 04 bf 25 a5 0e 3f 7c d2 9a bc 67 87 dc be
       -0.5180409 0.5572074 -0.018899195 -0.43072054
000220 68 11 a0 be a1 89 61 3f 85 52 e6 be b0 06 c3 bd
       -0.3126328 0.8810063 -0.44984832 -0.0952276
000230 49 02 2f bc b0 50 9c 3e 00 95 cb 3d 77 24 1e bc
       -0.010681697 0.3053031 0.09940529 -0.009652249
000240 71 e5 04 bf 61 9c 14 3e 02 ef f8 be 06 65 7d 3e
       -0.519126 0.14512779 -0.48619848 0.24745569
000250 01 b8 ed be 02 dd 48 bf cf 7e 32 3e 09 b2 87 3f
       -0.46429446 -0.7846223 0.17431186 1.0601207
000260 ba 97 80 3d f6 c1 0d bd 0f 76 f5 be 00 41 ca be
       0.062789395 -0.034608804 -0.47941634 -0.39502716
000270 93 a5 0a bf 45 d9 f1 be 4b e7 0a 3f fa 2a 16 3f
       -0.54158896 -0.47236076 0.54259175 0.5865933
000280 b8 82 fe 3e f9 2c 8c 3e ff 25 00 3e fb dc 52 bf
       0.49709105 0.2737806 0.12514494 -0.8236844
000290 c8 51 0c bf 48 ca d0 be c7 d7 00 3f 6a 36 49 3e
       -0.5481229 -0.40779328 0.5032925 0.19649664
0002a0 e8 77 0a 3f 26 bb 0d 40 7a 59 02 3f aa da fb 3e
       0.5408921 2.2145476 0.5091778 0.49190265
0002b0 2e 02 87 3f 6f 22 42 be d4 d1 3a 3f 8c 0d 89 3f
       1.054754 -0.18958448 0.7297642 1.0707259
0002c0 57 4a a7 3e 31 00 f9 3e e7 a5 e0 3e 55 1d 0a bf
       0.32673904 0.4863296 0.43876573 -0.5395101
0002d0 80 be 62 bf 50 08 1e c0 ee 16 2f bf 78 7d 68 3e
       -0.8857193 -2.4692574 -0.6839436 0.22704113
0002e0 79 7a 83 3c 4e a1 07 bd 69 79 66 bf dc 2b 14 c0
       0.01604961 -0.033112817 -0.9002901 -2.315177
0002f0 e0 84 de bf 5c f4 1d 3f 63 d4 73 bd 02 d4 d2 be
       -1.73843 0.6170099 -0.05952872 -0.41177374
000300 22 8a 14 3f e4 36 38 3f 96 a6 22 3f c9 3e c0 be
       0.58023274 0.71958756 0.6353544 -0.375479
000310 82 fd 7e be d6 d9 2b be 04 0d df 3c a2 b5 80 bd
       -0.24901393 -0.16782317 0.027227886 -0.06284644
000320 f8 09 97 3e 05 fe 93 3e be 87 1f bf 29 a3 02 3f
       0.29499793 0.2890474 -0.623165 0.5103021
000330 57 9c 17 3e 4a cb 75 bd c1 53 d1 3b 17 9a 43 3e
       0.14805733 -0.060008325 0.006388158 0.1910175
000340 d6 cb e1 be d6 4b fd 3e 70 b8 b5 bd 9e 03 e3 be
       -0.44100827 0.4947192 -0.08873069 -0.44338697
000350 1d e3 c0 3d 9a be cd 3e 46 92 9d be 68 e6 65 bd
       0.094183184 0.4018448 -0.3077566 -0.056127936
000360 c6 da dd bd 8e 11 a1 3e 1e 9a 89 3e 1e c6 2c 3e
       -0.10832743 0.31458706 0.26875395 0.1687245
000370 f2 d4 ee 3d e5 b7 36 3d f7 81 e5 3d f9 d2 03 be
       0.1166171 0.04460897 0.112064295 -0.12873448
000380 ab ed b3 3d c1 56 21 3e 99 dc ff 3d 73 d9 19 be
       0.08785566 0.1575575 0.124932475 -0.15024357
000390 6e 48 c1 3e 93 2e 81 3e a1 c7 14 bd 9d d7 b2 3d
       0.37750572 0.25230846 -0.036323193 0.08732531
0003a0 1a df 9a bd 2f 92 63 be 38 4c bb 3c bb 1f 8e be
       -0.075620845 -0.22223733 0.022863492 -0.27758583
0003b0 f6 2f 92 bd d8 4b 2c 3e 23 27 96 3e 02 9a df 3e
       -0.07138054 0.16825807 0.29326734 0.43672186
0003c0 5f b6 39 be c7 be 5c bf 20 74 3f bf 13 b9 6b be
       -0.18135975 -0.86228603 -0.7478657 -0.23019819
0003d0 eb fc ad 3d 1b e0 e9 3d 09 6e 9b 3e 02 bc c3 3e
       0.08495506 0.11419698 0.30357388 0.38229376
0003e0 1b 3c a2 3e 11 ff 57 bf 5f 78 d0 bf 8d 59 65 bf
       0.31686482 -0.84373575 -1.6286734 -0.8958977
0003f0 aa 98 c4 3c 17 69 5d bd bb 28 80 bc 96 b1 2d be
       0.023998577 -0.0540553 -0.015644422 -0.16962275

backbone.backbone.0.blocks.0.conv1.bias f4 [32]
000000 03 d3 92 bd 6a 64 84 be 96 5e 3b bf aa 48 54 be
       -0.071691535 -0.2585786 -0.731912 -0.20730844
000010 30 8d d8 3e e9 eb 53 bf cb f2 75 bf d1 6d 31 bf
       0.42295218 -0.82781845 -0.960736 -0.6930819
000020 a1 da ec 3e 7e 4c 07 be 0f aa 77 3e 9d 59 41 3f
       0.4626055 -0.13212773 0.24185966 0.75527364
000030 1e 34 8f 3e 45 b7 3f 3f 75 27 db 3d b2 51 99 3f
       0.2796945 0.7488902 0.10700885 1.1978056
000040 19 f3 37 3f 95 e4 89 be a4 b3 b3 be ad 66 ca be
       0.7185531 -0.26932207 -0.35097992 -0.3953146
000050 5f 4e 1e 3f d8 fa 3f bf cd 76 18 3f b3 79 35 bf
       0.61838335 -0.7499213 0.59556276 -0.70888823
000060 b0 3d 13 3f e4 de d1 be 17 36 58 be 55 cf e1 be
       0.57516 -0.40990365 -0.21114384 -0.44103494
000070 6b 88 68 bf 40 0a 07 bf f9 8b ab 3f f6 7d 03 3f
       -0.9083316 -0.52750015 1.3402091 0.51364076
