model_parameter/tbc/GraphWave_best.pth (torch, 252886 bytes, 75 tensors)

embedding.vehicle_embedding.weight f4 [32, 4]
0	0x3da7a205	0.081852
1	0x3d4b4272	0.049623914
2	0x3dd678db	0.1047227
3	0x3ccd48a6	0.025059056
4	0x3d0ea0ce	0.034821324
5	0xbca10a3e	-0.019658204
6	0x3cdf3513	0.027246987
7	0xbc8ddd1b	-0.017317345
8	0x3cded1bd	0.02719962
9	0x3c09bed4	0.008407313
10	0x3b28da13	0.0025764748
11	0x3c201d38	0.009772591
12	0x3cb5a1da	0.022171903
13	0x3c4ef434	0.012631465
14	0x3c4ad8aa	0.012380758
15	0xbc5927b3	-0.013254094
16	0xbc29421e	-0.010330705
17	0x3c0fa730	0.008767888
18	0xbc6e9fe6	-0.01456449
19	0x3cc921ed	0.02455231
20	0x3d6bd55e	0.05757653
21	0xbd270513	-0.040776324
22	0x3cd1b240	0.025597692
23	0xbc6e97f0	-0.014562592
24	0x3e19c8d0	0.1501801
25	0xbd0cd223	-0.03438009
26	0x3d9d0387	0.076666884
27	0xbe083fa6	-0.1330553
28	0xbc92ba2b	-0.017911037
29	0xbcb0709e	-0.021538075
30	0x3cdcedab	0.026968798
31	0xbd06b8df	-0.03289115
32	0xbe43c315	-0.19117387
33	0xbd8b884b	-0.06813105
34	0xbd224809	-0.03961948
35	0x3c0288b1	0.00796716
36	0xbd9fcd61	-0.07802845
37	0x3d269eae	0.040678672
38	0xbc5aec59	-0.013362014
39	0x3d43f680	0.047842503
40	0xbc8add5f	-0.016951261
41	0x3d97d6b6	0.07414
42	0x3d08f3d1	0.033435646
43	0xbcf9e2dd	-0.030503685
44	0x3ca045c9	0.019564526
45	0xbc3a6724	-0.01137713
46	0x3bc8afdc	0.0061244797
47	0xbd1977cc	-0.037467763
48	0x3d044c5f	0.032299396
49	0xbd7003f5	-0.058597524
50	0xbd34c54f	-0.04413348
51	0xbcc93aa9	-0.024564104
52	0xbda307b5	-0.079604544
53	0x3e7201f2	0.23633555
54	0xbe9c7f14	-0.30565703
55	0x3de61f84	0.1123648
56	0x3e16c711	0.14724375
57	0x3c88519f	0.016640482
58	0x3d5c171a	0.05373297
59	0xbd7679a8	-0.060174614
60	0x3d95b02e	0.07308994
61	0xbca07876	-0.01958869
62	0xbe2a310a	-0.1662027
63	0x3e87e652	0.26542908
64	0x3e910715	0.28325716
65	0x3e1042ee	0.14088032
66	0x3e5e1a34	0.21689683
67	0xbe5bfc08	-0.21482861
68	0x3e58296e	0.21109554
69	0x3d0196a3	0.0316378
70	0x3e5d054d	0.21584053
71	0xbd21f6a8	-0.03954187
72	0xbde425ce	-0.11140023
73	0x3d579e66	0.052641295
74	0x3dfd9584	0.123820335
75	0x3d8ced04	0.06881145
76	0x3e4d0209	0.20020308
77	0xbe33dd9c	-0.17565006
78	0x3d291787	0.041282203
79	0xbf061a1d	-0.52383596
80	0x3eb59219	0.35463026
81	0xbe8208e7	-0.25397417
82	0xbeb1b24a	-0.34706336
83	0x3e438ec8	0.19097435
84	0x3ead0f64	0.33800805
85	0xbecdcf89	-0.401974
86	0x3f18b115	0.59645206
87	0x3eae0dc6	0.33994883
88	0x3b2ff585	0.0026849222
89	0x3bdd5ae1	0.0067552184
90	0x3b8e3eba	0.0043409737
91	0x3c6af6c7	0.014341063
92	0xbda4c86f	-0.08046042
93	0x3eeb66e5	0.4597694
94	0x3ed4119b	0.41419682
95	0x3f424521	0.7588673
96	0xbe83a2fe	-0.2571029
97	0xbde9dda0	-0.11419225
98	0xbd3dad12	-0.04630763
99	0xbc523ac2	-0.012831392
100	0x3cb47af9	0.022031294
101	0xbed85a30	-0.42256308
102	0xbe469bfc	-0.19395441
103	0xbe3642c4	-0.17798907
104	0x3e3ff904	0.18747336
105	0xbeea7f19	-0.45800093
106	0x3eb2c703	0.3491746
107	0x3efe19d7	0.4962909
108	0xbe0ff137	-0.1405686
109	0xbd712a03	-0.058877956
110	0x3eb12e61	0.34605697
111	0x3d9f87b2	0.07789554
112	0x3e0dcd62	0.13847879
113	0x3e96f2e6	0.29482192
114	0xbeb58075	-0.35449567
115	0x3e337ed3	0.17528848
116	0x3e840e13	0.25791988
117	0xbcf86f12	-0.0303264
118	0x3ec8c6a7	0.3921406
119	0xbe79486c	-0.24344033
120	0x3eb628d0	0.35578012
121	0x3ed43205	0.41444412
122	0x3d374b2f	0.044749435
123	0x3ec4a77d	0.38409033
124	0xbeed0d36	-0.46299142
125	0xbe5cfe1a	-0.21581307
126	0xbf1bf9a8	-0.6092782
127	0x3e470dd9	0.19438876

embedding.vehicle_embedding.bias f4 [32]
0	0xbcbafb4e	-0.02282491
1	0x3cf8691c	0.030323558
2	0xbb464f5e	-0.003025971
3	0xbd318269	-0.04333726
4	0xbd966932	-0.07344283
5	0xbe20d3b0	-0.15705752
6	0xbeb7748e	-0.35831112
7	0x3e6a9c97	0.22911297
8	0xbf3c8105	-0.7363437
9	0xbece3d74	-0.4028126
10	0xbf1ee39d	-0.6206606
11	0xbf4a3dc2	-0.79000485
12	0xbecab987	-0.3959467
13	0xbf391a5a	-0.72305834
14	0xbe6d43bc	-0.2317037
15	0xbf3f3335	-0.7468751
16	0xbc9eafae	-0.01937088
17	0xbf7e0d12	-0.99238694
18	0xbd3f188e	-0.046654277
19	0xbf436350	-0.76323414
20	0xbc501079	-0.01269924
21	0xbea50397	-0.322293
22	0xbcbcd6a0	-0.02305156
23	0xbf2de2e2	-0.6792432
24	0xbca8605e	-0.020553764
25	0xbf89bc76	-1.0760639
26	0xbefe15e9	-0.4962609
27	0xbf6714d5	-0.9026616
28	0xbe056856	-0.13028082
29	0xbf598f24	-0.8498404
30	0xbe0dfa21	-0.13864948
31	0xbf4f5747	-0.8099255

embedding.bridge_embedding.weight f4 [32, 6]
0	0x3eabb382	0.3353539
1	0xbecca639	-0.39970568
2	0xbebb2b1c	-0.36556327
3	0x3ea633a0	0.32461262
4	0xbe84b9f8	-0.25923133
5	0xbe24c063	-0.16089015
6	0x3e15bcec	0.14622849
7	0xbdc5d9f0	-0.09660709
8	0x3e9dd3a6	0.30825537
9	0x3e646278	0.22303188
10	0xbea3ad5b	-0.31968197
11	0xbeb0e5ee	-0.34550422
12	0xbe294acc	-0.16532439
13	0x3dd1a898	0.10237235
14	0x3d49e240	0.049288034
15	0xbe13105a	-0.14361706
16	0x3e26ff48	0.1630832
17	0x3b7f5300	0.0038959384
18	0x3ca9ca50	0.020726353
19	0xbe4d7dd1	-0.20067526
20	0xbb43ac00	-0.0029857159
21	0x3e548044	0.20752054
22	0xbe9aaa0f	-0.3020787
23	0xbe396c90	-0.1810782
24	0xbec55a9e	-0.38545698
25	0xbe59c3f4	-0.21266156
26	0xbeba2114	-0.36353362
27	0x3cbb3430	0.022852033
28	0x3e92f2e6	0.28700942
29	0x3e1ac918	0.15115774
30	0x3e458ffc	0.19293207
31	0xbdb49560	-0.088175535
32	0xbdd3f3b8	-0.1034922
33	0xbe582b0a	-0.21110168
34	0x3eadec8e	0.3396954
35	0xbe58046f	-0.21095441
36	0xbdc77db8	-0.09740776
37	0x3d3294a0	0.04359877
38	0xbeb67fa6	-0.35644263
39	0xbec31845	-0.38104454
40	0x3e96d9d2	0.2946306
41	0xbd810900	-0.06300545
42	0x3eb0c764	0.34527123
43	0xbe23cf3a	-0.1599702
44	0x3bc4b380	0.0060028434
45	0x3e555260	0.20832205
46	0xbea811c4	-0.32826054
47	0x3d3d2b70	0.046184003
48	0xbd9409d0	-0.07228434
49	0xbecdbf14	-0.40184844
50	0x3eb985a4	0.36234772
51	0xbdd12a90	-0.10213196
52	0xbe39b18b	-0.18134134
53	0x3e435eec	0.19079179
54	0xbdb4b50c	-0.088235945
55	0xbeaa1472	-0.33218724
56	0xbaad1600	-0.0013205409
57	0xbe8d8c04	-0.27645886
58	0x3e6ce304	0.23133475
59	0x3d540c10	0.051769316
60	0x3ec1b072	0.3782993
61	0x3eb968fe	0.36212915
62	0xbe96933a	-0.294092
63	0x3e91dc3a	0.28488332
64	0xbe5545ad	-0.2082736
65	0xbe874c85	-0.26425567
66	0xbe4b2879	-0.19839658
67	0xbecbd0d3	-0.39807758
68	0x3eaa5a00	0.3327179
69	0x3a230e00	0.00062200427
70	0xbe6ead3c	-0.23308271
71	0xbcd791e0	-0.026314676
72	0xbb6d8800	-0.0036244392
73	0x3e5c1968	0.21494067
74	0xbe38a011	-0.1802981
75	0x3eafcc4e	0.3433556
76	0xbeb66243	-0.35621843
77	0x3e539608	0.20662701
78	0xbdd654a8	-0.10465366
79	0xbec77a4a	-0.38960487
80	0xbe9b26b8	-0.30302978
81	0xbdf4f600	-0.11960983
82	0xbdbfd154	-0.09366098
83	0xbea27cf2	-0.3173595
84	0x3e439084	0.19098097
85	0x3c936200	0.017991066
86	0x3ead2a4e	0.33821338
87	0x3d0bd988	0.034143
88	0x3e20f908	0.15719998
89	0x3e3020b0	0.1719997
90	0xbe945e8c	-0.28978384
91	0xbec4d5df	-0.3844442
92	0x3e2c4708	0.16823971
93	0xbe8ac44a	-0.27102882
94	0xbe1dffa2	-0.15429547
95	0xbea54bc6	-0.32284373
96	0x3ea4e49a	0.3220566
97	0xbe92a253	-0.2863947
98	0xbd04b288	-0.032396823
99	0x3cef8b90	0.029241353
100	0x3e85126e	0.25990623
101	0x3e2186f0	0.15774131
102	0xbeb3f268	-0.3514588
103	0x3ea43002	0.32067877
104	0x3e5dea70	0.21671462
105	0xbe91e4f6	-0.28494996
106	0xbe96e8a4	-0.29474366
107	0xbcf87200	-0.030327797
108	0xbec4b569	-0.38419655
109	0xbecdc344	-0.40188038
110	0x3eaa2de2	0.3323813
111	0x3eb6a692	0.35673958
112	0x3c88cf00	0.016700268
113	0x3e84ec04	0.25961316
114	0xbc666820	-0.014062911
115	0x3daed564	0.08536795
116	0xbe2c6a8b	-0.16837518
117	0x3e514ab0	0.20438647
118	0xbe8a5818	-0.27020335
119	0xbe9b61b8	-0.3034799
120	0xbe1cd3c0	-0.15315151
121	0x3c514220	0.012772113
122	0xbebf6208	-0.3737948
123	0x3e0855cc	0.13313979
124	0xbdeb1f6c	-0.114806026
125	0x3de32488	0.11090952
126	0xbd96b294	-0.0735828
127	0x3e0e84a4	0.13917786
128	0x3ecabe2e	0.3959822
129	0x3e85e46a	0.2615083
130	0x3e549444	0.20759684
131	0xbe674cdb	-0.22587912
132	0x3dda1938	0.10649341
133	0x3e1bfa74	0.15232259
134	0x3dffbe00	0.124874115
135	0x3e4ca48c	0.19984645
136	0x3e89640c	0.26834142
137	0xbe6e0adb	-0.23246329
138	0xbe8f209c	-0.27954566
139	0xbeb15270	-0.34633207
140	0x3e0eca38	0.13944328
141	0x3e8b4af0	0.2720561
142	0xbd6a6878	-0.057228535
143	0x3de3b658	0.11118764
144	0x3ec42a90	0.38313723
145	0xbea725f7	-0.32646152
146	0x3c9881b0	0.018616527
147	0xbe590cee	-0.21196339
148	0x3e8e22e0	0.27760983
149	0xbc4a9220	-0.0123639405
150	0x3e8d562a	0.276048
151	0x3e0be644	0.13662058
152	0xbd14c020	-0.036316037
153	0xbe9ec324	-0.31008255
154	0x3ec9892e	0.39362472
155	0x3e2f4888	0.17117512
156	0x3ea93808	0.3305056
157	0x3ec1bece	0.37840885
158	0x3e123f18	0.14281881
159	0xbea93275	-0.33046308
160	0xbdb1c984	-0.08681014
161	0x3df87540	0.12131739
162	0x3e2bb6fc	0.16769022
163	0xbeb3e3c0	-0.35134697
164	0xbd6dc778	-0.058051556
165	0xbe8c5360	-0.2740736
166	0xbebed844	-0.37274373
167	0xbd41e508	-0.04733756
168	0x3e258bf8	0.16166675
169	0x3e95d49c	0.2926377
170	0xbe99011e	-0.29883665
171	0xbec9d6f4	-0.3942181
172	0x3d48a100	0.048981667
173	0xbeb6dee6	-0.35716933
174	0xbdfc2358	-0.12311429
175	0x3dd0c1b0	0.10193193
176	0xbea83fac	-0.32861078
177	0x3d380360	0.044925094
178	0xbe08666c	-0.13320321
179	0x3ea09b74	0.313686
180	0x3c8b1700	0.01697874
181	0xbe8bf244	-0.27333272
182	0xbd1a2bd0	-0.03763944
183	0x3ceed7f0	0.029155701
184	0x3e20f8e8	0.1571995
185	0x3e0b4fcc	0.13604659
186	0xbe06203c	-0.13098234
187	0xbea64c84	-0.32480252
188	0x3dc8e7e8	0.098098576
189	0x3ea5afa0	0.32360554
190	0x3eb4c20c	0.35304296
191	0xbea4e573	-0.32206306

embedding.bridge_embedding.bias f4 [32]
0	0x3ea74aca	0.32674247
1	0x3ea37e9c	0.31932533
2	0xbe16bd2a	-0.14720598
3	0x3e976886	0.29571933
4	0xbe195bda	-0.14976445
5	0xbc7a9640	-0.015294611
6	0xbe014838	-0.12625206
7	0xbeba71d2	-0.36414963
8	0x3ec75e24	0.3893901
9	0x3e3efabc	0.18650335
10	0xbe9d82ea	-0.30763942
11	0xbddbdc20	-0.10735345
12	0xbe8d2dbd	-0.27573958
13	0x3e8eaab8	0.27864623
14	0x3ebf58e0	0.37372494
15	0x3e87c342	0.26516157
16	0x3d986588	0.074412405
17	0xbebbf83c	-0.36712825
18	0xbe8e2304	-0.2776109
19	0x3ea9bcc8	0.3315184
20	0x3d02c7c8	0.031928807
21	0x3eb80098	0.35937953
22	0xbed085ee	-0.4072718
23	0x3e792f84	0.24334532
24	0x3df20730	0.11817777
25	0xbba62500	-0.0050703287
26	0xbe093990	-0.13400865
27	0xbe205090	-0.15655732
28	0x3eaf1d0e	0.34201854
29	0x3ecbf6c2	0.398367
30	0x3e3838d0	0.17990422
31	0xbe0c8d24	-0.13725716

embedding.pier_embedding.weight f4 [32, 3]
0	0x3f4c8ebc	0.79905295
1	0xbf87f075	-1.0620257
2	0x3ffbb316	1.9664028
3	0xbe246290	-0.16053224
4	0x3e818d29	0.2530301
5	0xbe8fdd5d	-0.28098574
6	0x3eae0695	0.33989397
7	0x3ef5c0f2	0.47998768
8	0x3f17db39	0.5931888
9	0x3d16d77e	0.036826603
10	0xbeaca49c	-0.33719337
11	0x3eec968e	0.46208614
12	0xbe1c323f	-0.15253542
13	0xbe70074d	-0.23440285
14	0x3d98748c	0.074441046
15	0xbd8d1b86	-0.06890015
16	0xbf8948d0	-1.0725346
17	0x3ecccafd	0.39998618
18	0x3ea93077	0.33044788
19	0xbfea3079	-1.8296043
20	0x3f693c7f	0.91107935
21	0x3d19c48e	0.037540965
22	0xbe269575	-0.16267951
23	0x3ee3792e	0.4442839
24	0x3f85e431	1.0460263
25	0x3f92cf21	1.1469461
26	0xbd333f60	-0.04376161
27	0xbf34dbca	-0.7064787
28	0x3f13abac	0.57683825
29	0xbe61f1e7	-0.22064935
30	0xbe882091	-0.26587346
31	0xc0258a0d	-2.586551
32	0x3fcd3d56	1.6034343
33	0xbe3ca504	-0.18422323
34	0x3f4ccd2a	0.80000556
35	0x3eda6d4c	0.42661512
36	0xbfeb5bb4	-1.838736
37	0x3f4c37b6	0.7977251
38	0x3f7d3117	0.9890303
39	0xbe8fff94	-0.28124678
40	0xc00895e7	-2.1341493
41	0xbe1eb13b	-0.15497296
42	0x3ec052ef	0.37563273
43	0xbf26d1c5	-0.6516383
44	0x3f463c05	0.7743533
45	0x3f89185e	1.0710561
46	0xbf1ea2a8	-0.61966944
47	0x40087f9e	2.1327891
48	0xbf8da83c	-1.1066966
49	0xbdea3b01	-0.11437035
50	0x3f8c2af5	1.095061
51	0x3fd16ffc	1.63623
52	0x3f98adb9	1.1928016
53	0x3f85c305	1.045014
54	0xbfa3d399	-1.279895
55	0x3c97fb3d	0.018552417
56	0xbfa4abfd	-1.2864987
57	0x3f023a72	0.5087043
58	0x3fd8bfee	1.6933572
59	0x3fae1984	1.3601537
60	0xbfbeec55	-1.4915873
61	0xbee98bcf	-0.45614478
62	0xbfc74947	-1.5569237
63	0xbcafb2dc	-0.021447591
64	0x3eb89672	0.3605228
65	0xbf07fef1	-0.53123385
66	0x3f50fa71	0.81632143
67	0xbeb5c54c	-0.35502088
68	0xbff120c0	-1.883812
69	0xbef67eef	-0.48143718
70	0x3d7f6f44	0.06236197
71	0x3e1c8d20	0.1528821
72	0xc009ed0a	-2.1550927
73	0x3e788fe5	0.24273641
74	0x3f7094af	0.93976873
75	0xbff052f8	-1.877532
76	0xbf5418fb	-0.8285062
77	0xbf44ff44	-0.76952004
78	0x3eb00e79	0.34386042
79	0xbeccd1e7	-0.40003893
80	0xbef7f18c	-0.48426473
81	0xbf15066b	-0.5821292
82	0x3fe89d39	1.817298
83	0xbff14396	-1.884875
84	0x3fe8f4d6	1.8199718
85	0x3f2102a8	0.6289468
86	0xbebfe5dd	-0.3748006
87	0x3f48aff1	0.78393465
88	0xbeee6dd4	-0.46568167
89	0xbfa999a8	-1.3250017
90	0x3fa4b1aa	1.2866719
91	0x3f86e742	1.0539324
92	0xbf32fd3f	-0.6991767
93	0x3f179c1a	0.5922257
94	0x3f750d83	0.9572374
95	0x3f93eac6	1.1556022

embedding.pier_embedding.bias f4 [32]
0	0xbfbf21da	-1.4932206
1	0xbe1d95d4	-0.15389186
2	0x3ecc55e9	0.39909294
3	0x3ef0bae1	0.47017577
4	0x3ddb7c0c	0.107170194
5	0xbe152b9e	-0.1456742
6	0xbf21ac12	-0.63153183
7	0x3e89b90a	0.26898986
8	0xbf790277	-0.97269386
9	0x3f6c39bb	0.9227559
10	0x3f59f285	0.8513568
11	0xbef09c64	-0.46994317
12	0xbef13ee5	-0.47118297
13	0xbf7947b1	-0.9737502
14	0xbefd12a3	-0.4942828
15	0xbf0afd20	-0.5429249
16	0x3f178ca3	0.5919897
17	0xbec7d99a	-0.39033204
18	0x3e86caa8	0.2632649
19	0xbf09fa7f	-0.5389785
20	0xbf541c75	-0.8285592
21	0xbf822004	-1.016602
22	0x3f97b685	1.1852576
23	0xbf96d262	-1.1782954
24	0xbe6414e8	-0.222736
25	0x3f026eee	0.50950515
26	0xbee86fdd	-0.45397845
27	0x3e18569b	0.14876787
28	0x3d312bf6	0.043254815
29	0xbf27652d	-0.65388757
30	0x3fa02489	1.251115
31	0x3ed402d8	0.4140842

out.feature_out.layers.0.weight f4 [32, 32]
0	0x3ea66f4f	0.32506797
1	0x3e568c40	0.20951939
2	0x3edab146	0.42713374
3	0xbe371320	-0.1787839
4	0xbd2a959c	-0.041646585
5	0xbdb82395	-0.08991162
6	0x3d29f672	0.041494794
7	0x3f19f159	0.6013389
8	0xbdca353b	-0.09873434
9	0xbe25bff3	-0.16186504
10	0x3e681391	0.22663714
11	0x3d75101b	0.059829812
12	0x3e50f627	0.204064
13	0x3ec86835	0.39142004
14	0xbe970e39	-0.2950304
15	0x3db55008	0.088531554
16	0xbeaff682	-0.34367758
17	0x3cf56b80	0.029958487
18	0xbedcbb19	-0.43111494
19	0xbeafb52a	-0.34317905
20	0xbde737b0	-0.112899184
21	0x3dd65f13	0.10467353
22	0x3e2ad49a	0.16682664
23	0xbd81b02f	-0.063324325
24	0x3d8d4d3c	0.06899497
25	0x3ef92574	0.48661387
26	0xbe8b0f5a	-0.2716015
27	0xbc81895f	-0.015812574
28	0xbe76d231	-0.24103619
29	0x3efc877d	0.4932212
30	0xbe4cc384	-0.19996458
31	0x3e554e4b	0.20830648
32	0xbcdbe6b3	-0.026843404
33	0x3de8a5c4	0.11359742
34	0x3e0f19b5	0.1397465
35	0xbe5f6ff6	-0.21820053
36	0x3b812e2f	0.003942273
37	0x3f107b4e	0.5643815
38	0xbd1f0f7c	-0.038833126
39	0xbe87e1a5	-0.2653934
40	0xbd655917	-0.055993166
41	0x3e809b0c	0.2511829
42	0xbda83e66	-0.082150266
43	0xbd00a837	-0.031410422
44	0xbdd9fd71	-0.10644043
45	0xbe53eeaf	-0.2069652
46	0xbe867aed	-0.2626566
47	0xbd9d7e8c	-0.076901525
48	0xbe926da6	-0.2859928
49	0xbe10857f	-0.14113425
50	0x3efbb1d3	0.49159107
51	0xbeadd3e1	-0.33950713
52	0xbde7f3ce	-0.11325799
53	0x3bb0cc8f	0.005395479
54	0xbd216567	-0.039403345
55	0xbeb97f59	-0.3622997
56	0x3e04d472	0.12971666
57	0xbe9815b2	-0.29704052
58	0x3e99c737	0.300348
59	0x3f223760	0.63365746
60	0xbe01b9fd	-0.12668605
61	0xbe56dcd6	-0.2098268
62	0x3e8ff088	0.28113198
63	0x3d6c4308	0.057681113
64	0xbd578e47	-0.05262592
65	0x3ec56c79	0.3855932
66	0x3d0a7f3a	0.03381274
67	0xbe4fb407	-0.20283519
68	0x3d94dcc5	0.07268671
69	0xbe858057	-0.26074478
70	0xbe581ba3	-0.21104293
71	0x3d16c13a	0.03680537
72	0x3f129f99	0.57274777
73	0x3dceed86	0.10103898
74	0xbea7c1b3	-0.32764968
75	0x3ec0b5e5	0.37638775
76	0x3d439e49	0.047758374
77	0x3de9fb3d	0.11424873
78	0x3d346291	0.044039313
79	0xbd306672	-0.04306645
80	0xbe32141f	-0.17390488
81	0xbda8920c	-0.08230981
82	0x3df169a4	0.117877275
83	0xbeb4ca60	-0.3531065
84	0xbedc7c18	-0.43063426
85	0xbcb8d3df	-0.022561966
86	0x3e1b42d4	0.15162212
87	0x3ebc8e07	0.36827108
88	0xbe076122	-0.13220647
89	0x3e7abe99	0.2448677
90	0x3e8cee4f	0.27525565
91	0x3ed246d6	0.4106967
92	0xbed2ebc2	-0.41195494
93	0x3edda9b9	0.4329355
94	0xbe081384	-0.13288695
95	0x3e4b6fbe	0.19866845
96	0xbe77a0ca	-0.2418243
97	0xba812424	-0.000985269
98	0x3ed162d3	0.4089571
99	0xbe828e3e	-0.25499147
100	0xbecc6a43	-0.3992482
101	0xbdd80709	-0.10548217
102	0x3e20321e	0.15644118
103	0x3e2ea591	0.17055346
104	0x3f1e5dfe	0.6186217
105	0x3f0c241f	0.54742616
106	0xbf4612f2	-0.7737266
107	0xbc24f79b	-0.010068799
108	0xbe3eb256	-0.18622717
109	0x3dd97cf9	0.1061954
110	0xbf0e20a5	-0.5551856
111	0xbe697fa8	-0.22802603
112	0x3dea3564	0.11435965
113	0x3d7896d6	0.060690723
114	0x3d3bfa97	0.045893278
115	0x3c58fd25	0.013243948
116	0x3e5cfeed	0.21581621
117	0xbc2c9be0	-0.01053521
118	0x3c695211	0.014240758
119	0x3e0beb5f	0.13664006
120	0xbce2ac99	-0.027670192
121	0x3da204ce	0.07911073
122	0x3bbccefb	0.0057619787
123	0x3cdf41d8	0.027253076
124	0x3d2482cd	0.040163804
125	0x3f049816	0.51794565
126	0x3df5beb9	0.11999268
127	0x3ce5d087	0.028053535
128	0x3ea6804e	0.32519764
129	0x3d7bde29	0.061491165
130	0x3f2a1195	0.6643308
131	0x3d91b539	0.071146436
132	0x3e30e4f4	0.17274839
133	0xbd9b0dce	-0.075709924
134	0x3c917041	0.017753722
135	0xbda298bc	-0.07939288
136	0xbe66a1ee	-0.22522709
137	0x3dffc353	0.12488427
138	0x3e05d443	0.13069253
139	0xbdc2c98e	-0.095111
140	0xbeb152cb	-0.3463348
141	0x3ed8d052	0.42346436
142	0x3e65b36c	0.22431725
143	0xbc3c969c	-0.011510517
144	0x3e1ba0d1	0.15198065
145	0xbe0f22de	-0.13978145
146	0x3ec57438	0.3856523
147	0x3cbc1fdb	0.022964409
148	0x3f34e642	0.70663846
149	0xbe99644c	-0.29959333
150	0x3e11e3bc	0.1424703
151	0xbe02b637	-0.12764822
152	0x3e275cc4	0.16343981
153	0x3ed2f828	0.41204953
154	0xbd8aa26e	-0.06769262
155	0x3f124461	0.5713559
156	0x3c705ba4	0.014670286
157	0xbdfd75b9	-0.123759694
158	0x3e57b6e0	0.21065855
159	0xbe9de402	-0.3083802
160	0xbefc6f88	-0.49303842
161	0xbe33b634	-0.17549974
162	0x3ddaa8f3	0.10676756
163	0xbe47364e	-0.1945431
164	0xbea6f461	-0.3260832
165	0xbe2e460d	-0.1701891
166	0xbe87a386	-0.26491946
167	0x3d981f21	0.07427812
168	0x3e02d276	0.12775597
169	0xbd7197ae	-0.058982544
170	0xbb83147d	-0.004000245
171	0x3ecef313	0.40419826
172	0x3e8450d2	0.2584291
173	0x3efbe5f0	0.49198866
174	0xbdb3a165	-0.08771018
175	0xbe8124e4	-0.25223458
176	0x3ed22c2b	0.41049322
177	0xbe332e3e	-0.17498109
178	0xbe914cd8	-0.2837894
179	0xbc886e6f	-0.016654221
180	0xbdc420ab	-0.095765434
181	0x3d713064	0.05888404
182	0xbf149df7	-0.58053535
183	0x3d067a93	0.03283174
184	0xbe5322a1	-0.20618679
185	0x3ed1bd42	0.40964705
186	0x3e4caf50	0.19988751
187	0x3e0f5dc5	0.14000614
188	0x3ea7f14e	0.32801288
189	0x3ed31f2a	0.41234714
190	0x3d6b15cb	0.05739383
191	0xbe47ba95	-0.19504769
192	0xbe079772	-0.13241366
193	0x3ea120db	0.3147038
194	0xbc756a55	-0.014978965
195	0xbda9e741	-0.08296061
196	0x3de3181f	0.11088585
197	0x3e37e25e	0.17957446
198	0xbde6bd59	-0.11266584
199	0xbe8f3d59	-0.27976492
200	0xbe785fd6	-0.24255309
201	0x3c960fd4	0.018318094
202	0xbedf507c	-0.43616092
203	0x3e450da9	0.19243492
204	0xbe66410e	-0.22485754
205	0x3ebbc191	0.36671117
206	0xbe8a26d0	-0.26982737
207	0x3c3a6c3e	0.011378346
208	0xbd3e9638	-0.04652998
209	0xbe25e206	-0.16199502
210	0xbce88957	-0.028385801
211	0xbe6694a6	-0.22517642
212	0xbd96f539	-0.07370991
213	0xbd5e77f6	-0.054313622
214	0xbec5ccf6	-0.38632935
215	0x3eb91a46	0.36152858
216	0x3ea8ddcf	0.32981727
217	0xbea3e6d7	-0.32012054
218	0x3ebebaec	0.37251985
219	0xbe8031af	-0.25037906
220	0xbe700340	-0.2343874
221	0xbd2d5f74	-0.04232736
222	0xbeb0c32d	-0.34523907
223	0xbe84f0e0	-0.25965023
224	0x3e91602a	0.2839368
225	0xbf193981	-0.5985337
226	0x3d5fb875	0.05461927
227	0xbf118694	-0.56845975
228	0x3d9ae498	0.07563132
229	0xbe4994ca	-0.19685665
230	0x3dd5a3d9	0.10431642
231	0x3e885d61	0.26633742
232	0xbe181fb5	-0.14855845
233	0x3d908cfe	0.07058142
234	0x3e7b5ac6	0.24546346
235	0x3e422563	0.18959574
236	0xbe936df4	-0.28794825
237	0x3ce08aaa	0.02740987
238	0x3e02a7b8	0.12759292
239	0xbd8257ba	-0.06364389
240	0x3d26e7a3	0.04074825
241	0xbe47b509	-0.19502653
242	0x3dce755e	0.1008098
243	0x3ea7a5fe	0.3274383
244	0xbe176cb0	-0.14787555
245	0xbdfc85b3	-0.123301886
246	0x3ca5ee2d	0.020255173
247	0xbea932a7	-0.33046457
248	0xbb9e94d4	-0.004839519
249	0x3e268aae	0.1626384
250	0x3e18167d	0.14852329
251	0xbe180e47	-0.14849196
252	0xbe23359f	-0.15938424
253	0xbec9bd11	-0.3940206
254	0xbe6a4ed3	-0.22881632
255	0xbdcb88d7	-0.099382095

out.feature_out.layers.0.bias f4 [32]
0	0xbf589834	-0.84607244
1	0xbfc0a6bb	-1.5050882
2	0xc030476a	-2.7543588
3	0xbfd42c89	-1.6576091
4	0xbf82739e	-1.0191534
5	0xbfe30d0d	-1.7738358
6	0xbfac23c5	-1.3448416
7	0x3ec3033a	0.380884
8	0xbec97a80	-0.39351273
9	0xbecdf59b	-0.40226445
10	0xbfe23817	-1.7673367
11	0xbeee0980	-0.46491623
12	0xbffc5805	-1.9714361
13	0xbff070f1	-1.8784467
14	0xbef13537	-0.47110912
15	0xbf93d69d	-1.154987
16	0xc025ecfd	-2.5925896
17	0xbfef7259	-1.8706771
18	0xbfa5f8f1	-1.2966596
19	0xbf18d200	-0.59695435
20	0xbe453732	-0.19259337
21	0xbfa28dcb	-1.2699522
22	0xbe939ed9	-0.2883213
23	0xbec24553	-0.37943515
24	0xbadd6a89	-0.0016892712
25	0xbf4faf00	-0.81126404
26	0xc002fa49	-2.0465262
27	0xbf5ab0f8	-0.8542628
28	0xbea50926	-0.32233542
29	0xbff1fb7a	-1.890487
30	0x3f1ce6aa	0.61289465
31	0xbed9394e	-0.42426533

out.feature_out.layers.2.weight f4 [32, 32]
0	0xbef2e511	-0.4744039
1	0xbf938718	-1.1525602
2	0x3e7962a6	0.24354038
3	0xbd0c6aae	-0.034281425
4	0x3f01242f	0.50445837
5	0x3ed24e53	0.41075382
6	0x3e741f3a	0.23840037
7	0x3ea13965	0.314891
8	0x3ec13802	0.37738043
9	0x3e4d68ea	0.20059553
10	0xbf049986	-0.5179676
11	0x3e6ceafc	0.23136514
12	0xbe84b030	-0.2591567
13	0xbf05563b	-0.520847
14	0x390f4b54	0.00013665605
15	0xbe9cb20d	-0.30604592
16	0xbe949b8d	-0.29024926
17	0xbdded349	-0.10880143
18	0x3e282d57	0.16423546
19	0x3eae705c	0.34070098
20	0x3cc07322	0.0234924
21	0x3e845a76	0.25850266
22	0xbe5179c4	-0.20456606
23	0xbe89a71b	-0.26885304
24	0xbdca0b7a	-0.0986547
25	0xbf3b393f	-0.73134226
26	0xbe84b243	-0.25917253
27	0xbd5820f9	-0.05276582
28	0xbf21d2a3	-0.6321203
29	0x3e06c6cd	0.13161774
30	0x3e5dc0c6	0.21655568
31	0xbe107d8a	-0.1411039
32	0xbee16070	-0.44018888
33	0x3dfe5f53	0.124205254
34	0x3d873a13	0.06602874
35	0xbeb6e18e	-0.3571896
36	0xbd7c22b3	-0.06155653
37	0xbf8c9af2	-1.0984786
38	0xbf7cce29	-0.98752075
39	0xbef48269	-0.47755745
40	0xbe98ce2f	-0.29844806
41	0x3e1837c3	0.14865021
42	0xbe9509ed	-0.29109135
43	0x3ef22f98	0.47301936
44	0xbf032beb	-0.5123889
45	0xbe8c64cf	-0.2742066
46	0x3f04e180	0.51906586
47	0xbedbdca0	-0.4294176
48	0xbea835fc	-0.32853687
49	0xbe0a93aa	-0.13532892
50	0x3ec0a41d	0.37625208
51	0xbe96248f	-0.29324767
52	0xbf5975fa	-0.8494564
53	0xbee098d8	-0.4386661
54	0x3d45b0d9	0.04826436
55	0xbf210d18	-0.62910604
56	0x3f60326e	0.8757695
57	0xbf176db9	-0.591518
58	0x3e175c37	0.14781271
59	0xbf24d89d	-0.64393026
60	0xbf6d626f	-0.9272832
61	0x3e1a6ccd	0.15080567
62	0x3c6f13dd	0.014592138
63	0x3da94190	0.08264458
64	0xbe82b4db	-0.25528607
65	0xbf667dcd	-0.90035707
66	0xbe61b808	-0.22042859
67	0x3e50464e	0.20339319
68	0x3d2e035b	0.04248367
69	0xbdef4556	-0.11683147
70	0xbe0ffd42	-0.14061454
71	0x3e1b535f	0.15168522
72	0x3eae04b1	0.33987954
73	0xbd814676	-0.063122675
74	0xbedaad1e	-0.42710203
75	0x3d002627	0.031286385
76	0x3e206536	0.15663609
77	0x3da3e16e	0.08001982
78	0x3d115633	0.035482597
79	0xbefbea8b	-0.4920238
80	0x3e472a60	0.19449759
81	0xbed690ba	-0.41907293
82	0x3ebeda7f	0.37276074
83	0xbe8a5ea0	-0.27025318
84	0xbe30d2ee	-0.17267963
85	0xbe051f69	-0.13000263
86	0xbe8249cf	-0.25446936
87	0xbe23cc58	-0.1599592
88	0x3e803b57	0.25045273
89	0x3ca7dcdf	0.020491062
90	0x3e4b3323	0.19843726
91	0xbcf17baa	-0.029477913
92	0xbd8cf8bc	-0.0688338
93	0xbe17ea49	-0.14835466
94	0x3c956e9d	0.018241221
95	0xbb9e1632	-0.004824423
96	0x3e2d3831	0.16915967
97	0x3af4a35b	0.0018664406
98	0xbef69fff	-0.48168942
99	0x3d91ba98	0.07115668
100	0x3d93c133	0.07214584
101	0xbe86b34e	-0.26308674
102	0x3f11421b	0.56741494
103	0xbd85c249	-0.065311976
104	0x3e04a76f	0.12954496
105	0x3e1d8b0e	0.15385076
106	0xbe46a49c	-0.19398731
107	0x3e84e92d	0.2595915
108	0x3c0995c7	0.008397526
109	0x3e2dde0e	0.16979238
110	0xbe4b05b9	-0.19826402
111	0x3d86bf1e	0.065794215
112	0x3dc079d0	0.09398234
113	0x3d8122f7	0.06305497
114	0x3e08cb24	0.13358742
115	0xbdcf6d61	-0.10128284
116	0xbf16ff2d	-0.5898312
117	0xbee091ff	-0.43861386
118	0x3ea1e3a7	0.31618997
119	0xbe1a980b	-0.15097062
120	0xbc42ca57	-0.011889062
121	0xbe0db6a3	-0.13839202
122	0x3cc8d6d3	0.024516499
123	0x3e4b9726	0.19881877
124	0x3dbe7617	0.092998676
125	0x3ebcc42d	0.3686842
126	0x3d8ecc43	0.069725536
127	0xbe0013be	-0.12507531
128	0xbf06e747	-0.5269665
129	0xbfa2a228	-1.2705736
130	0x3da993cf	0.082801454
131	0x3efbd250	0.49183893
132	0xbeaefa5c	-0.34175384
133	0x3e14e021	0.14538623
134	0xbcd421fc	-0.025895111
135	0xbdd3baf5	-0.103383936
136	0x3e5e57ab	0.2171313
137	0xbd256f54	-0.040389374
138	0xbf948903	-1.1604313
139	0xbe851411	-0.25991872
140	0xbedd9536	-0.432779
141	0x3e59f86d	0.21286173
142	0xbe631b09	-0.22178282
143	0xbe2a9775	-0.16659339
144	0x3b8a69e5	0.0042240494
145	0x3eb1e358	0.34743762
146	0xbea82319	-0.32839277
147	0xbe8a897d	-0.2705802
148	0xbf32aabb	-0.69791764
149	0xbf1e197f	-0.61757654
150	0x3ed5469b	0.4165543
151	0x3e961d01	0.29319003
152	0x3edf6892	0.43634468
153	0xbfc2c3ef	-1.5216044
154	0x3eb70e1c	0.35752952
155	0xbe99ba23	-0.30024824
156	0xbcc83c3a	-0.02444278
157	0x3e8f262f	0.2795882
158	0xbd1ab7c1	-0.037772898
159	0xbf39795e	-0.72450817
160	0x3ddda235	0.10821954
161	0xbeaa11a6	-0.3321659
162	0x3b70fe09	0.003677251
163	0xbe41353e	-0.18867967
164	0x3d3ab51f	0.045582887
165	0xbdfa3b7a	-0.122183755
166	0xbd453d06	-0.0481539
167	0x3db8f642	0.09031345
168	0x3d042ee5	0.032271285
169	0xbf006cae	-0.5016583
170	0x3da620dd	0.08111737
171	0x3e67b836	0.22628865
172	0x3e48f1ac	0.1962344
173	0x3d70bcbd	0.058773745
174	0xbea18fc6	-0.31555003
175	0x3e2e6f2c	0.17034596
176	0x3ea5d890	0.32391787
177	0x3e1a7e80	0.15087318
178	0xbe070322	-0.13184789
179	0xbd0e8bb7	-0.03480121
180	0x3ea77e75	0.32713667
181	0xbba15eff	-0.0049246545
182	0x3ce42609	0.027850168
183	0x3e619da2	0.22032788
184	0xbd8a13b6	-0.06742041
185	0xbe9ed572	-0.3102222
186	0x3d3dc9f7	0.046335187
187	0x3eae3c22	0.34030253
188	0x3db6f2ff	0.089330666
189	0x3ea1c1df	0.31593224
190	0xbee1d653	-0.4410883
191	0xbed312a2	-0.41225153
192	0x3eb412b0	0.35170507
193	0xbe5008e0	-0.20315886
194	0xbeabcbdd	-0.33553973
195	0xbeaaa079	-0.33325556
196	0xbe1a5070	-0.15069747
197	0xbeb24094	-0.34814894
198	0x3e08333b	0.13300793
199	0xbdc2e1b3	-0.09515705
200	0xbe801e7d	-0.2502326
201	0xbe353456	-0.17695746
202	0xbe337eb4	-0.17528802
203	0xbee8fe99	-0.45506743
204	0xbee3f196	-0.44520253
205	0xbe985882	-0.29755026
206	0xbdcffafb	-0.101552926
207	0xbeda70e2	-0.42664248
208	0xbf090aa1	-0.53531843
209	0xbe3d503e	-0.18487641
210	0x3e4ca475	0.1998461
211	0x3b91ce97	0.0044496763
212	0xbe196718	-0.14980733
213	0x3d0de6d8	0.034643978
214	0x3e8c2100	0.27368927
215	0x3f00a053	0.50244635
216	0xbf143430	-0.5789213
217	0x3e0f81d1	0.14014365
218	0x3e872ffc	0.26403797
219	0x3eb9d376	0.36294144
220	0xbf141920	-0.5785084
221	0x3e8e8a7e	0.27840036
222	0x3c9c323b	0.01906692
223	0xbdff489d	-0.12465022
224	0xbe33a504	-0.17543417
225	0xbec70a35	-0.38874975
226	0x3db87b71	0.090079196
227	0xbec15a2c	-0.37764108
228	0xbf2d4b09	-0.6769262
229	0xbde97e92	-0.114010945
230	0x3e4f6bbb	0.2025594
231	0xbe283b68	-0.16428912
232	0xbcdff32e	-0.027337637
233	0xbdcb6a39	-0.0993237
234	0xbd0baf10	-0.0341025
235	0xbedf0a07	-0.43562338
236	0x3d4a504c	0.049392983
237	0xbdf714d4	-0.120645195
238	0xbe5f6b67	-0.21818314
239	0x3eab6f21	0.33483222
240	0x3db93e60	0.090451
241	0x3da3c901	0.07997323
242	0x3d537fb3	0.051635455
243	0xbe97c686	-0.2964365
244	0xbe0361a5	-0.12830217
245	0x3e639920	0.22226381
246	0x3e79a2ad	0.24378462
247	0xbe9147c2	-0.2837506
248	0xbeb30629	-0.34965637
249	0xbe8d81ff	-0.27638242
250	0x3d65c3ca	0.056094922
251	0xbd2072fc	-0.039172158
252	0x3eca535b	0.3951672
253	0xbdd35328	-0.10318595
254	0xbeba370e	-0.36370128
255	0xbda4c5f4	-0.08045569

out.feature_out.layers.2.bias f4 [32]
0	0xbfa248ae	-1.267843
1	0x3f3c58e3	0.7357313
2	0x3f2120bc	0.62940574
3	0xbf80eefb	-1.0072931
4	0x3f92d0b5	1.1469942
5	0x3f63ca46	0.8898052
6	0x3f957f02	1.1679385
7	0x3fd441bb	1.6582559
8	0x3f452e62	0.770239
9	0xbd7a3e81	-0.061094765
10	0xbf9f1bdd	-1.2430378
11	0xbfb7d07e	-1.4360502
12	0x3f27c665	0.655371
13	0xbf82704d	-1.0190521
14	0x3e2cdd49	0.16881289
15	0x3f96103e	1.1723707
16	0xbf0fbd75	-0.56148463
17	0x3e8e9988	0.2785151
18	0x3e90b314	0.28261626
19	0xbeff88c3	-0.49909028
20	0xc0149d4f	-2.3221014
21	0x3f8031f5	1.0015246
22	0xbf124282	-0.5713273
23	0xbfbf2605	-1.4933478
24	0xbfe9df0d	-1.8271195
25	0xbf1b1a8a	-0.6058737
26	0x3d236989	0.039895568
27	0x3fb3ba95	1.4041315
28	0xbf030eb1	-0.5119429
29	0xbd1c4046	-0.038147233
30	0x3faff6bf	1.3747176
31	0x3e996fe8	0.2996819

out.feature_out.layers.4.weight f4 [32, 32]
0	0x3e564088	0.20923054
1	0xbf97aff4	-1.1850572
2	0xbe053379	-0.13007917
3	0x3eaf9dd7	0.3430011
4	0x3e395124	0.18097359
5	0xbd7a904f	-0.06117278
6	0x3d47a772	0.048743673
7	0xbdca9ffe	-0.09893797
8	0xbf0853a1	-0.5325261
9	0xbb696892	-0.0035615307
10	0xbec23e7c	-0.37938297
11	0xbfccbc2d	-1.5994927
12	0xbed89850	-0.42303705
13	0xbf223226	-0.6335777
14	0xbdb99727	-0.09062033
15	0xbf048ea4	-0.5178015
16	0xbf28661b	-0.657808
17	0xbf040f66	-0.51585996
18	0xbfa5ec39	-1.2962714
19	0xbebd0745	-0.3691961
20	0xbeea8d50	-0.45810938
21	0x3e3d376c	0.18478173
22	0x3df247a9	0.11830074
23	0x3e3bff1d	0.18359037
24	0xbe227bf2	-0.15867594
25	0xbd8afe8e	-0.06786834
26	0xbb42f444	-0.0029747644
27	0xbd55a589	-0.05215982
28	0x3f0b87fe	0.5450438
29	0x3d0e8031	0.03479022
30	0x3e2800e4	0.1640659
31	0xbeb21b1f	-0.34786317
32	0x3dfac265	0.12244109
33	0xbd0e8b21	-0.034800652
34	0xbe8aff0a	-0.27147704
35	0xbd61e53c	-0.055150256
36	0xbe06580e	-0.13119528
37	0xbdef9560	-0.11698413
38	0xbe84a337	-0.25905773
39	0xbe3d7ac5	-0.18503864
40	0xbe00c6f6	-0.12575898
41	0x3e54e5e2	0.20790818
42	0x3e3d7ee6	0.18505439
43	0x3d49602a	0.049163975
44	0xbe17e807	-0.14834605
45	0x3dc168c8	0.094438136
46	0xbd93b99c	-0.072131366
47	0x3e36184d	0.17782708
48	0xbebebcef	-0.3725352
49	0x3d1251ea	0.03572265
50	0x3e7f733f	0.24946307
51	0x3e416521	0.18886234
52	0xbd2964b8	-0.04135582
53	0x3e25927f	0.16169165
54	0x3da71463	0.08158185
55	0x3e14ad22	0.1451917
56	0x3c5588fa	0.013033146
57	0xbdfe9bb6	-0.12432043
58	0xbd115dc0	-0.035489798
59	0x3ea9f420	0.33194065
60	0x3d756da5	0.05991902
61	0xbd5ba072	-0.05361981
62	0xbdb01710	-0.08598149
63	0xbd86051a	-0.06543942
64	0x3eda2255	0.42604318
65	0xbdc3acb4	-0.09554425
66	0xbe01a04f	-0.12658809
67	0x3e20d926	0.15707836
68	0xbeb82825	-0.35968128
69	0x3d83e342	0.0643983
70	0xbd81daf6	-0.063405916
71	0xbe9610a2	-0.29309565
72	0xbf3cd034	-0.7375519
73	0x3de15d68	0.11004144
74	0x3e22f248	0.15912735
75	0x3eb582e2	0.35451418
76	0x3ddea5ac	0.10871443
77	0xbe60d030	-0.21954417
78	0xbecd0e1c	-0.40049827
79	0x3deaeb48	0.114706576
80	0xbd906a27	-0.07051497
81	0x3dca4307	0.09876066
82	0xbe2e6013	-0.17028837
83	0xbd0981e7	-0.03357115
84	0x3e6438bd	0.22287269
85	0xbe33d709	-0.17562498
86	0xbdc793ca	-0.097449854
87	0xbe8752f1	-0.26430467
88	0x3e64fe90	0.22362733
89	0xbed18d90	-0.40928316
90	0xbef11f87	-0.47094366
91	0xbed364e1	-0.41287902
92	0x3dba4698	0.09095496
93	0xbe045025	-0.12921198
94	0xbe832b39	-0.25618914
95	0xbe038e0c	-0.12847155
96	0x3c80d18a	0.015724916
97	0xbe593d98	-0.21214902
98	0x3ec60dd7	0.38682434
99	0x3e0963d1	0.13416983
100	0x3d671920	0.056420445
101	0xbd0c8242	-0.03430391
102	0x3d4c1ed3	0.049834084
103	0xbed7a14e	-0.42115253
104	0xbe53a8b1	-0.2066982
105	0xbf5ac664	-0.8545897
106	0xbe0e8443	-0.13917641
107	0xbf0bcd85	-0.5461047
108	0x3ddb180b	0.10697945
109	0xbf5398b0	-0.8265486
110	0xbef7ef3d	-0.48424712
111	0xbe188394	-0.14893943
112	0x3db3f91a	0.08787747
113	0xbd7255b3	-0.05916376
114	0x3c45ac3a	0.012064988
115	0xbdab2a97	-0.08357733
116	0xbc40e13e	-0.011772452
117	0xbf1f376e	-0.62193954
118	0xbebf330f	-0.37343642
119	0xbe75e2f3	-0.24012356
120	0x3e58127e	0.21100804
121	0xbe9dabad	-0.3079504
122	0x3eae7144	0.3407079
123	0x3ea2e92a	0.31818515
124	0xbe223f74	-0.15844518
125	0xbd28c0e3	-0.041199576
126	0x3e4fdcd0	0.20299077
127	0xbe4ec4db	-0.20192282
128	0xbe6fe43e	-0.23426911
129	0xbe0eb76e	-0.1393716
130	0x3e26decc	0.16295928
131	0xbe583ea1	-0.21117641
132	0xbe89ed1b	-0.2693871
133	0x3d734718	0.059393972
134	0xbf0a94d9	-0.54133373
135	0xbed9ebd3	-0.42562732
136	0xbe0bb4fd	-0.1364326
137	0x3dd82b05	0.1055508
138	0xbdaf8fad	-0.08572326
139	0xbee55285	-0.4478952
140	0x3e2d6711	0.16933848
141	0xbea9b11f	-0.33142945
142	0xbe795eb3	-0.24352531
143	0xbd44dc23	-0.0480615
144	0xbf466c56	-0.7750906
145	0x3e904add	0.28182116
146	0x3da6447f	0.08118533
147	0x3e8f627f	0.28004834
148	0x3e84390d	0.25824776
149	0xbd89178c	-0.06693944
150	0x3ba2bf76	0.0049666716
151	0xbe6e3b37	-0.23264776
152	0xbe4689d3	-0.19388513
153	0xbef9cb50	-0.48787928
154	0xbd84a319	-0.06476421
155	0x3e27845e	0.16359088
156	0xbe134a38	-0.14383781
157	0x3e94a430	0.29031515
158	0x3dc8d7fc	0.09806821
159	0xbc108157	-0.0088198995
160	0x3eb293eb	0.34878477
161	0x3f4a0bd9	0.7892433
162	0xbf148073	-0.580085
163	0xbf0649dd	-0.52456456
164	0x3e32608f	0.17419647
165	0xbf530735	-0.8243287
166	0x3ea9e0b6	0.33179253
167	0xbe7909bf	-0.24320124
168	0x3e09ab6e	0.13444301
169	0x3d7e9af5	0.062159497
170	0xbe7ea9ea	-0.24869505
171	0xbcda453d	-0.026644344
172	0x3ec64156	0.38721722
173	0x3e3162dd	0.1732287
174	0xbf48edc3	-0.78487796
175	0xbea6dd0b	-0.32590517
176	0x3d835d90	0.0641433
177	0xbdff5e72	-0.12469186
178	0x3e54d77a	0.20785323
179	0x3dde233b	0.108465634
180	0x3e8596ed	0.2609171
181	0xbf1b5dfa	-0.6069027
182	0x3e0a978f	0.13534378
183	0xbe86d072	-0.26330906
184	0x3e2c1295	0.16803963
185	0xbf6ec5b7	-0.9327044
186	0x3f041e65	0.5160888
187	0xbf3f2e59	-0.74680096
188	0xbf77303a	-0.9655796
189	0xbe91b330	-0.28457022
190	0x3e040d8a	0.1289579
191	0x3e365825	0.17807062
192	0xbe20cba2	-0.1570268
193	0x3d03cb0d	0.032176066
194	0x3e5dd590	0.21663499
195	0x3de8ecf1	0.11373318
196	0x3e68921d	0.22711988
197	0x3d3addf6	0.045621835
198	0x3ea10f0d	0.31456795
199	0xbd1e7d0a	-0.038693465
200	0x3e9e2a18	0.3089149
201	0xbeed6fed	-0.46374455
202	0xbf12a7fa	-0.5728756
203	0xbd1afde1	-0.037839774
204	0x3eca2c54	0.39486945
205	0xbe77c645	-0.24196728
206	0xbc1819d8	-0.009283505
207	0xbf31ff96	-0.6953062
208	0x3d5c028c	0.053713366
209	0x3df8968d	0.1213809
210	0xbe9c6935	-0.30549017
211	0xbdcc434c	-0.09973773
212	0xbd9e7461	-0.07737041
213	0xbe791d93	-0.24327688
214	0xbec3c7f5	-0.38238493
215	0xbe023d06	-0.12718591
216	0x3eb30792	0.34966713
217	0xbeb9955b	-0.36246762
218	0x3e6344a7	0.22194158
219	0xbe801b33	-0.2502075
220	0xbe872581	-0.263958
221	0x3e15b2b9	0.14618959
222	0xbdb6fecb	-0.08935317
223	0xbdf4e9fe	-0.11958693
224	0xbde0d912	-0.10978903
225	0xbe74600b	-0.23864762
226	0x3ba6e309	0.0050929827
227	0x3e118a1b	0.1421284
228	0xbe4cf9fb	-0.20017235
229	0xbedc8b39	-0.43074968
230	0xbe7673c4	-0.24067599
231	0x3e0cf856	0.13766608
232	0x3ec839d1	0.3910661
233	0xbf60d213	-0.8782055
234	0xbe6d1f57	-0.23156486
235	0x3e812bcf	0.25228736
236	0x3eb2d251	0.34926084
237	0x3ea56803	0.32305917
238	0xbeebef6e	-0.46081108
239	0xbe0ae395	-0.13563378
240	0x3f3a49d4	0.727689
241	0xbf13541d	-0.5755022
242	0xbdc7f07a	-0.09762664
243	0xbe8722ea	-0.26393825
244	0xbc52d8e0	-0.01286909
245	0xbdeaabaf	-0.11458527
246	0x3f22233e	0.63335025
247	0xbea04afa	-0.31307203
248	0x3ee45695	0.44597307
249	0x3ce87c86	0.02837969
250	0xbcfb9fe0	-0.030715883
251	0xbdfd2e63	-0.12362363
252	0xbb81668c	-0.003948992
253	0xbe0c2491	-0.13685824
254	0x3e76598c	0.24057597
255	0xbe128951	-0.14310195

out.feature_out.layers.4.bias f4 [32]
0	0x3ea167d7	0.31524536
1	0xbdb255c6	-0.08707766
2	0x3faa24bf	1.3292464
3	0x3f10c74e	0.56554115
4	0x3fa71462	1.3053095
5	0xbf8fd07c	-1.1235499
6	0x3f854967	1.0413026
7	0xbf145745	-0.5794566
8	0xbe66a0c6	-0.22522268
9	0xbf803e18	-1.001895
10	0xbe71b29a	-0.23603287
11	0x3f0f760a	0.5603949
12	0x3f944090	1.1582203
13	0xbe994b4b	-0.29940256
14	0x3fbd8709	1.4806834
15	0x3f0ebbb8	0.55755186
16	0x3f4fa6f5	0.8111413
17	0x3f217fd5	0.6308568
18	0x3f6da381	0.9282761
19	0x3fb58a8c	1.4182906
20	0x3f5789fa	0.8419491
21	0x3f44b868	0.7684388
22	0x3f5356e5	0.82554466
23	0x3e48d27c	0.19611543
24	0x3fc3806b	1.5273565
25	0x3fc95d53	1.5731605
26	0xbda38521	-0.07984377
27	0x3eadb5ef	0.33927867
28	0x3fb7b816	1.4353054
29	0x3ea900c9	0.33008412
30	0x3f16a2d1	0.5884219
31	0x3f6b3ed3	0.9189274

out.feature_out.layers.6.weight f4 [4, 32]
0	0xbcec38c9	-0.028835671
1	0xbcbf094f	-0.023319868
2	0xbe47057c	-0.19435686
3	0xbe6882bd	-0.22706123
4	0xbdfbe25a	-0.122990325
5	0xbe5325ca	-0.20619884
6	0x3c79be4b	0.015243123
7	0x3e13aed8	0.14422166
8	0xbe9888b3	-0.29791793
9	0xbd893ebb	-0.06701418
10	0xbe4fa879	-0.20279111
11	0x3e0e6c40	0.13908482
12	0x3e79ef48	0.24407685
13	0xbdc095ed	-0.09403596
14	0xbd13fce1	-0.036129836
15	0xbd0d6783	-0.034522545
16	0x3e16dd3c	0.14732832
17	0xbe5ea547	-0.21742736
18	0x3e5b7d5c	0.2143454
19	0x3cc45d28	0.023970202
20	0xbd7f76b8	-0.06236908
21	0xbdae9b91	-0.08525766
22	0x3dfd523b	0.123692
23	0x3e27ba20	0.16379595
24	0x3d25131b	0.040301424
25	0x3e75b69f	0.23995446
26	0x3daef2d6	0.08542411
27	0xbcc37b9f	-0.023862658
28	0x3d8ac8d4	0.06776586
29	0xbe5dff4b	-0.21679418
30	0xbd70863e	-0.058721773
31	0xbdb667b4	-0.089064986
32	0x3e30c4b7	0.17262541
33	0xbe0ceb39	-0.13761605
34	0x3db3f7dc	0.0878751
35	0xbc90701d	-0.017631585
36	0xbd9e3a11	-0.07725919
37	0x3d462225	0.048372407
38	0x3e170613	0.14748411
39	0xbde47aab	-0.111562096
40	0xbe6cdc42	-0.23130897
41	0xbd9bde30	-0.07610738
42	0xbe0df4fa	-0.13862982
43	0x3e1c7cf0	0.15282035
44	0xbba000e4	-0.0048829187
45	0xbd0816cf	-0.033224877
46	0x3d361eba	0.044462897
47	0xbdfd4a30	-0.12367666
48	0x3e0ec462	0.13942102
49	0x3e4b71e1	0.1986766
50	0x3d351fcd	0.04421978
51	0x3e666369	0.2249886
52	0xbe39ac37	-0.18132101
53	0x3e442eaa	0.19158426
54	0xbd69f1f5	-0.057115514
55	0x3dd54213	0.10412993
56	0xbdb51f16	-0.0884382
57	0x3e024715	0.12722428
58	0xbe153df2	-0.14574412
59	0x3c4ab604	0.0123724975
60	0x3d79018b	0.060792487
61	0xbd0db645	-0.034597654
62	0x3e13e1f0	0.14441657
63	0x3e55b63b	0.20870297
64	0x3dfc20e9	0.123109646
65	0xbe48be32	-0.19603804
66	0x3e078504	0.13234335
67	0xbcad669a	-0.021167088
68	0x3d118e38	0.03553602
69	0x3d8acb07	0.06777006
70	0x3e2b42a3	0.16724639
71	0xbd0fa08b	-0.035065215
72	0x3e0220dd	0.12707849
73	0x3d627ee1	0.055296782
74	0x3c5de226	0.0135426875
75	0xbd00e3a0	-0.03146708
76	0xbd9fd524	-0.07804325
77	0xbe0aaecf	-0.13543247
78	0xbe53a686	-0.20668992
79	0xbcb87379	-0.022516
80	0xbd35b53d	-0.044362295
81	0xbb94af5b	-0.0045375056
82	0x3d399308	0.045306236
83	0xbde39a8b	-0.11113461
84	0x3e2a873b	0.16653149
85	0xbd1b7fa2	-0.037963517
86	0xbc99ef1e	-0.018790778
87	0xbc548a5b	-0.01297244
88	0x3c94e92f	0.018177597
89	0x3d76a45e	0.060215347
90	0xbd2fbef0	-0.0429067
91	0xbe4b85f0	-0.19875312
92	0x3ca7f96d	0.020504678
93	0xbd4bbc8b	-0.049740355
94	0xbba2d2db	-0.0049689836
95	0x3cebd5fa	0.028788555
96	0xbdb0b3ff	-0.086280815
97	0xbe427355	-0.18989308
98	0xbbf76282	-0.007549585
99	0xbd8d3c71	-0.06896294
100	0x3e4d284b	0.20034902
101	0xbd8e6d39	-0.06954426
102	0xbcaeea45	-0.021351943
103	0xbd071be0	-0.032985568
104	0x3cbde41c	0.02318006
105	0x3e85adc3	0.26109132
106	0x3bdff3fd	0.0068345056
107	0xbd3b0bff	-0.045665737
108	0x3d201173	0.03907914
109	0xbd90a89a	-0.07063408
110	0x3e6bcddb	0.23027746
111	0x3e45a7c7	0.19302283
112	0xbeba3d77	-0.3637502
113	0xbcd6770f	-0.026179818
114	0x3dc6b506	0.09702496
115	0xbd0a97db	-0.033836227
116	0xbc43f357	-0.011959872
117	0xbd6439fd	-0.055719364
118	0x3dffdcbb	0.12493273
119	0x3cfd5715	0.030925313
120	0xbe84aaca	-0.25911552
121	0x3da0f796	0.07859723
122	0xbc56529e	-0.013081221
123	0xbced2ebf	-0.028952954
124	0xbe77c273	-0.2419527
125	0xbcca2d66	-0.02467985
126	0xbd99f7ed	-0.07517991
127	0x3dd69359	0.10477323

out.feature_out.layers.6.bias f4 [4]
0	0x3d5a37a1	0.053275708
1	0x3cb195b3	0.021677827
2	0x3e1cab73	0.15299778
3	0x3d00e879	0.031471703

backbone.backbone.0.blocks.0.conv1.weight f4 [32, 32, 1, 3]
0	0xbf00f1ad	-0.5036877
1	0x3e4d4087	0.20044146
2	0x3e3e88e2	0.18606904
3	0xbe44d4fd	-0.19221874
4	0xbf19fdf8	-0.6015315
5	0x3e152b72	0.14567354
6	0x3e574726	0.21023235
7	0xbeaac4a4	-0.3335315
8	0x3db1ab42	0.08675243
9	0x3e8edd3d	0.27903166
10	0xbdaa2505	-0.08307842
11	0x3e0e72de	0.13911006
12	0x3ec4b3f9	0.38418558
13	0x3e45b58b	0.19307534
14	0xbe916996	-0.28400868
15	0xbeba7ced	-0.36423436
16	0x3e786bc6	0.24259862
17	0x3f0e71f5	0.55642635
18	0xbf0e88b2	-0.5567733
19	0x3e79e48b	0.24403588
20	0x3eb9af57	0.36266586
21	0xbdc31b9c	-0.095267504
22	0x3e229091	0.1587546
23	0x3dfb566b	0.12272342
24	0xbda78ff7	-0.08181756
25	0xbee68923	-0.45026502
26	0xbf15b502	-0.5847932
27	0x3f01bc8c	0.50678325
28	0xbe84fcde	-0.25974172
29	0xbd719edd	-0.058989394
30	0x3df86f7c	0.12130639
31	0x3f569bbf	0.838314
32	0x3ed54562	0.41654497
33	0x3f0d8244	0.55276895
34	0xbf0681ef	-0.5254201
35	0xbd3b2cdb	-0.045697074
36	0x3f221887	0.63318676
37	0x3eb91ca1	0.36154655
38	0xbd7b389c	-0.061333284
39	0x3e2ee633	0.17080002
40	0x3f5fc852	0.8741504
41	0x3f0fda38	0.5619235
42	0xbed0a437	-0.40750286
43	0x3ea4dfd9	0.32202032
44	0x3e840f31	0.2579284
45	0x3ebe96e0	0.37224483
46	0x3f78abb3	0.9713699
47	0x3ed9f97a	0.42573148
48	0xbc71b5ad	-0.014752788
49	0xbf01590b	-0.50526494
50	0xbd44346f	-0.047901567
51	0xbe235637	-0.15950857
52	0xbf1cc7a9	-0.6124216
53	0xbe2d8c50	-0.16948056
54	0xbb501201	-0.0031749012
55	0xbf354be0	-0.708189
56	0xbe0b7b19	-0.13621177
57	0xbe8c2fe0	-0.27380276
58	0xbf32b573	-0.6980812
59	0xbec7affb	-0.3900145
60	0x3f314846	0.69250906
61	0x3f88311c	1.0639987
62	0x3efddf6d	0.49584523
63	0xbc8069ba	-0.015675414
64	0xbd6462a4	-0.055758134
65	0xbe27f10c	-0.16400546
66	0xbd83f33f	-0.0644288
67	0xbe9932cf	-0.29921576
68	0xbab0bc9f	-0.0013483948
69	0x3d6109da	0.054941036
70	0x3e2b9b99	0.16758575
71	0x3e038108	0.1284219
72	0x3ec730fe	0.38904566
73	0x3e664c76	0.22490105
74	0x3de32b56	0.1109225
75	0x3f68032d	0.90629846
76	0x3f129c97	0.5727019
77	0x3e8dd85b	0.2770413
78	0x3ec29272	0.38002354
79	0x3e365d82	0.17809108
80	0x3daca985	0.08430771
81	0x3d9fb9ac	0.07799086
82	0xbfad4763	-1.353741
83	0xbee332db	-0.44374737
84	0x3ec1b40f	0.37832686
85	0x3ebb347e	0.36563486
86	0x3ea376c2	0.31926543
87	0xbf4d4b75	-0.80193263
88	0xbf798589	-0.97469383
89	0xbe8111de	-0.25208944
90	0x3ed9a44d	0.42508164
91	0xbe5c5131	-0.21515347
92	0x3dc430c4	0.09579614
93	0x3f97d21f	1.1860999
94	0x3faa1fb7	1.3290929
95	0x3ebb0f5b	0.36535153
96	0x3e4983e4	0.19679219
97	0x3ea6be43	0.32567033
98	0x3eea6f6c	0.45788133
99	0xbe10ca6f	-0.14139722
100	0xbe9f9ad0	-0.311728
101	0xbe10f9be	-0.14157769
102	0x3db7458b	0.08948811
103	0xbdb5c70a	-0.08875854
104	0xbec69798	-0.38787532
105	0x3ef1e754	0.47246802
106	0x3e49ea91	0.19718386
107	0x3e254436	0.16139302
108	0x3dd21615	0.10258118
109	0x3de5561c	0.11198065
110	0x3d2791e4	0.040910617
111	0xbeae242c	-0.34011972
112	0x3e72189d	0.23642202
113	0x3ee92a03	0.45539865
114	0xbd61a58a	-0.05508951
115	0x3efbf362	0.49209124
116	0x3e80fa5d	0.25191012
117	0x3ee1061e	0.4394998
118	0x3eb82db8	0.3597238
119	0xbb74b14f	-0.003733713
120	0x3f647016	0.8923353
121	0xbebb27c3	-0.36553773
122	0xbe8b11aa	-0.27161914
123	0x3eab50c3	0.33460054
124	0x3e13f9e1	0.1445079
125	0xbf1c4e58	-0.61057043
126	0x3e2ce0c3	0.16882615
127	0x3f814387	1.0098733
128	0x3da2cb7e	0.07948969
129	0x3e780b31	0.24223019
130	0xbdcdb600	-0.10044479
131	0xbef528c3	-0.4788266
132	0xbf014729	-0.50499207
133	0x3f0cbe02	0.5497743
134	0x3c869eea	0.016433198
135	0xbee3330c	-0.44374883
136	0xbe996de0	-0.2996664
137	0x3f61cc26	0.8820213
138	0xbef4436c	-0.4770769
139	0xbdba8109	-0.09106643
140	0x3c1a9174	0.009434093
141	0x3e9a58f4	0.3014599
142	0x3e1364ce	0.14393923
143	0x3d35f5ef	0.044423994
144	0xbf05fb82	-0.52336895
145	0x3e0f86f4	0.14016324
146	0xbeecc4f8	-0.46244025
147	0x3e7c3787	0.24630557
148	0xbee1741a	-0.4403389
149	0xbf411934	-0.7542908
150	0x3e51c734	0.20486146
151	0x3f860d93	1.0472893
152	0x3d3ecf38	0.046584338
153	0xbd6cea4b	-0.057840627
154	0xbf00bde3	-0.50289744
155	0xbece7339	-0.40322283
156	0xbf11072d	-0.56651574
157	0xbf00676f	-0.5015783
158	0x3f054f1c	0.52073836
159	0x3f1013ee	0.5628041
160	0x3ef21d0d	0.4728779
161	0x3e844b1b	0.2583855
162	0x3e08632c	0.13319081
163	0xbf511614	-0.81674314
164	0xbf123f8a	-0.571282
165	0xbebe04dc	-0.37113082
166	0x3f0938d4	0.5360234
167	0x3e624d21	0.22099735
168	0x3f1158a7	0.567759
169	0x400e0bdc	2.2194738
170	0x3f0c8ea6	0.54905164
171	0x3eff06d3	0.49809894
172	0x3f8709be	1.0549848
173	0xbe2caced	-0.16862841
174	0x3f3e5b73	0.7435829
175	0x3f8b54c0	1.0885239
176	0x3eb0d71d	0.34539118
177	0x3f05e74d	0.5230606
178	0x3edce0f2	0.4314037
179	0xbf0e0906	-0.5548252
180	0xbf6424fb	-0.8911893
181	0xc01c8d41	-2.4461215
182	0xbf309d02	-0.68989575
183	0x3e53391b	0.20627253
184	0xbc2d174d	-0.010564637
185	0xbd89b8db	-0.067247115
186	0xbf5f2032	-0.871585
187	0xc010eaea	-2.264338
188	0xbfd98ff0	-1.6997051
189	0x3f237b2b	0.63859814
190	0xbc9e0d1c	-0.01929336
191	0xbebf4d46	-0.37363642
192	0x3f1b6466	0.6070007
193	0x3f330e0f	0.69943327
194	0x3f2c0cc2	0.67206967
195	0xbed232b5	-0.4105431
196	0xbe890c67	-0.26767275
197	0xbe2ee5d3	-0.17079858
198	0x3c23b5df	0.009992092
199	0xbd6aef11	-0.057356898
200	0x3e988ad2	0.29793411
201	0x3e9b8187	0.3037226
202	0xbf177be7	-0.59173435
203	0x3f05abb4	0.52215123
204	0x3e253193	0.16132192
205	0xbd5c0aba	-0.053721167
206	0xbcb72596	-0.02235679
207	0x3e32dbc7	0.17466651
208	0xbee74942	-0.4517308
209	0x3ef89c3d	0.485567
210	0xbdec860b	-0.11549004
211	0xbeeac662	-0.4585448
212	0x3df5e859	0.120072074
213	0x3ece3a00	0.40278625
214	0xbe9b4932	-0.3032928
215	0xbd571a63	-0.0525154
216	0xbdab4422	-0.08362605
217	0x3ea66978	0.3250234
218	0x3e854114	0.26026213
219	0x3e240d50	0.16020703
220	0x3dd4336b	0.1036137
221	0x3d77591b	0.060387712
222	0x3dc33f6a	0.0953358
223	0xbe00797e	-0.12546346
224	0x3dbf8171	0.09350861
225	0x3e1ee47f	0.15516852
226	0x3de6073c	0.112318486
227	0xbe040d34	-0.12895662
228	0x3ebfa7a9	0.37432602
229	0x3e8585aa	0.2607854
230	0xbc915465	-0.017740438
231	0x3da4f32b	0.08054193
232	0xbd986aed	-0.074422695
233	0xbe5b5237	-0.21418081
234	0x3beddebc	0.007259218
235	0xbe90e3f8	-0.28298926
236	0xbd956b7a	-0.0729589
237	0x3e35831f	0.177258
238	0x3e9e0f1d	0.30870906
239	0x3ee557d6	0.44793576
240	0xbe4c6240	-0.19959354
241	0xbf5fe725	-0.87462074
242	0xbf3cd288	-0.73758745
243	0xbe5fb239	-0.2184533
244	0x3da0b819	0.07847614
245	0x3dde29cb	0.10847815
246	0x3e9859b8	0.2975595
247	0x3ec2215f	0.37916085
248	0x3ea09018	0.31359935
249	0xbf518d4b	-0.8185622
250	0xbfcf4fcc	-1.6196227
251	0xbf62de0b	-0.8862006
252	0x3c9f35b9	0.019434797
253	0xbd594e37	-0.053053107
254	0xbb935700	-0.004496455
255	0xbe2696f9	-0.16268529

backbone.backbone.0.blocks.0.conv1.bias f4 [32]
0	0xbd78d6dc	-0.06075178
1	0xbe8c0a86	-0.2735178
2	0xbf3624f4	-0.71150136
3	0xbe508f9a	-0.2036728
4	0x3ed6fab1	0.41988137
5	0xbf55228c	-0.8325584
6	0xbf76a764	-0.9634917
7	0xbf2f157e	-0.6839217
8	0x3ee8e6c7	0.4548857
9	0xbe0551f8	-0.1301955
10	0x3e6d7c01	0.23191835
11	0x3f4126b4	0.7544968
12	0x3e851060	0.25989056
13	0x3f3b562a	0.7317835
14	0x3dd2b330	0.102880836
15	0x3f9674b1	1.1754361
16	0x3f39ac96	0.7252897
17	0xbe8d9737	-0.2765443
18	0xbea4480d	-0.3208622
19	0xbec977ca	-0.39349204
20	0x3f1bdffd	0.60888654
21	0xbf42fc2d	-0.7616604
22	0x3f1a4f3d	0.6027716
23	0xbf3949d7	-0.72378296
24	0x3f14e104	0.58155847
25	0xbecf239a	-0.4045685
26	0xbe4a5862	-0.19760278
27	0xbede1356	-0.43374127
28	0xbf6943d5	-0.9111913
29	0xbf04d6b9	-0.5189014
30	0x3fa961d5	1.3232981
31	0x3f007f31	0.5019408
