model_parameter/tbc/LSTM_best.pth (torch, 168601 bytes, 54 tensors)

embedding.vehicle_embedding.weight f4 [32, 4]
0	0xbe9a62d1	-0.30153516
1	0xbdb6e4ee	-0.089303836
2	0xbe1212de	-0.1426501
3	0xbe5f5815	-0.21810944
4	0x3e7616b2	0.24032095
5	0x3d43da9e	0.04781591
6	0x3e712a71	0.23551346
7	0xbdd7f322	-0.10544421
8	0x3e974f98	0.29552913
9	0x3edb8eb0	0.428823
10	0xbe8323a3	-0.25613126
11	0x3dd55a92	0.104176655
12	0x3ed04439	0.4067705
13	0xbc984821	-0.018589081
14	0x3e132354	0.14368945
15	0xbe865c03	-0.26242074
16	0xbeb00e69	-0.34385994
17	0x3e15a759	0.1461462
18	0x3ef43247	0.4769461
19	0xbea05287	-0.31312963
20	0xbe87b276	-0.26503342
21	0xbe1d5686	-0.15365037
22	0x3e70d6c9	0.23519434
23	0x3e33c656	0.17556128
24	0xbde55910	-0.11198628
25	0xbe90e15f	-0.28296944
26	0xbe88a666	-0.26689452
27	0xbd9290f7	-0.07156556
28	0x3ef9efd4	0.48815787
29	0x3daddbb5	0.084891714
30	0xbda18e9f	-0.07888531
31	0xbebbf566	-0.36710662
32	0x3e5e4f87	0.21710025
33	0x3e84d78a	0.25945693
34	0x3ea4e331	0.32204583
35	0x3f0099ea	0.50234854
36	0x3ccef646	0.025263917
37	0xbeb93591	-0.3617368
38	0x3e9bc4e8	0.30423665
39	0x3eba9729	0.3644345
40	0x3e01566e	0.12630627
41	0xbeb0dc19	-0.3454292
42	0x3ee08365	0.43850246
43	0x3ee16cfa	0.44028455
44	0xbe7d7c71	-0.24754502
45	0x3e3b73ce	0.18305895
46	0x3e73ba12	0.23801449
47	0x3e828a27	0.25496027
48	0x3e96b89d	0.29437724
49	0x3efb68e4	0.49103463
50	0x3ea05145	0.31312004
51	0xbeb0f64a	-0.34562904
52	0xbe12f42c	-0.14350957
53	0x3d8ce36a	0.06879313
54	0x3dab847e	0.0837488
55	0xbea81550	-0.3282876
56	0xbec221da	-0.37916452
57	0x3eef45b3	0.46732864
58	0x3ea629be	0.32453722
59	0x3e7309fc	0.23734277
60	0x3eb3e196	0.35133046
61	0xbdff580f	-0.12467968
62	0x3ea839ba	0.32856542
63	0xbe82dea4	-0.25560486
64	0xbe924d3e	-0.28574556
65	0x3df2754a	0.11838777
66	0xbe9d46f9	-0.3071821
67	0x3e2a712f	0.16644739
68	0xbe3f59bb	-0.18686573
69	0xbe16553f	-0.14680956
70	0xbe187f7b	-0.1489238
71	0xbd24d02b	-0.040237587
72	0x3ee78f01	0.4522629
73	0xbef73207	-0.48280355
74	0xbd775d53	-0.060391735
75	0xbd35d82f	-0.044395622
76	0xbedb57ad	-0.4284033
77	0x3e8c25ce	0.27372593
78	0xbe60aa9e	-0.21940085
79	0x3c1bf506	0.009518867
80	0xbed1a3ad	-0.40945187
81	0x3eebd86a	0.46063548
82	0x3e0ddc84	0.13853651
83	0xbe943c43	-0.28952226
84	0x3ec7e265	0.39039913
85	0xbdfc286a	-0.12312396
86	0x3e6c73ca	0.23091045
87	0xbe7cd554	-0.24690753
88	0x3e23f7cf	0.160125
89	0x3eb7d7ce	0.35906833
90	0x3eef54f0	0.4674449
91	0xbeefb93a	-0.46821004
92	0x3ea5c3c5	0.32375923
93	0xbdf641cd	-0.12024269
94	0x3e174162	0.14771035
95	0x3e6fb5ae	0.23409149
96	0x3e9a23b8	0.30105376
97	0x3d5541c9	0.05206469
98	0x3ee8529f	0.45375535
99	0xbeb78e00	-0.35850525
100	0xbeb91db0	-0.36155462
101	0x3e6271db	0.22113745
102	0x3e820c17	0.2539985
103	0xbee86c40	-0.45395088
104	0x3ecbc330	0.39797354
105	0x3ee10db5	0.4395577
106	0xbefd2961	-0.49445632
107	0x3e1eaeff	0.15496443
108	0x3d764659	0.060125683
109	0xbd68bf6d	-0.056823183
110	0x3e7423dc	0.23841804
111	0x3eab93e2	0.33511263
112	0x3e217973	0.15768985
113	0x3da8efc3	0.08248856
114	0x3e09a95e	0.13443515
115	0xbdb65f0c	-0.089048475
116	0x3e8bbec3	0.27293977
117	0xbe96b604	-0.29435742
118	0x3dcd235a	0.100165084
119	0x3e8c7c48	0.2743857
120	0xbeaf3e2f	-0.3422713
121	0xbec7d4e1	-0.390296
122	0xbe3bfb0e	-0.18357489
123	0xbe504f6c	-0.20342797
124	0x3ed8feb0	0.4238181
125	0x3e3e7eb4	0.18603021
126	0xbe7befe3	-0.24603228
127	0xbd8a951d	-0.06766722

embedding.vehicle_embedding.bias f4 [32]
0	0xbdf73ff7	-0.12072747
1	0xbed4bc54	-0.41549933
2	0xbde5e437	-0.11225169
3	0x3da80e96	0.08205907
4	0xbdfbef88	-0.12301546
5	0x3db29eb1	0.08721674
6	0x3ea18bf9	0.31552103
7	0x3ecc49bb	0.39900002
8	0x3ea6e285	0.32594696
9	0xbc8139b2	-0.015774582
10	0x3e21568f	0.15755676
11	0xbe490c0c	-0.19633502
12	0xbcb977c6	-0.02264012
13	0xbe9c1af9	-0.30489329
14	0x3ec9e4b9	0.39432314
15	0x3efb2971	0.49055055
16	0xbec19af1	-0.37813523
17	0xbe9f454a	-0.3110755
18	0x3ec2d6c1	0.3805447
19	0x3eec536e	0.46157402
20	0xbe20efaf	-0.15716432
21	0xbe9180d3	-0.28418598
22	0xbeacde0f	-0.33763167
23	0xbe388843	-0.1802073
24	0xbd26a030	-0.04068011
25	0xbe5d4080	-0.21606636
26	0x3caa1116	0.0207601
27	0xbeb4969d	-0.3527116
28	0xbef114f4	-0.47086298
29	0x3dcfe471	0.101509936
30	0x3dad0515	0.08448235
31	0x3ed15084	0.4088174

embedding.bridge_embedding.weight f4 [32, 6]
0	0x3d6c7670	0.05773014
1	0xbde1b150	-0.11020148
2	0x3e9c9d08	0.30588555
3	0xbe0c5f3e	-0.13708207
4	0xbdaa4ca8	-0.08315402
5	0x3e8a765e	0.27043432
6	0x3e0b5594	0.13606864
7	0xbe4299bd	-0.19003959
8	0x3e74fdd0	0.23924947
9	0x3e870d88	0.2637751
10	0xbe68a2d4	-0.22718364
11	0xbd3c3d10	-0.04595667
12	0xbdd768e8	-0.10518056
13	0x3e8f2086	0.279545
14	0x3e146300	0.1449089
15	0x3e811856	0.2521388
16	0x3e2a6ac8	0.16642296
17	0xbe9ec5cc	-0.31010282
18	0xbec25d6e	-0.37961906
19	0x3de32900	0.110918045
20	0xbe9b31b1	-0.3031135
21	0xbe97bc2e	-0.29635757
22	0x3eb80c94	0.35947096
23	0xbe0a9888	-0.13534749
24	0xbea23e20	-0.31688023
25	0xbe89df14	-0.26928008
26	0x3e41ffbc	0.18945211
27	0x3e371e04	0.17882544
28	0x3c2e4ae0	0.010637969
29	0x3dc90130	0.098146796
30	0x3ead6c7a	0.33871824
31	0xbddc1b24	-0.10747364
32	0x3cfc47b0	0.030795902
33	0x3e92df5c	0.28686035
34	0x3e3dc8bc	0.18533605
35	0xbea5ee8b	-0.32408556
36	0xbea499d7	-0.3214862
37	0xbec730b8	-0.38904357
38	0xbd3f0800	-0.04663849
39	0xbe8f80f0	-0.2802806
40	0x3e8fd4d0	0.2809205
41	0x3e623ce8	0.22093546
42	0xbd2319d0	-0.03981954
43	0x3e027aa0	0.1274209
44	0x3e9e08e0	0.30866146
45	0xbe26e4e2	-0.1629825
46	0x3e6f0c2c	0.23344487
47	0xbeacd2ea	-0.33754665
48	0xbe2c7c5e	-0.16844317
49	0xbd3d3798	-0.046195596
50	0xbe8024e0	-0.25028133
51	0x3e96d930	0.29462576
52	0xbcab0c20	-0.020879805
53	0x3e25ec3c	0.16203398
54	0x3eb4728e	0.35243648
55	0x3e5fabd8	0.21842897
56	0x3de7dbe8	0.11321241
57	0x3d21f5a8	0.039540917
58	0xbea8baf3	-0.3295513
59	0x3d2ef440	0.042713404
60	0x3d248930	0.040169895
61	0x3de13e80	0.10998249
62	0x3ebd6948	0.36994386
63	0xbe841184	-0.25794613
64	0x3e0392ac	0.1284892
65	0x3e950bcc	0.29110563
66	0xbeba2d60	-0.36362743
67	0xbb9c5680	-0.004771054
68	0xbe757f6a	-0.23974386
69	0xbea9a566	-0.33134001
70	0xbeb9fcac	-0.36325586
71	0x3dc07ec0	0.09399176
72	0x3d1b29e8	0.03788176
73	0x3e3d4208	0.1848222
74	0x3e2a15e8	0.16609919
75	0xbec0bdcc	-0.37644804
76	0x3e9b6410	0.3034978
77	0xbe0028cc	-0.12515563
78	0x3dcb6c50	0.09932768
79	0x3cac3710	0.02102235
80	0x3eaf526a	0.34242564
81	0xbe221ce7	-0.15831338
82	0x3da746c0	0.08167791
83	0xbdc189bc	-0.09450099
84	0x3e8ae7ee	0.27130073
85	0xbe0c6c82	-0.13713267
86	0xbed0db63	-0.4079238
87	0x3cb78dd0	0.022406489
88	0xbe3fc36d	-0.18726893
89	0x3c92d660	0.017924488
90	0xbe5804f5	-0.21095641
91	0x3e19a694	0.15004951
92	0xbc2a4380	-0.01039207
93	0xbe2dbaac	-0.16965741
94	0x3de8e5f0	0.11371982
95	0xbe841e8e	-0.2580456
96	0xbe422bee	-0.1896207
97	0xbeb27e80	-0.34862137
98	0xbd8a9228	-0.06766158
99	0x3c13cd40	0.009021103
100	0xbd97e9c4	-0.07417634
101	0xbb79bd80	-0.0038107336
102	0x3ec14110	0.3774495
103	0x3ea610f8	0.3243482
104	0xbe7e0610	-0.24807
105	0xbe520174	-0.20508367
106	0x3e7be808	0.24600232
107	0x3ea578e4	0.32318795
108	0x3e86748c	0.26260793
109	0x3eae25d6	0.34013242
110	0x3eb0c090	0.34521914
111	0xbec9c640	-0.39409065
112	0xbe7aabe0	-0.24479628
113	0xbece52e4	-0.40297616
114	0x3e7ad5e8	0.24495661
115	0x3d5bcb48	0.05366066
116	0x3e4af7ec	0.19821137
117	0xbdef73d4	-0.11692014
118	0xbe2ba811	-0.16763331
119	0xbe91493d	-0.2837619
120	0xbe8d02ac	-0.275411
121	0x3b75b100	0.0037489533
122	0xbe833f34	-0.25634158
123	0xbe9178ed	-0.28412572
124	0x3bad8c80	0.00529629
125	0x3e8395ce	0.2570023
126	0x3e25a214	0.16175109
127	0xbe14ea12	-0.14542416
128	0x3e2b5b50	0.16734052
129	0x3e5bb300	0.21455002
130	0x3e82d62c	0.25554025
131	0x3d458158	0.048219055
132	0x3ecdecf4	0.40219843
133	0x3e4ad97c	0.19809526
134	0x3e671b0c	0.22568911
135	0x3e90e700	0.2830124
136	0x3be46d00	0.0069710016
137	0x3d306a00	0.04306984
138	0xbd5cb988	-0.053887874
139	0x3e0707e0	0.13186598
140	0x3ebd9a16	0.3703162
141	0x3b349300	0.002755344
142	0x3d87dd4c	0.06634006
143	0x3dd71568	0.1050213
144	0xbc8ba470	-0.017046183
145	0xbe238259	-0.15967692
146	0x3e4a0a40	0.19730473
147	0xbe6c35bd	-0.23067375
148	0x3e5c3fe8	0.21508753
149	0xbe511096	-0.20416483
150	0xbdf09534	-0.11747208
151	0x3eb61238	0.35560775
152	0xbe164d5e	-0.1467795
153	0x3dfe1130	0.12405622
154	0x3cccd9a0	0.025006115
155	0xbcadaa20	-0.021199286
156	0xbe4cb48d	-0.1999075
157	0x3e38fb54	0.18064624
158	0x3e8c8c6e	0.2745089
159	0x3e64d768	0.22347796
160	0x3e561884	0.2090779
161	0x3e89330c	0.26796758
162	0xbe06d21a	-0.13166085
163	0x3ec5e684	0.38652432
164	0x3e452504	0.19252402
165	0x3e93a776	0.288387
166	0xbe9d6ca0	-0.30746937
167	0xbe7cf52a	-0.24702898
168	0x3e0c86b8	0.13723266
169	0x3d91fb54	0.07128015
170	0x3e53503c	0.20636076
171	0x3ebd6c28	0.3699658
172	0x3e158a58	0.14603555
173	0x3eabe6a8	0.33574414
174	0x3e4272e0	0.18989134
175	0x3d80ed4c	0.06295261
176	0xbda60440	-0.081062794
177	0xbe0902ce	-0.13379976
178	0x3d773168	0.06034985
179	0x3e62f02c	0.22161931
180	0xbd9a2a70	-0.075276256
181	0x3eac8ef0	0.33702803
182	0xbe5ce8f7	-0.21573244
183	0xbe4d0399	-0.20020904
184	0x3e2ea70c	0.17055911
185	0x3eb8f06e	0.36120933
186	0xbeb8de67	-0.3610718
187	0x3ea63ed6	0.32469815
188	0xbd8d69e0	-0.0690496
189	0x3e52fe08	0.20604718
190	0x3d05cd28	0.032666355
191	0xbe53509a	-0.20636216

embedding.bridge_embedding.bias f4 [32]
0	0x3ea05aa6	0.3131916
1	0xbdbbdf80	-0.091734886
2	0x3cf4a610	0.029864341
3	0xbe61d639	-0.22054376
4	0x3d457ed8	0.04821667
5	0x3ebc92e4	0.3683082
6	0x3ea9ed3a	0.33188802
7	0x3e97e3ac	0.29665887
8	0xbebc2bd0	-0.36752176
9	0xbe126456	-0.14296088
10	0x3e27d86c	0.16391152
11	0x3ea662da	0.32497293
12	0xbe422cc3	-0.18962388
13	0x3e0cbb40	0.13743305
14	0x3d7646b8	0.060126036
15	0x3ebf8646	0.3740713
16	0xbd91835c	-0.07105133
17	0xbec1fba1	-0.3788729
18	0x3dc1b840	0.09458971
19	0x3d008e98	0.031385988
20	0x3e9869d0	0.2976823
21	0x3d1cc610	0.038274825
22	0x3e6e1c98	0.23253095
23	0x3e2704a4	0.16310364
24	0xbe82aa96	-0.25520772
25	0xbeab032f	-0.33400866
26	0xbda0cb04	-0.07851222
27	0xbe2470b7	-0.16058622
28	0xbe67f923	-0.22653632
29	0xbeb12005	-0.3459474
30	0xbde47624	-0.11155346
31	0x3ec431f2	0.38319355

embedding.pier_embedding.weight f4 [32, 3]
0	0x3db4da64	0.08830717
1	0x3e8f5a33	0.27998504
2	0xbdfce917	-0.12349146
3	0x3d793f4a	0.060851373
4	0x3e0df0bd	0.13861366
5	0x3e835bea	0.25656062
6	0xbe46e98d	-0.1942503
7	0x3e883b08	0.26607537
8	0x3eb37759	0.35051993
9	0x3e917616	0.28410405
10	0x3eb9bfe0	0.36279202
11	0xbe2a8fb2	-0.16656378
12	0xbdd08951	-0.10182441
13	0xbf150754	-0.58214307
14	0x3eedd1c1	0.46449092
15	0xbea5e54b	-0.324015
16	0xbe4f8525	-0.20265634
17	0xbf07b4ba	-0.5301014
18	0xbe322baa	-0.17399469
19	0xbec1564b	-0.3776115
20	0xbea79f4b	-0.32738718
21	0x3dd8ad92	0.10579981
22	0xbe84f0f9	-0.25965098
23	0xbe057d56	-0.13036093
24	0xbe4334e9	-0.19063152
25	0xbb16a534	-0.0022986652
26	0x3f0b38d6	0.543836
27	0x3da146eb	0.07874855
28	0xbe084e6e	-0.13311169
29	0xbdbf8e74	-0.09353343
30	0x3cf336ca	0.029689211
31	0xbe88003a	-0.26562673
32	0xbe46ae04	-0.19402319
33	0x3dd87799	0.105696864
34	0x3f09d177	0.53835243
35	0xbeca4724	-0.395074
36	0xbe981a06	-0.29707354
37	0xbec7fc1e	-0.39059538
38	0x3c267c4e	0.0101614725
39	0x3ea9cb77	0.33163044
40	0x3eb5e0fb	0.3552321
41	0xbef6911a	-0.4815758
42	0xbe4a1f7c	-0.19738573
43	0xbe1baa77	-0.15201746
44	0x3dcb4b85	0.099265136
45	0xbeadabc2	-0.33920103
46	0xbf0a1351	-0.53935724
47	0x3e065884	0.13119704
48	0x3d98fab3	0.07469692
49	0xbe8df22c	-0.27723825
50	0xbea88e61	-0.32921126
51	0x3ef3d4c6	0.4762327
52	0xbe34542a	-0.17610231
53	0x3f0dcf61	0.5539456
54	0x3f014aee	0.5050496
55	0x3ef873b5	0.48525777
56	0xbf0685f1	-0.5254813
57	0x3db97761	0.09055973
58	0xbccc0f25	-0.024909565
59	0x3e859590	0.2609067
60	0x3ee54c58	0.44784808
61	0xbdc7898d	-0.097430326
62	0x3e3d5a26	0.1849142
63	0x3ea7bb2f	0.32759997
64	0xbde195f5	-0.1101493
65	0x3ecfd0c5	0.40588966
66	0x3d8da070	0.06915367
67	0x3d7ad356	0.061236702
68	0x3ee4980c	0.44647253
69	0x3f13eb54	0.5778096
70	0xbee0a15c	-0.43873107
71	0xbe8385e9	-0.25688103
72	0xbe3cdc3b	-0.18443386
73	0xbe2c38c5	-0.16818531
74	0x3eda0548	0.42582154
75	0x3d323e13	0.04351623
76	0xbeb1e27e	-0.34743112
77	0xbde955dd	-0.1139333
78	0x3f09aec4	0.53782296
79	0xbedb0516	-0.42777318
80	0xbee47396	-0.44619435
81	0xbd52ec44	-0.05149485
82	0xbea483f6	-0.32131928
83	0xbedde293	-0.43336925
84	0xbe105272	-0.1409395
85	0x3f198d97	0.59981674
86	0x3d4d4193	0.050111365
87	0xbe85b54a	-0.26114875
88	0x3ea7788f	0.32709166
89	0xbefdfe23	-0.49607953
90	0xbb766b91	-0.0037600736
91	0x3f0e600b	0.556153
92	0xbee310cb	-0.4434875
93	0xbf0c3154	-0.5476277
94	0xbee22411	-0.4416814
95	0x3e84dca5	0.25949588

embedding.pier_embedding.bias f4 [32]
0	0x3e4b5806	0.19857797
1	0x3f0239ed	0.5086964
2	0x3eea7b27	0.45797083
3	0xbf052ab0	-0.5201826
4	0xbe9b09cc	-0.30280912
5	0x3e9949b2	0.29939038
6	0x3efea659	0.49736288
7	0x3cd98a79	0.026555287
8	0xbe00be52	-0.12572601
9	0x3e531c02	0.20616153
10	0xbe9f0583	-0.31058893
11	0xbab7997e	-0.0014007536
12	0x3e83169f	0.25603196
13	0x3d9c9507	0.07645612
14	0x3f001a74	0.50040364
15	0xbe3b3d6f	-0.18285154
16	0xbf117dd3	-0.5683262
17	0x3d4742d7	0.048647728
18	0x3e6640af	0.22485612
19	0xbed0b740	-0.4076481
20	0xbf0e235d	-0.5552271
21	0xbf0b9d8d	-0.5453728
22	0x3f034c6a	0.51288474
23	0x3f025463	0.50910014
24	0x3e4a887b	0.19778626
25	0x3c850a61	0.0162403
26	0x3e62752a	0.22115007
27	0x3e752060	0.23938131
28	0x3eda6652	0.4265619
29	0xbda40301	-0.080083854
30	0x3e93475b	0.28765377
31	0x3c801a7a	0.015637625

out.feature_out.layers.0.weight f4 [32, 32]
0	0x3dcdc0ac	0.10046515
1	0x3d79e0d8	0.061005443
2	0xbe2341ce	-0.15943071
3	0xbe0545db	-0.13014929
4	0x3c10bd7f	0.008834242
5	0x3e31d29a	0.17365494
6	0x3d9491fd	0.072544076
7	0xbda88230	-0.08227956
8	0x3d07efea	0.033187784
9	0xbdb3ceeb	-0.08779701
10	0x3d31d7e6	0.043418787
11	0x3ce4d047	0.027931346
12	0xbdbcff08	-0.09228331
13	0xbdb27626	-0.08713941
14	0xbd419224	-0.04725851
15	0x3da0a93e	0.078447804
16	0x3dd1a15d	0.10235856
17	0x3dde0f10	0.10842717
18	0xbdfb831d	-0.12280867
19	0x3dd8fca2	0.10595061
20	0x3e2a1bd1	0.16612174
21	0xbdfec40f	-0.12439739
22	0xbdee0ecd	-0.11623917
23	0x3c623f16	0.013808986
24	0xbd9223d6	-0.071357414
25	0xbde73334	-0.11289063
26	0xbe172398	-0.14759672
27	0x3dfa0f0a	0.122099
28	0x3d9393ff	0.072059624
29	0x3c1a4e8a	0.009418139
30	0xbc2bd842	-0.010488572
31	0x3e0e8e3f	0.1392145
32	0xbe24e6d7	-0.16103683
33	0x3db2b122	0.08725192
34	0xbe2e8f1d	-0.17046781
35	0xbe1d1c53	-0.15342836
36	0xbdf66f9d	-0.12033007
37	0xbb3f08f8	-0.0029149633
38	0x3c623340	0.013806164
39	0x3df115c1	0.11771727
40	0x3e0125b4	0.12612039
41	0x3e34bbee	0.17649814
42	0xbc949817	-0.018138928
43	0x3e38ea20	0.18058062
44	0xbe025b52	-0.12730148
45	0x3d8e8f25	0.069608964
46	0xbdfca825	-0.123367585
47	0x3d8bba31	0.068226226
48	0xbd80956d	-0.06278501
49	0x3daf9e93	0.085751675
50	0x3de9fd9b	0.114253245
51	0x3bc3b2c2	0.0059722373
52	0xb9fd21a7	-0.00048280993
53	0xbe099794	-0.13436729
54	0xbc66cce4	-0.014086936
55	0xbc9afe1e	-0.01892
56	0xbc98a478	-0.018633112
57	0xbc960f01	-0.018317701
58	0xbd3c8abc	-0.046030745
59	0xbde6e0b5	-0.11273328
60	0xbda19520	-0.078897715
61	0x3e226560	0.15858984
62	0x3daa2552	0.083078995
63	0x3d533f3e	0.051573984
64	0xbdf3149e	-0.11869167
65	0xbdf4414d	-0.11926518
66	0xbd4bda54	-0.04976876
67	0xbe1ff3ce	-0.15620348
68	0xbdee9118	-0.11648768
69	0x3d117d9b	0.035520177
70	0xbe0b6d24	-0.13615853
71	0xbe27084f	-0.16311763
72	0x3ddadc18	0.10686511
73	0x3d7a6a97	0.06113681
74	0x3c9a52a3	0.018838232
75	0xbe336415	-0.17518647
76	0xbd0ba2ef	-0.034090932
77	0x3e3b7241	0.18305303
78	0xbd93febc	-0.07226321
79	0x3d5d8608	0.0540829
80	0xbd75ce21	-0.060011033
81	0x3dad40b1	0.084596045
82	0xbe2558e8	-0.16147196
83	0x39c8a61f	0.00038270743
84	0x3e25fd3b	0.16209881
85	0x3c53e136	0.012932112
86	0xbd9f0869	-0.07765276
87	0xbde41c21	-0.11138178
88	0xbdf317b7	-0.118697576
89	0xbd89989f	-0.06718563
90	0xbd9fa87a	-0.07795806
91	0xbe38c064	-0.18042141
92	0x3c03a76f	0.008035525
93	0x3d6d2ccb	0.057904046
94	0xbdcd5542	-0.10026027
95	0xbdf3153e	-0.11869286
96	0x3dbdcf37	0.09268039
97	0xbcbb7362	-0.022882167
98	0xbd32b869	-0.0436329
99	0x3dc43680	0.095807076
100	0xbe2f5a13	-0.17124204
101	0x3e38dccb	0.18052976
102	0xbd8a68a6	-0.06758241
103	0x3d94990e	0.07255755
104	0x3da1507a	0.07876678
105	0xbdef5610	-0.11686337
106	0x3d1089e9	0.03528777
107	0xbe15a19a	-0.14612427
108	0x3dc7db6d	0.09758649
109	0x3d06fd88	0.03295663
110	0x3e2084c9	0.15675654
111	0x3cc42c94	0.023947038
112	0x3be1bc70	0.0068889186
113	0x3df1997c	0.11796853
114	0x3dc7e5f9	0.09760661
115	0xbe05626f	-0.1302583
116	0x3d5f3f1d	0.05450355
117	0x3d2193ae	0.03944748
118	0xbdd5dc47	-0.10442405
119	0x3e1f809f	0.15576409
120	0x3ded876a	0.11598094
121	0xbce92962	-0.028462116
122	0x3db5c115	0.08874718
123	0xbe022921	-0.12711002
124	0xbe46d2f7	-0.19416414
125	0x3dff71c1	0.12472869
126	0xbe1789c4	-0.14798647
127	0xbd002297	-0.031282987
128	0xbe27ca2b	-0.16385715
129	0xbd4cfeb6	-0.0500476
130	0xbd314331	-0.04327697
131	0x3d176b6e	0.036967687
132	0x3ddb32bd	0.10703037
133	0xbe194099	-0.14966048
134	0xbca0926e	-0.019601073
135	0x3e1a84e3	0.15089755
136	0xbdc8e0e8	-0.098085225
137	0x3d9d698f	0.07686149
138	0x3cb7c59c	0.022433095
139	0xbe10e28f	-0.14148925
140	0xbdaf645b	-0.08564063
141	0x3e00cb69	0.12577595
142	0x3dc7f96a	0.09764369
143	0xbe35bfe6	-0.17748985
144	0xbd02e796	-0.03195914
145	0x3d15991b	0.036522966
146	0x3daed105	0.08535961
147	0xbdae1b89	-0.08501346
148	0x3b9a9c56	0.0047183437
149	0x3e0acd2b	0.13554828
150	0xbe14fb4d	-0.14548989
151	0xbb672167	-0.0035267712
152	0xbdc84c3b	-0.09780165
153	0xbe3944cd	-0.18092652
154	0x3ddb9843	0.10722401
155	0xbd0e5ab4	-0.03475447
156	0xbe19779f	-0.14987038
157	0xbe2425c9	-0.16030039
158	0x3e01e1b3	0.12683754
159	0xbdfcedfc	-0.123500794
160	0xbcf153e8	-0.029458955
161	0xbdf58be3	-0.11989572
162	0xbe136a88	-0.14396107
163	0xbd37543f	-0.044758078
164	0x3d1f2675	0.038855035
165	0xbd045fd8	-0.032317966
166	0x3d4a250f	0.049351748
167	0x3e18f987	0.14938937
168	0x3e1b070e	0.1513941
169	0xbe09a2c8	-0.13441002
170	0xbe325219	-0.1741413
171	0x3d0fa0a8	0.035065323
172	0x3e1b1c90	0.15147614
173	0xbe01589e	-0.12631461
174	0x3e275bb6	0.16343579
175	0xbcddd3b3	-0.027078485
176	0xbe2ee3bf	-0.17079066
177	0x3c491902	0.012274029
178	0xbc267de5	-0.0101618515
179	0x3e20fbb9	0.15721025
180	0xbbb21ee1	-0.00543581
181	0xbe138ed8	-0.1440996
182	0xbe042b57	-0.12907158
183	0xbd840e32	-0.0644802
184	0xbdc48ca6	-0.09597139
185	0xbdc2076d	-0.094740726
186	0x3c9c6231	0.01908979
187	0x3e175b9f	0.14781044
188	0x3c1bd7e1	0.009511919
189	0x3e1b482f	0.15164255
190	0x3e20c9c3	0.15701966
191	0xbd785565	-0.060628314
192	0x3c0fc603	0.008775237
193	0x3e172764	0.1476112
194	0xbe0945e3	-0.13405566
195	0xbe1b6a01	-0.15177156
196	0x3d9e2bcb	0.077231966
197	0xbd080aae	-0.03321331
198	0xbe21b0ef	-0.15790151
199	0x3d12d005	0.035842914
200	0x3e0205a9	0.12697472
201	0xbddb3eb9	-0.10705323
202	0x3dea07e0	0.11427283
203	0x3dc152eb	0.094396435
204	0xbca7b39b	-0.020471385
205	0xbda06ccf	-0.078332536
206	0xbd947114	-0.072481304
207	0x3d6fec69	0.058575068
208	0xbe142d9a	-0.1447052
209	0xbba18c04	-0.0049300212
210	0x3d805b2b	0.06267389
211	0xbdb7f5ec	-0.08982453
212	0xbd814fa2	-0.06314017
213	0xbdfd07be	-0.12354992
214	0x3bed18b7	0.0072356123
215	0x3dd35321	0.1031859
216	0x3d9a1992	0.075244084
217	0x3d9108ec	0.0708178
218	0x3dbdc075	0.09265224
219	0x3e1e40f4	0.15454465
220	0x3d630241	0.05542207
221	0x3dca4b40	0.09877634
222	0xbd83194b	-0.064013086
223	0xbde4106f	-0.11135947
224	0xbd1cc2c3	-0.038271677
225	0x3daefbf9	0.08544154
226	0xbe28846b	-0.16456763
227	0xbcdf73f9	-0.02727698
228	0x3d666c26	0.056255482
229	0x3e08802d	0.13330145
230	0xbd6d4d88	-0.057935268
231	0x3e042bf8	0.12907398
232	0xbdd54320	-0.10413194
233	0xbc7f52ce	-0.015583707
234	0x3d1fc300	0.039004326
235	0x3d6739be	0.05645155
236	0xbc5716e1	-0.013128013
237	0xbc8daff9	-0.017295824
238	0x3df5d76b	0.12003978
239	0xbd1112f7	-0.035418477
240	0xbd23d80c	-0.04000096
241	0xbd9962c9	-0.07489545
242	0x3afcc207	0.0019283899
243	0xbe1c2ad2	-0.1525071
244	0xbdf851cd	-0.12124977
245	0x3e16d10e	0.14728186
246	0x3e19764c	0.14986533
247	0xbc0c6ce3	-0.0085708825
248	0x3e2f5f18	0.17126119
249	0x3ce29f40	0.027663827
250	0xbda3c43e	-0.079964146
251	0x3c7e77eb	0.01553152
252	0xbd9779a8	-0.07396251
253	0x3d3627fc	0.044471726
254	0xbd23e235	-0.04001065
255	0xbd4881d4	-0.04895194

out.feature_out.layers.0.bias f4 [32]
0	0xbd917482	-0.071023
1	0x3cf4cea6	0.029883694
2	0x3d93d029	0.07217438
3	0xbd6353f6	-0.055499993
4	0x3c89bbf7	0.016813261
5	0x3e213582	0.15743068
6	0xbcee8f82	-0.029121164
7	0xbddb610d	-0.1071187
8	0x3e02b36e	0.1276376
9	0x3da0f596	0.07859342
10	0xbe0b1a5b	-0.13584273
11	0xbe060d73	-0.13091068
12	0x3e303157	0.17206322
13	0x3d7b3684	0.061331287
14	0x3db7c302	0.08972742
15	0x3d289ee4	0.041167155
16	0xbd18b643	-0.037283193
17	0xbbed0b7f	-0.0072340365
18	0x3d6d4ebe	0.057936423
19	0xbe086f62	-0.13323739
20	0xbe132bfc	-0.14372247
21	0xbe05529b	-0.13019793
22	0x3db7d9f2	0.08977117
23	0xbdb69e70	-0.08916938
24	0xbc1b2fc5	-0.009471838
25	0x3e07ec52	0.13273743
26	0x3da51e33	0.08062401
27	0x3d88e00b	0.06683358
28	0xbc9768d8	-0.01848261
29	0xbde5d9ee	-0.112232074
30	0x3d2c8e0f	0.042127665
31	0xbd498430	-0.04919833

out.feature_out.layers.2.weight f4 [32, 32]
0	0xbd9b1d51	-0.07573951
1	0x3e3609c5	0.17777164
2	0x3ba22c52	0.004949131
3	0xbe266a24	-0.16251427
4	0x3dfbcc23	0.12294795
5	0xbe12fac0	-0.14353466
6	0xbd4620b1	-0.04837102
7	0x3db83fe8	0.08996564
8	0xbd5526e5	-0.052039046
9	0x3d4cc653	0.049993824
10	0x3d03b93b	0.03215907
11	0xbd71faa6	-0.059076928
12	0xbd305dc7	-0.043058183
13	0xbd239424	-0.0399362
14	0xbe0309fa	-0.12796775
15	0xbddc92af	-0.10770165
16	0xbd08100d	-0.033218432
17	0xbdc8f1be	-0.09811734
18	0xbcabd49d	-0.020975405
19	0xbe21fefd	-0.15819927
20	0x3d7205a6	0.059087418
21	0xbdca26f6	-0.098707125
22	0x3cf55434	0.029947378
23	0xbd7ba902	-0.061440475
24	0x3d440685	0.04785778
25	0x3d9c6428	0.07636291
26	0x3cd55164	0.026039787
27	0x3d6d8730	0.057990253
28	0x3e256cf5	0.16154845
29	0x3deae1fe	0.11468886
30	0xbd3ad6f2	-0.045615144
31	0x3d80f54c	0.06296787
32	0xbda1801b	-0.07885762
33	0x3e32e76b	0.17471091
34	0xbc000230	-0.007813022
35	0xbcd81365	-0.026376436
36	0x3d144bc7	0.03620508
37	0x3e21f0c1	0.15814497
38	0x3d74ece3	0.059796225
39	0xbe1dee0f	-0.15422843
40	0x3c794c9b	0.015216018
41	0xbe285c38	-0.16441429
42	0xbd6f6796	-0.058448397
43	0xbd19079b	-0.03736077
44	0xbdc23f19	-0.09484691
45	0x3d877b09	0.06615264
46	0xbe395a2d	-0.18100806
47	0x3e001c2d	0.12510748
48	0xbd0fb762	-0.035086997
49	0x3e153a9c	0.14573139
50	0xbd8e2d00	-0.06942177
51	0x3dc93ec4	0.09826425
52	0x3b6b010b	0.0035858776
53	0x3cfe2314	0.031022586
54	0x3cff4581	0.031161072
55	0xbe060d4d	-0.13091011
56	0x3caf64aa	0.021410305
57	0x3d3ca429	0.046054993
58	0xbd892a70	-0.066975474
59	0xbd4ff191	-0.050767485
60	0x3b789a05	0.00379336
61	0xbd8b08ee	-0.067888126
62	0xbdd6f70a	-0.10496338
63	0xbd95abf1	-0.07308186
64	0x3e051c01	0.12998964
65	0xbc98c713	-0.018649613
66	0xbc3782ca	-0.011200616
67	0xbe0f316a	-0.13983694
68	0x3da79484	0.08182624
69	0x3e406b9e	0.18791053
70	0xbd05ecac	-0.03269641
71	0xbdb12eb4	-0.08651486
72	0x3d5627e5	0.05228414
73	0x3d3b125e	0.045671813
74	0x3d80a1ee	0.06280886
75	0x3d3827e2	0.04495991
76	0x3d645128	0.05574146
77	0xbdfaa6b3	-0.122388266
78	0x3d105829	0.035240326
79	0xbd5389d2	-0.051645108
80	0x3d1d08c0	0.038338423
81	0x3d471099	0.048599813
82	0xbcd01d88	-0.025404707
83	0xbc165e0f	-0.009177699
84	0x3cd87672	0.026423667
85	0x3e216596	0.15761408
86	0x3cf4ffde	0.029907163
87	0x3d5fa643	0.05460192
88	0x3dc5dd72	0.09661378
89	0x3d6448cd	0.05573349
90	0x3d983a70	0.07433021
91	0xbd1fb1d1	-0.03898794
92	0xbb58537f	-0.0033008752
93	0xbdf550f8	-0.11978334
94	0xbda5f04f	-0.08102476
95	0x3e277a6c	0.16355294
96	0x3e1be7eb	0.15225188
97	0x3dd71be0	0.105033636
98	0xbcc3be21	-0.023894371
99	0x3d902c96	0.07039754
100	0x3d8e6e39	0.06954617
101	0xbd1df0cb	-0.038559716
102	0x3e0dd860	0.13852072
103	0xbd30490a	-0.043038405
104	0x3ddef0b5	0.10885755
105	0x3e150573	0.1455286
106	0xbb83018e	-0.003997988
107	0x3e05283d	0.13003631
108	0xbe32213d	-0.17395492
109	0x3d40341d	0.0469247
110	0xbd802a8f	-0.062581174
111	0x3d7ec650	0.062200844
112	0xbe3ca682	-0.18422893
113	0x3e2e993d	0.17050643
114	0xbb09edfb	-0.0021046388
115	0xbd65b2be	-0.056078665
116	0x3d82c317	0.06384867
117	0x3d07b62d	0.03313272
118	0xbc833162	-0.016014758
119	0x3d2d3370	0.042285383
120	0xbd8e572d	-0.06950221
121	0xbe03d1c1	-0.12872984
122	0x3e1b3fe3	0.1516109
123	0xbe2a643f	-0.16639803
124	0x3e136053	0.14392214
125	0xbc8c1465	-0.017099569
126	0x3d92941d	0.071571566
127	0xbe033219	-0.1281208
128	0x3e0f2d76	0.13982186
129	0x3e0a876c	0.13528222
130	0x3e01844d	0.12648125
131	0x3e2fd59b	0.17171328
132	0x3d42234c	0.047396943
133	0xbd552490	-0.05203682
134	0x3d5929c0	0.05301833
135	0xbcbda4ea	-0.023149926
136	0x3cac675c	0.02104538
137	0xbd1cf40c	-0.03831868
138	0x3b9ddd4c	0.0048176404
139	0xbe318e9c	-0.17339557
140	0xbdcf3773	-0.10117998
141	0xbca4645f	-0.020067392
142	0x3e1abc30	0.1511085
143	0xbd19e1e3	-0.037568938
144	0xbe1170b4	-0.14203149
145	0x3cc8d34f	0.024514822
146	0xbdcdf5e8	-0.100566685
147	0x3d4ce8c7	0.05002668
148	0x3db4ed7e	0.088343605
149	0x3b8876cb	0.004164552
150	0xbdc901a7	-0.09814768
151	0xbe034feb	-0.12823455
152	0xbe2081ad	-0.15674467
153	0xbc0d907f	-0.008640408
154	0x3df88858	0.121353805
155	0x3e0f8440	0.14015293
156	0x3d89a031	0.06720007
157	0x3e02f050	0.12786984
158	0xbdf11863	-0.117722295
159	0x3de778e0	0.11302352
160	0x3e017089	0.12640585
161	0xbe421bee	-0.18955967
162	0x3da67452	0.08127655
163	0x3c8b485e	0.01700228
164	0xbe3b9d8b	-0.18321817
165	0x3947778c	0.00019022654
166	0x3d9a8c60	0.07546306
167	0x3d951aa7	0.07280474
168	0x3acf6451	0.0015822743
169	0x3d251d90	0.040311396
170	0xbd950cba	-0.07277818
171	0xb984a1b3	-0.00025297477
172	0x3dc5403b	0.096313916
173	0xbdf7f299	-0.12106819
174	0x3e08e8ab	0.13370006
175	0x3b81a1c1	0.00395605
176	0x3db85792	0.09001078
177	0xbe29a320	-0.16566133
178	0x3e1cc3c7	0.15309058
179	0xbd3376d3	-0.04381449
180	0xbda9121c	-0.08255407
181	0x3de3ce49	0.1112333
182	0x3e39263e	0.18080994
183	0xbe10c80c	-0.14138812
184	0x3e2c8e87	0.16851245
185	0xbe05aa01	-0.13053133
186	0x3df15e6c	0.11785588
187	0x3dce6c69	0.10079271
188	0xbe1bb669	-0.15206303
189	0xbd33bb70	-0.043879926
190	0xbe1bafba	-0.15203753
191	0x3d99ec86	0.075158164
192	0x3db65499	0.089028545
193	0x3d729668	0.05922547
194	0x3dcacb8d	0.099021055
195	0xbe03479b	-0.12820284
196	0xbdee46e3	-0.11634614
197	0xbdb61913	-0.08891501
198	0xbe316761	-0.17324592
199	0xbd3fe7d8	-0.046851963
200	0x3dae761c	0.08518621
201	0x3d746f35	0.059676368
202	0xbcea2e80	-0.028586626
203	0xbd927c1b	-0.071525775
204	0x3b6d9d67	0.003625715
205	0xbcb481e0	-0.022034585
206	0x3d902e49	0.07040078
207	0xbc1860ec	-0.009300452
208	0xba08b3e8	-0.00052147964
209	0x3b277667	0.002555275
210	0xbe229b61	-0.15879585
211	0x3cd97f9a	0.026550103
212	0xb881459e	-6.1641666e-05
213	0xbe045440	-0.12922764
214	0xbd41adb1	-0.047284786
215	0xbdf8498c	-0.12123403
216	0xbe1c9456	-0.1529096
217	0x3d987468	0.07444078
218	0x3dc6d57b	0.09708687
219	0x3d697ff0	0.057006776
220	0xbdaf1173	-0.0854825
221	0xbd574a9b	-0.052561384
222	0x3dc1a8a0	0.09455991
223	0xbd36e639	-0.04465315
224	0xb9b60026	-0.00034713856
225	0xbe19ede6	-0.15032157
226	0xbe004b65	-0.1252876
227	0xbc5e92f3	-0.01358484
228	0xbe167067	-0.14691316
229	0xbe2f09e5	-0.17093618
230	0xbe3e73c1	-0.18598844
231	0xbdc5ae16	-0.09652345
232	0x3c8ac459	0.016939329
233	0xbe11dff2	-0.14245585
234	0xbe13cc61	-0.14433433
235	0xbd65500e	-0.05598455
236	0xbe2e43f3	-0.17018108
237	0xbd4b803d	-0.049682844
238	0x3c26521d	0.010151413
239	0xbd4b93aa	-0.04970137
240	0x3e313bcc	0.17307967
241	0x3db76c3a	0.089561895
242	0x3e03e4f7	0.12880312
243	0x3e30cf02	0.17266467
244	0xbd7468d4	-0.059670284
245	0xbdbe02bb	-0.092778645
246	0x3e1a6131	0.15076138
247	0xbc797269	-0.015225031
248	0x3df1f8a0	0.118149996
249	0x3d498f30	0.04920882
250	0xbdf781df	-0.12085318
251	0x3e3e2506	0.18568811
252	0xbe1dff23	-0.15429358
253	0xbdf9b17f	-0.12192058
254	0x3def4b1d	0.116842486
255	0xbd98f457	-0.07468479

out.feature_out.layers.2.bias f4 [32]
0	0x3dc6e2d5	0.097112335
1	0xbdbc5603	-0.09196093
2	0xbd7ac134	-0.06121941
3	0x3bc47c14	0.0059962366
4	0xbaaea568	-0.0013324441
5	0x3d6a893d	0.057259787
6	0xbdacdcf2	-0.084405795
7	0x3d11a682	0.035559185
8	0xbc5dc389	-0.013535389
9	0xbcf70f08	-0.030158535
10	0xbd85a149	-0.06524903
11	0xbdced7d1	-0.100997575
12	0x3db2a9e1	0.08723808
13	0x3b9d125e	0.0047934493
14	0xba95fec8	-0.0011443729
15	0xbd438d22	-0.047742017
16	0xbd50ad5f	-0.05094659
17	0xbdfb499d	-0.122699
18	0x3de4a36e	0.11163984
19	0x3c760702	0.015016319
20	0xbe2d0c66	-0.16899261
21	0xbe398dcd	-0.18120499
22	0xbdc0f318	-0.094213665
23	0xbe16a4e8	-0.14711344
24	0x3e1f66f9	0.15566625
25	0xbd13118f	-0.035905417
26	0x3da98fb4	0.08279362
27	0x3d856a1b	0.06514379
28	0x3d280719	0.041022394
29	0x3e027ad4	0.12742168
30	0x3c106efd	0.008815524
31	0xbe298920	-0.16556215

out.feature_out.layers.4.weight f4 [32, 32]
0	0x3d9568c4	0.07295373
1	0xbe2c4e4e	-0.16826746
2	0xbe23a11d	-0.15979429
3	0x3d6edaad	0.058314014
4	0xbde8f4b7	-0.11374801
5	0xbd0bb963	-0.034112345
6	0x3d6ffd2e	0.05859106
7	0xbe41f5a9	-0.18941368
8	0xbe2e74f3	-0.170368
9	0xbde6de5e	-0.11272882
10	0x3e1429ea	0.14469114
11	0xbcf8867c	-0.030337565
12	0x3c129002	0.008945467
13	0xbe2b93d6	-0.16755614
14	0xbe07005e	-0.13183734
15	0x3e3103a4	0.17286545
16	0xbd0a807b	-0.033813935
17	0xbdf96ecb	-0.12179335
18	0x3d6f2acf	0.058390435
19	0x3d51e4ff	0.05124378
20	0x3e034d5f	0.12822483
21	0xbd3cca49	-0.04609135
22	0x3beb9436	0.007189299
23	0xbcb7f168	-0.022453979
24	0xbd5cde2d	-0.05392282
25	0x3decf5a7	0.11570292
26	0x3c25531e	0.010090617
27	0xbc8f2aa7	-0.017476393
28	0x3e0db91b	0.13840143
29	0x3e2ce80f	0.16885398
30	0xbe17101c	-0.14752239
31	0xbe2698f7	-0.16269289
32	0xbdb35312	-0.08756079
33	0xbdb4a60f	-0.08820736
34	0xbd882ebd	-0.066495396
35	0xbdd9f3a9	-0.106421776
36	0xbe0f37ac	-0.13986081
37	0xbe15eef8	-0.1464194
38	0x3dacf887	0.0844584
39	0x3d9ba93b	0.076006375
40	0xbd299b0d	-0.041407634
41	0xbe34324e	-0.17597315
42	0xbcd08e3c	-0.025458448
43	0xbd9208ba	-0.07130571
44	0xbdf507ef	-0.11964404
45	0x3e0ca07a	0.13733092
46	0x3d7602d2	0.060061283
47	0x3cbc8e23	0.023016995
48	0x3d4fe56a	0.050755896
49	0x3d815079	0.06314177
50	0xbbfa40f3	-0.007637137
51	0x3e0deb75	0.13859351
52	0xbd8bb55e	-0.068217024
53	0xbdc63965	-0.09678916
54	0xbdf2d95c	-0.11857864
55	0x3cd0262c	0.025408827
56	0xbdb7b8e3	-0.08970811
57	0xbd6a03e8	-0.05713263
58	0x3ddb2473	0.107003115
59	0xbdd6462e	-0.104626045
60	0xbdabbe01	-0.0838585
61	0x3df210cb	0.11819609
62	0x3dd58440	0.10425615
63	0x3df89bd4	0.12139097
64	0xbd664a2f	-0.05622309
65	0x3c993338	0.01870118
66	0xbd47691c	-0.048684224
67	0xbd3e5cf8	-0.04647538
68	0xbe1e2f1a	-0.15447655
69	0xbe35afc4	-0.1774283
70	0xbe0b7b74	-0.13621312
71	0x3d747aa6	0.05968728
72	0xbe0f7dc9	-0.14012827
73	0x3e192ed5	0.14959271
74	0xbde5d308	-0.11221892
75	0x3c84224a	0.016129632
76	0x3e14a16c	0.14514703
77	0xbc251021	-0.010074646
78	0x3e13071c	0.14358181
79	0x3ddf04d0	0.1088959
80	0x3d4366e7	0.047705557
81	0x3dc54b72	0.09633531
82	0x3c169de2	0.009192916
83	0xbdae863b	-0.08521696
84	0xbd866b0b	-0.065633856
85	0x3e0b30a5	0.13592775
86	0x3dad3e08	0.08459097
87	0xbda52ab4	-0.080647856
88	0x3d90f102	0.070772186
89	0xbe12a2d8	-0.14319932
90	0x3d1fe638	0.039037913
91	0xbd5ecb3c	-0.05439304
92	0xbd0b2842	-0.03397394
93	0x3d2f6728	0.042822987
94	0xbdfa1d52	-0.12212624
95	0xbcba5e97	-0.022750182
96	0x3d75f137	0.060044494
97	0x3e1bb93a	0.15207377
98	0xbcb9c4f9	-0.022676932
99	0xbc23c9ed	-0.009996873
100	0xbe14e140	-0.14539051
101	0x3d9f3cc3	0.07775261
102	0xbe282d00	-0.16423416
103	0xbdef148a	-0.116738394
104	0x3da5e2b5	0.080998816
105	0x3dc2596c	0.09489712
106	0xba9e4b58	-0.0012076898
107	0xbd810c5d	-0.06301186
108	0xbdf7f248	-0.12106758
109	0x3d39d09a	0.045364954
110	0x3deffa80	0.11717701
111	0x3cfd95df	0.030955253
112	0x3de9ffe9	0.11425764
113	0x3c9c2733	0.01906166
114	0xbe38bcfc	-0.18040842
115	0x3db484b6	0.08814375
116	0x3e01f0ab	0.12689464
117	0xbe047eda	-0.12939015
118	0x3dbbea7b	0.09175583
119	0xbc4e91b5	-0.012607981
120	0x3cb1840b	0.021669408
121	0x3d89c481	0.06726933
122	0xbcffd427	-0.031229092
123	0xbdf241ce	-0.118289575
124	0x3deab29b	0.114598475
125	0x3d97924e	0.07400952
126	0x3db0b26a	0.0862778
127	0xbdbfa430	-0.09357488
128	0xbd1570d5	-0.036484558
129	0x3d9d696e	0.07686125
130	0x3de28c46	0.11061911
131	0x3e0ff709	0.1405908
132	0xbd4250ba	-0.047440268
133	0xbd90bd48	-0.070673525
134	0x3c39825c	0.011322584
135	0x3ddb27a3	0.107009195
136	0xbd3ca9c4	-0.04606034
137	0xbdd1a93a	-0.102373555
138	0x3dacebc2	0.08443405
139	0x3c5c6723	0.013452324
140	0x3df5879d	0.11988757
141	0x3d034a80	0.03205347
142	0xbda3b0c5	-0.079927005
143	0x3dd01f24	0.101621896
144	0x3c851030	0.01624307
145	0xbd3f9848	-0.046776086
146	0x3d51e8b4	0.051247314
147	0x3e084704	0.1330834
148	0xbe33127d	-0.17487521
149	0xbc6d9f04	-0.014503244
150	0x3dd3f07c	0.10348603
151	0xbe3cbe1f	-0.184319
152	0x3ce47f1b	0.02789264
153	0xbd819595	-0.06327359
154	0xbd5e4af0	-0.054270685
155	0x3d1bff2e	0.038085155
156	0x3e05221f	0.13001297
157	0xbdfd9359	-0.1238162
158	0x3e13929f	0.144114
159	0x3e1c48f7	0.15262209
160	0xbd1c5e18	-0.038175672
161	0xbdd6c047	-0.10485893
162	0x3d6d8cba	0.057995535
163	0x3d889ac5	0.06670145
164	0x3e245795	0.16049035
165	0x3d2ecc76	0.042675458
166	0x3bbd8ca3	0.0057845875
167	0xbd521b30	-0.05129546
168	0xbda71cb6	-0.08159773
169	0xbc417349	-0.011807271
170	0xbd993ccb	-0.074822985
171	0x3d748475	0.059696633
172	0xbdfa5dbd	-0.122249104
173	0xbc0ef057	-0.008724294
174	0xbd405251	-0.046953503
175	0x3dd31d0f	0.10308277
176	0xbcefd919	-0.029278325
177	0xbdcd9bc4	-0.100394756
178	0x3d999801	0.074996956
179	0x3d8d5cfb	0.069025
180	0xbc01368e	-0.007886542
181	0x3e294412	0.16529873
182	0xbe27defa	-0.16393653
183	0xbe3077e0	-0.17233229
184	0xbe0e2ad9	-0.13883533
185	0x3e115cc8	0.1419555
186	0x3df2e61f	0.11860298
187	0x3e18b670	0.14913344
188	0x3bfcd53e	0.00771585
189	0xbe0dc809	-0.13845839
190	0x3e19f48b	0.15034692
191	0xbe2403e7	-0.16017114
192	0xbc484269	-0.012222865
193	0xbd8a529d	-0.067540385
194	0xbb1d4d83	-0.00240025
195	0xbda813b6	-0.082068846
196	0x3e3789da	0.1792368
197	0x3e0d4b27	0.137982
198	0x3e333e1f	0.17504166
199	0x3ddfa280	0.10919666
200	0x3d754c72	0.059887357
201	0x3bd8b28f	0.0066130827
202	0x3d5b4696	0.053534113
203	0x3ccf910b	0.025337717
204	0x3dcbbd55	0.099482216
205	0x3bfb2491	0.007664271
206	0xbdbab8c2	-0.09117271
207	0x3e047837	0.12936483
208	0xbe179419	-0.14802589
209	0xbd799b9c	-0.060939416
210	0x3d5d57ce	0.054038815
211	0x3dda2900	0.106523514
212	0x3c45dbd9	0.012076342
213	0x3e1a1b92	0.1504958
214	0x3daf393f	0.08555841
215	0xbd5fd0d3	-0.05464251
216	0x3ce14c6a	0.027502257
217	0xbdeed153	-0.11661019
218	0x3bbadbb4	0.00570246
219	0x3ddace5a	0.1068389
220	0xbc655a4a	-0.013998577
221	0xbdf0119f	-0.11722111
222	0xb9e4923f	-0.0004359651
223	0x3e0c8d36	0.13725743
224	0xbde7d16e	-0.113192424
225	0x3cda36f0	0.026637524
226	0xbd6f0ca9	-0.058361683
227	0xbc880b02	-0.016606811
228	0xbdc96d8f	-0.0983535
229	0xbe0070c1	-0.12543012
230	0x3de33148	0.11093384
231	0x3e2ef793	0.1708663
232	0x3d84669e	0.06464885
233	0xbd28ccb9	-0.041210864
234	0xbd8c6d20	-0.068567514
235	0x3e10157b	0.14070694
236	0x3dd804e3	0.10547807
237	0xbda068f5	-0.07832519
238	0x3e3b0c8b	0.18266504
239	0x3dbc31b9	0.09189171
240	0x3e43eefe	0.19134137
241	0xbd8c0107	-0.068361335
242	0x3e0f0e2e	0.13970253
243	0xbd24f0ba	-0.040268637
244	0x3db962c8	0.09052044
245	0x3df9fb43	0.122061275
246	0xbe23f29b	-0.16010515
247	0x3e2a573f	0.16634844
248	0x3caa6943	0.020802146
249	0xbc945a6f	-0.018109528
250	0x3bd86436	0.006603743
251	0xbdce2b8b	-0.10066899
252	0xbda2e8a5	-0.0795453
253	0x3bf094af	0.007341943
254	0x3e06e526	0.1317335
255	0xbd941e79	-0.07232375

out.feature_out.layers.4.bias f4 [32]
0	0x3e119daa	0.142203
1	0xbd4648ff	-0.04840946
2	0x3cbf2ebb	0.023337713
3	0xbcd4d3e7	-0.02597995
4	0x3dc6e7ae	0.09712158
5	0x3d94bad3	0.072621964
6	0x3d870eeb	0.06594642
7	0xbe2f743c	-0.17134184
8	0xbdc9d348	-0.09854752
9	0x3cb660ec	0.022263013
10	0x3df55e92	0.119809285
11	0xbd9cefb8	-0.0766291
12	0xbda65754	-0.08122125
13	0x3e09c9fd	0.13455959
14	0x3e33ba7d	0.17551608
15	0xbdec651b	-0.11542722
16	0xbd41a556	-0.047276817
17	0xbe0d1780	-0.13778496
18	0x3d96f50e	0.07370959
19	0xbdd3fbf4	-0.103507906
20	0xbdc7136a	-0.097205
21	0x3d4ffdf3	0.050779294
22	0xbddfa351	-0.10919822
23	0x3c7c513d	0.015400228
24	0xbdd62202	-0.10455705
25	0x3d1e0c15	0.03858574
26	0xbddb3e30	-0.10705221
27	0xbc2d0421	-0.010560066
28	0x3d568f0f	0.052382525
29	0x3dc4783b	0.09593245
30	0x3d9dd70e	0.07707034
31	0x3dec873f	0.11549234

out.feature_out.layers.6.weight f4 [4, 32]
0	0xbe0d03a4	-0.1377092
1	0xbd7bfd9a	-0.06152115
2	0x3e0840d8	0.13305986
3	0xbde29372	-0.11063279
4	0x3cffacc5	0.031210313
5	0xbe325035	-0.17413409
6	0x3e1c3fc1	0.15258695
7	0x3e1092ec	0.14118546
8	0xbe0ef193	-0.13959341
9	0xbe20d375	-0.15705664
10	0x3d9cc74d	0.07655201
11	0x3e429765	0.19003065
12	0x3a838857	0.0010035139
13	0x3d9683a1	0.07349325
14	0xbd27068d	-0.04077773
15	0x3c3a7538	0.011380486
16	0x3deb781c	0.114975184
17	0xbd58ccc6	-0.052929662
18	0x3a1a4305	0.00058846205
19	0x3d9ed20f	0.07754909
20	0xbdd48cea	-0.1037844
21	0xbc9ff368	-0.019525245
22	0x3df9643e	0.12177323
23	0x3e255c46	0.16148481
24	0xbe209fa7	-0.15685903
25	0x3d76aa63	0.060221087
26	0x3c977884	0.018490084
27	0xbc4c144f	-0.012456014
28	0xbdeb8437	-0.11499827
29	0xbe30f147	-0.1727954
30	0xbdfb043a	-0.122566655
31	0xb9d94f39	-0.0004144849
32	0xbe27ca74	-0.16385823
33	0x3e06818b	0.13135354
34	0x3d4660fc	0.048432335
35	0xbd996633	-0.07490196
36	0x3d5ec741	0.054389242
37	0x3c8018de	0.015636858
38	0x3e16b9e9	0.14719357
39	0x3d3b17f7	0.04567715
40	0xbd6f59cf	-0.058435258
41	0xbdc5b5e4	-0.096538335
42	0x3cc8ec22	0.02452666
43	0x3d04fbf3	0.03246684
44	0xbdb018dd	-0.08598492
45	0xbe09b37e	-0.13447377
46	0xbe25befb	-0.16186135
47	0xbe1abc09	-0.15110792
48	0xbd3b30fb	-0.04570101
49	0xbe17c6b9	-0.148219
50	0xbc7a64bd	-0.015282807
51	0xbde11432	-0.1099018
52	0x3dbdf0cb	0.09274443
53	0xbda454ff	-0.08024024
54	0x3e04b1ea	0.12958494
55	0x3d4bcff2	0.04975886
56	0x3e1a2f05	0.15056999
57	0xbe0bb8de	-0.1364474
58	0xbbdae10d	-0.00667966
59	0xbc79b5eb	-0.0152411265
60	0x3ddcef38	0.10787815
61	0x3df5f28c	0.12009153
62	0x3df8f1e6	0.121555135
63	0x3c529df4	0.012855042
64	0xbd8e5927	-0.06950598
65	0x3e0502ee	0.12989399
66	0xbddac877	-0.10682767
67	0xbb48b6d4	-0.0030626552
68	0x3dc411d5	0.09573714
69	0xbe0044fa	-0.12526312
70	0xbd5a4b93	-0.05329473
71	0x3e0f5b18	0.13999593
72	0xbe141955	-0.14462788
73	0x3e13bb8d	0.14427014
74	0x3e1d6187	0.15369235
75	0x3c3e4297	0.011612556
76	0xbdc673e1	-0.09690071
77	0x3e13aa15	0.1442035
78	0x3e0156b8	0.12630737
79	0xbde1ad70	-0.11019409
80	0x3df7de3d	0.121029355
81	0xbd61bbbc	-0.055110678
82	0xbc6e33e3	-0.014538738
83	0x3cf7c8e6	0.030247163
84	0x3cf386bb	0.02972733
85	0xbd134c9f	-0.035961743
86	0x3c343c70	0.011000738
87	0x3db18d9a	0.086695865
88	0xbc20dc70	-0.009818181
89	0x3d68451b	0.05670653
90	0x3d9a422c	0.075321525
91	0xbd4e89f3	-0.050424527
92	0x3d0f640f	0.035007533
93	0xbe0a26b5	-0.13491328
94	0xbd365eca	-0.04452399
95	0xbdbc19a8	-0.09184581
96	0x3c289022	0.01028827
97	0xbd387985	-0.045037765
98	0xbdf8c90a	-0.1214772
99	0x3d9d7e52	0.07690109
100	0xbdd701ae	-0.10498367
101	0x3dc346f0	0.09535015
102	0xbdd7c5b8	-0.10535759
103	0xbdd4c225	-0.10388593
104	0xbd325c96	-0.043545328
105	0x3e1a2256	0.1505216
106	0xbe12c35b	-0.14332335
107	0xbd326de4	-0.04356183
108	0xbbaaf05c	-0.0052166414
109	0xbe143d8f	-0.14476608
110	0xbe16e449	-0.14735521
111	0xbe063c43	-0.13108926
112	0x3d89d457	0.06729954
113	0xbd9e9c91	-0.077447064
114	0x3d79b428	0.060962826
115	0x3e09c02c	0.13452214
116	0x3d176d86	0.036969684
117	0xbd3f2fdf	-0.046676513
118	0xbddb48b2	-0.10707225
119	0x3e208bda	0.15678349
120	0x3d52414c	0.051331803
121	0xbb279e50	-0.002557654
122	0xbd076fa1	-0.033065442
123	0x3daa3942	0.08311702
124	0xbbf58f35	-0.0074938782
125	0x3d944738	0.072401464
126	0xbdcc1126	-0.09964208
127	0x3db7570c	0.0895215

out.feature_out.layers.6.bias f4 [4]
0	0x3dd870e1	0.10568405
1	0x3e13a0fa	0.14416876
2	0xbe06ba81	-0.13157083
3	0xbdfcf930	-0.12352216

backbone.backbone.LSTM.lstm.weight_ih_l0 f4 [128, 32]
0	0x3df58f81	0.11990262
1	0xbdd3a758	-0.10334653
2	0xbd058116	-0.03259381
3	0x3df725fe	0.12067793
4	0xbe01f4bf	-0.1269102
5	0xbdffba98	-0.12486762
6	0x3e3a327d	0.18183322
7	0x3e592ccd	0.21208496
8	0xbcd2d4b9	-0.0257362
9	0xbc1f8234	-0.009735633
10	0xbb362afb	-0.0027796614
11	0xbc34cba1	-0.011034877
12	0x3dd9b41f	0.106300585
13	0xbde63578	-0.11240667
14	0x3e136f14	0.14397842
15	0x3c68f560	0.014218658
16	0x3e3dc3de	0.18531749
17	0xbe097013	-0.13421659
18	0xbe1e49cb	-0.15457837
19	0x3dad7c44	0.084709674
20	0xbd4b0e1d	-0.049574006
21	0xbe226d9e	-0.15862128
22	0x3d6a46ed	0.057196546
23	0xbe121117	-0.14264332
24	0xbaf83811	-0.0018937608
25	0xbda19719	-0.07890148
26	0xbda86155	-0.082216896
27	0xbda8065f	-0.0820434
28	0xbe1e3196	-0.15448603
29	0x3da29051	0.079376824
30	0x3dfb4b66	0.122702405
31	0xbd27d064	-0.04097022
32	0xbe42d2ec	-0.19025773
33	0xbe32aeed	-0.17449541
34	0xbdf41696	-0.119183704
35	0x3d77bab5	0.060480792
36	0xbd0caeb4	-0.034346297
37	0xbe0b1f09	-0.13586058
38	0x3dc63b57	0.09679287
39	0xbd246ec4	-0.040144697
40	0xba8227e3	-0.00099301
41	0xbddb7e6d	-0.10717473
42	0x3e17d6b2	0.14827994
43	0x3caf2905	0.021381864
44	0x3c78109e	0.015140681
45	0xbad17801	-0.0015981199
46	0xbe1cae26	-0.15300807
47	0x3dfb7234	0.12277642
48	0x3d8a81a5	0.06763009
49	0xbcb19c68	-0.021681026
50	0x3dd1e685	0.10249046
51	0xbe33e230	-0.17566752
52	0x3ddb0184	0.106936485
53	0xbe176f46	-0.14788541
54	0x3cd49123	0.025948113
55	0xbde59451	-0.1120993
56	0xbdbb30e7	-0.09140187
57	0x3d8b38f1	0.0679797
58	0x3e0851bd	0.1331243
59	0xbe34a8a6	-0.1764246
60	0xbdeb77df	-0.11497473
61	0xbcb1c659	-0.021701025
62	0xbddcedb5	-0.107875265
63	0x3e15e307	0.14637385
64	0x3d1c424d	0.038149167
65	0xbd6bd3b8	-0.057574958
66	0x3e3d1882	0.1846638
67	0xbd0d417d	-0.034486283
68	0xbdc35858	-0.095383346
69	0x3c80cc61	0.015722455
70	0x3b1a6709	0.002355995
71	0xbd9a2676	-0.07526867
72	0x3d988b57	0.07448452
73	0x3d35a65d	0.04434811
74	0xbe089be0	-0.13340712
75	0xbe0b8904	-0.13626486
76	0x3c35a383	0.0110863475
77	0x3dee9f82	0.116515175
78	0x3e285c5f	0.16441487
79	0xbdab7ca1	-0.083733805
80	0xbe0a6cce	-0.13518068
81	0x3cba4ebf	0.022742627
82	0x3ca1332f	0.019677727
83	0xba9dfbce	-0.0012053193
84	0xbe0e171c	-0.13876003
85	0xbd8fd747	-0.07023483
86	0x3d96f8c5	0.07371668
87	0x3d178370	0.036990583
88	0xbd79aeac	-0.060957596
89	0xbe1422ba	-0.14466372
90	0xbe048eba	-0.12945071
91	0xbd7b9808	-0.061424285
92	0x3de32bec	0.11092362
93	0xbde50b99	-0.11183853
94	0xbd9f67d0	-0.077834725
95	0xbe112bc7	-0.14176856
96	0x3e068d10	0.13139749
97	0xbe1e4948	-0.15457642
98	0x3cc15760	0.023601234
99	0x3d061a61	0.03274
100	0x3e298995	0.1655639
101	0xbd014854	-0.031563118
102	0xbdb6c0ad	-0.08923469
103	0xbd1dc44c	-0.03851728
104	0x3e279381	0.16364862
105	0x3d8da347	0.06915908
106	0x3daa3030	0.08309972
107	0x3d0fccf8	0.035107583
108	0x3d61d3fd	0.05513381
109	0x3dc4733e	0.09592293
110	0x3db8ddda	0.0902669
111	0xbd8ed866	-0.069748685
112	0xbcf38932	-0.029728506
113	0x3d8ad635	0.06779138
114	0xbda27f83	-0.07934477
115	0xbe0388a4	-0.12845093
116	0xbe01d786	-0.12679872
117	0xbe39c45f	-0.18141316
118	0xbe19e7d2	-0.15029839
119	0x3de27a0f	0.11058437
120	0xbde11c3e	-0.10991715
121	0xbe025152	-0.12726334
122	0xbde09cf4	-0.109674364
123	0x3dbdd187	0.0926848
124	0xbdfa4259	-0.12219686
125	0x3d0d16ab	0.034445446
126	0x3d5fd10a	0.054642715
127	0x3e07ae8b	0.13250177
128	0xbd1fd821	-0.039024476
129	0xbd624ef1	-0.055251066
130	0x3cfe5b14	0.031049289
131	0x3e1d620d	0.15369435
132	0x3d95e1b3	0.07318439
133	0xbd9b73a5	-0.07590417
134	0x3da2656c	0.07929501
135	0x3a0379eb	0.00050154206
136	0x3d1a9dbf	0.037748095
137	0xbd8f0b4b	-0.06984576
138	0x3dc21a9f	0.09477734
139	0x3e2771cf	0.16352008
140	0xbe0d9fdb	-0.13830511
141	0x3d44d023	0.048050057
142	0xbe32b47c	-0.17451662
143	0xbd8e8836	-0.06959574
144	0x3d541959	0.051781986
145	0xbe0a6d77	-0.1351832
146	0xbdc8b347	-0.097998194
147	0xbd0b3b23	-0.033991944
148	0xbd3389a2	-0.04383243
149	0x3da1c959	0.07899732
150	0xbde28626	-0.11060743
151	0x3e087e46	0.1332942
152	0x3dc83da1	0.0977738
153	0x3df5ba77	0.11998456
154	0x3df40cc3	0.119164966
155	0xbda00a1e	-0.0781443
156	0x3d019afd	0.03164195
157	0xbdd31c5e	-0.10308145
158	0xbc96c776	-0.018405657
159	0x3e0191ce	0.12653276
160	0x3e24cdd4	0.16094142
161	0xbbda88bd	-0.0066691325
162	0x3db9a213	0.09064116
163	0x3df3d987	0.119067244
164	0x3e053eb0	0.13012195
165	0xbd20933b	-0.03920291
166	0xbdfefc3c	-0.12450454
167	0xbe1d4d9e	-0.1536164
168	0x3d8b4f80	0.06802273
169	0xbdb60e6d	-0.0888947
170	0x3dec870a	0.11549194
171	0x3e064d37	0.13115393
172	0x3cdb9c17	0.026807828
173	0xbd2ff349	-0.042956624
174	0xbe2c4045	-0.16821392
175	0x3e113f66	0.14184341
176	0x3e1d5b78	0.15366924
177	0xbd7589f4	-0.059946015
178	0xbe29d81d	-0.16586347
179	0xbd2ee47f	-0.04269838
180	0x3d020fff	0.031753536
181	0x3e036c8d	0.12834378
182	0x3c7239b0	0.014784262
183	0x3dfa4023	0.12219264
184	0x3dde82cb	0.108647905
185	0xbd60a2bc	-0.054842696
186	0x3def0448	0.116707385
187	0xbdb4b280	-0.08823109
188	0xbdda2ee8	-0.10653478
189	0xbc700898	-0.014650486
190	0xbdb655f8	-0.08903116
191	0xbdf16df3	-0.11788549
192	0x3e161c3a	0.14659205
193	0xbe17fc4b	-0.14842336
194	0x3de31e16	0.11089723
195	0xbd4cf5af	-0.05003899
196	0xbbf8f62f	-0.0075977067
197	0x3d5669ea	0.0523471
198	0x3d2c8ce0	0.042126536
199	0xbd861741	-0.06547404
200	0x3d1cb2fb	0.038256627
201	0x3e0db22a	0.13837495
202	0x3dc1dd2c	0.09466013
203	0xbd6f103e	-0.0583651
204	0x3dda2965	0.10652427
205	0x3dae6dfc	0.085170716
206	0xbd69cfb0	-0.05708283
207	0xbbf4fd09	-0.007476453
208	0xbde9e7eb	-0.11421188
209	0xbd138c66	-0.036022566
210	0xbda5dc6d	-0.080986835
211	0xbe397a15	-0.18112977
212	0x3e0db423	0.13838248
213	0x3dfd490e	0.1236745
214	0xbe255b27	-0.16148053
215	0xbdf325df	-0.11872458
216	0x3db194c6	0.086709544
217	0xbe0ecbf3	-0.13944988
218	0xbd821fb9	-0.06353707
219	0xbdacf339	-0.084448285
220	0x3c2a52b4	0.0103956945
221	0x3e0914a5	0.13386782
222	0x3e20df49	0.15710177
223	0x3bb9973d	0.005663781
224	0xbd2ff1fd	-0.042955387
225	0x3d851c39	0.06499524
226	0x3d8b9916	0.06816308
227	0xbe07931f	-0.13239716
228	0xbdf882fe	-0.1213436
229	0x3c553a80	0.013014436
230	0xbc9ee043	-0.019394046
231	0xbde79e3a	-0.11309476
232	0xbd3377bf	-0.04381537
233	0xbe0ac5be	-0.13551995
234	0x3e1bbab0	0.15207934
235	0xbd5dfe86	-0.05419781
236	0x3cead908	0.028667942
237	0xbe0ccacd	-0.13749237
238	0x3cd0eb01	0.025502684
239	0xbdd9edb1	-0.10641039
240	0xbc9f9922	-0.0194822
241	0x3e0f7fa1	0.1401353
242	0xbdae47eb	-0.08509811
243	0x3cbe53d2	0.023233328
244	0x3d49af78	0.049239606
245	0xbd276372	-0.040866323
246	0x3db07c66	0.08617477
247	0xbdfc3576	-0.12314884
248	0xbe26b461	-0.16279747
249	0xbd6579e0	-0.056024432
250	0xbdd50718	-0.10401744
251	0xbd2f9139	-0.042863104
252	0x3d3df415	0.046375353
253	0xbcb3bfc3	-0.021942025
254	0x3dccbb35	0.099966444
255	0xbe4b7e9c	-0.19872516
